<?xml version="1.0"?>
<net name="main_graph" version="11">
	<layers>
		<layer id="0" name="images" type="Parameter" version="opset1">
			<data shape="1,3,640,640" element_type="f32" />
			<output>
				<port id="0" precision="FP32" names="images">
					<dim>1</dim>
					<dim>3</dim>
					<dim>640</dim>
					<dim>640</dim>
				</port>
			</output>
		</layer>
		<layer id="1" name="/model.22/Constant_9_output_0" type="Const" version="opset1">
			<data element_type="f32" shape="1, 2, 8400" offset="0" size="67200" />
			<output>
				<port id="0" precision="FP32" names="/model.22/Constant_9_output_0">
					<dim>1</dim>
					<dim>2</dim>
					<dim>8400</dim>
				</port>
			</output>
		</layer>
		<layer id="2" name="Constant_20400" type="Const" version="opset1">
			<data element_type="f32" shape="1, 1, 1, 1" offset="67200" size="4" />
			<output>
				<port id="0" precision="FP32">
					<dim>1</dim>
					<dim>1</dim>
					<dim>1</dim>
					<dim>1</dim>
				</port>
			</output>
		</layer>
		<layer id="3" name="Constant_20401" type="Const" version="opset1">
			<data element_type="f32" shape="1, 1, 1, 1" offset="67204" size="4" />
			<output>
				<port id="0" precision="FP32">
					<dim>1</dim>
					<dim>1</dim>
					<dim>1</dim>
					<dim>1</dim>
				</port>
			</output>
		</layer>
		<layer id="4" name="Constant_20402" type="Const" version="opset1">
			<data element_type="f32" shape="1, 1, 1, 1" offset="67200" size="4" />
			<output>
				<port id="0" precision="FP32">
					<dim>1</dim>
					<dim>1</dim>
					<dim>1</dim>
					<dim>1</dim>
				</port>
			</output>
		</layer>
		<layer id="5" name="Constant_20403" type="Const" version="opset1">
			<data element_type="f32" shape="1, 1, 1, 1" offset="67204" size="4" />
			<output>
				<port id="0" precision="FP32">
					<dim>1</dim>
					<dim>1</dim>
					<dim>1</dim>
					<dim>1</dim>
				</port>
			</output>
		</layer>
		<layer id="6" name="images_DequantizeLinear" type="FakeQuantize" version="opset1">
			<data levels="256" auto_broadcast="numpy" />
			<input>
				<port id="0" precision="FP32">
					<dim>1</dim>
					<dim>3</dim>
					<dim>640</dim>
					<dim>640</dim>
				</port>
				<port id="1" precision="FP32">
					<dim>1</dim>
					<dim>1</dim>
					<dim>1</dim>
					<dim>1</dim>
				</port>
				<port id="2" precision="FP32">
					<dim>1</dim>
					<dim>1</dim>
					<dim>1</dim>
					<dim>1</dim>
				</port>
				<port id="3" precision="FP32">
					<dim>1</dim>
					<dim>1</dim>
					<dim>1</dim>
					<dim>1</dim>
				</port>
				<port id="4" precision="FP32">
					<dim>1</dim>
					<dim>1</dim>
					<dim>1</dim>
					<dim>1</dim>
				</port>
			</input>
			<output>
				<port id="5" precision="FP32" names="images_DequantizeLinear_Output">
					<dim>1</dim>
					<dim>3</dim>
					<dim>640</dim>
					<dim>640</dim>
				</port>
			</output>
		</layer>
		<layer id="7" name="model.0.conv.weight_quantized" type="Const" version="opset1">
			<data element_type="i8" shape="16, 3, 3, 3" offset="67208" size="432" />
			<output>
				<port id="0" precision="I8" names="model.0.conv.weight_quantized">
					<dim>16</dim>
					<dim>3</dim>
					<dim>3</dim>
					<dim>3</dim>
				</port>
			</output>
		</layer>
		<layer id="8" name="Convert_848" type="Convert" version="opset1">
			<data destination_type="f32" />
			<input>
				<port id="0" precision="I8">
					<dim>16</dim>
					<dim>3</dim>
					<dim>3</dim>
					<dim>3</dim>
				</port>
			</input>
			<output>
				<port id="1" precision="FP32">
					<dim>16</dim>
					<dim>3</dim>
					<dim>3</dim>
					<dim>3</dim>
				</port>
			</output>
		</layer>
		<layer id="9" name="Constant_20404" type="Const" version="opset1">
			<data element_type="f32" shape="1, 1, 1, 1" offset="67640" size="4" />
			<output>
				<port id="0" precision="FP32">
					<dim>1</dim>
					<dim>1</dim>
					<dim>1</dim>
					<dim>1</dim>
				</port>
			</output>
		</layer>
		<layer id="10" name="model.0.conv.weight_DequantizeLinear" type="Multiply" version="opset1">
			<data auto_broadcast="numpy" />
			<input>
				<port id="0" precision="FP32">
					<dim>16</dim>
					<dim>3</dim>
					<dim>3</dim>
					<dim>3</dim>
				</port>
				<port id="1" precision="FP32">
					<dim>1</dim>
					<dim>1</dim>
					<dim>1</dim>
					<dim>1</dim>
				</port>
			</input>
			<output>
				<port id="2" precision="FP32" names="model.0.conv.weight_DequantizeLinear_Output">
					<dim>16</dim>
					<dim>3</dim>
					<dim>3</dim>
					<dim>3</dim>
				</port>
			</output>
		</layer>
		<layer id="11" name="/model.0/conv/Conv/WithoutBiases" type="Convolution" version="opset1">
			<data strides="2, 2" dilations="1, 1" pads_begin="1, 1" pads_end="1, 1" auto_pad="explicit" />
			<input>
				<port id="0" precision="FP32">
					<dim>1</dim>
					<dim>3</dim>
					<dim>640</dim>
					<dim>640</dim>
				</port>
				<port id="1" precision="FP32">
					<dim>16</dim>
					<dim>3</dim>
					<dim>3</dim>
					<dim>3</dim>
				</port>
			</input>
			<output>
				<port id="2" precision="FP32">
					<dim>1</dim>
					<dim>16</dim>
					<dim>320</dim>
					<dim>320</dim>
				</port>
			</output>
		</layer>
		<layer id="12" name="model.0.conv.bias_quantized" type="Const" version="opset1">
			<data element_type="i32" shape="16" offset="67644" size="64" />
			<output>
				<port id="0" precision="I32" names="model.0.conv.bias_quantized">
					<dim>16</dim>
				</port>
			</output>
		</layer>
		<layer id="13" name="Convert_844" type="Convert" version="opset1">
			<data destination_type="f32" />
			<input>
				<port id="0" precision="I32">
					<dim>16</dim>
				</port>
			</input>
			<output>
				<port id="1" precision="FP32">
					<dim>16</dim>
				</port>
			</output>
		</layer>
		<layer id="14" name="model.0.conv.bias_quantized_scale" type="Const" version="opset1">
			<data element_type="f32" shape="1" offset="67708" size="4" />
			<output>
				<port id="0" precision="FP32" names="model.0.conv.bias_quantized_scale">
					<dim>1</dim>
				</port>
			</output>
		</layer>
		<layer id="15" name="model.0.conv.bias_DequantizeLinear" type="Multiply" version="opset1">
			<data auto_broadcast="numpy" />
			<input>
				<port id="0" precision="FP32">
					<dim>16</dim>
				</port>
				<port id="1" precision="FP32">
					<dim>1</dim>
				</port>
			</input>
			<output>
				<port id="2" precision="FP32" names="model.0.conv.bias">
					<dim>16</dim>
				</port>
			</output>
		</layer>
		<layer id="16" name="Concat_1365" type="Const" version="opset1">
			<data element_type="i64" shape="4" offset="67712" size="32" />
			<output>
				<port id="0" precision="I64">
					<dim>4</dim>
				</port>
			</output>
		</layer>
		<layer id="17" name="Reshape_1366" type="Reshape" version="opset1">
			<data special_zero="false" />
			<input>
				<port id="0" precision="FP32">
					<dim>16</dim>
				</port>
				<port id="1" precision="I64">
					<dim>4</dim>
				</port>
			</input>
			<output>
				<port id="2" precision="FP32">
					<dim>1</dim>
					<dim>16</dim>
					<dim>1</dim>
					<dim>1</dim>
				</port>
			</output>
		</layer>
		<layer id="18" name="/model.0/conv/Conv" type="Add" version="opset1">
			<data auto_broadcast="numpy" />
			<input>
				<port id="0" precision="FP32">
					<dim>1</dim>
					<dim>16</dim>
					<dim>320</dim>
					<dim>320</dim>
				</port>
				<port id="1" precision="FP32">
					<dim>1</dim>
					<dim>16</dim>
					<dim>1</dim>
					<dim>1</dim>
				</port>
			</input>
			<output>
				<port id="2" precision="FP32" names="/model.0/conv/Conv_output_0">
					<dim>1</dim>
					<dim>16</dim>
					<dim>320</dim>
					<dim>320</dim>
				</port>
			</output>
		</layer>
		<layer id="19" name="Constant_20405" type="Const" version="opset1">
			<data element_type="f32" shape="1, 1, 1, 1" offset="67744" size="4" />
			<output>
				<port id="0" precision="FP32">
					<dim>1</dim>
					<dim>1</dim>
					<dim>1</dim>
					<dim>1</dim>
				</port>
			</output>
		</layer>
		<layer id="20" name="Constant_20406" type="Const" version="opset1">
			<data element_type="f32" shape="1, 1, 1, 1" offset="67748" size="4" />
			<output>
				<port id="0" precision="FP32">
					<dim>1</dim>
					<dim>1</dim>
					<dim>1</dim>
					<dim>1</dim>
				</port>
			</output>
		</layer>
		<layer id="21" name="Constant_20407" type="Const" version="opset1">
			<data element_type="f32" shape="1, 1, 1, 1" offset="67744" size="4" />
			<output>
				<port id="0" precision="FP32">
					<dim>1</dim>
					<dim>1</dim>
					<dim>1</dim>
					<dim>1</dim>
				</port>
			</output>
		</layer>
		<layer id="22" name="Constant_20408" type="Const" version="opset1">
			<data element_type="f32" shape="1, 1, 1, 1" offset="67748" size="4" />
			<output>
				<port id="0" precision="FP32">
					<dim>1</dim>
					<dim>1</dim>
					<dim>1</dim>
					<dim>1</dim>
				</port>
			</output>
		</layer>
		<layer id="23" name="/model.0/conv/Conv_output_0_DequantizeLinear" type="FakeQuantize" version="opset1">
			<data levels="256" auto_broadcast="numpy" />
			<input>
				<port id="0" precision="FP32">
					<dim>1</dim>
					<dim>16</dim>
					<dim>320</dim>
					<dim>320</dim>
				</port>
				<port id="1" precision="FP32">
					<dim>1</dim>
					<dim>1</dim>
					<dim>1</dim>
					<dim>1</dim>
				</port>
				<port id="2" precision="FP32">
					<dim>1</dim>
					<dim>1</dim>
					<dim>1</dim>
					<dim>1</dim>
				</port>
				<port id="3" precision="FP32">
					<dim>1</dim>
					<dim>1</dim>
					<dim>1</dim>
					<dim>1</dim>
				</port>
				<port id="4" precision="FP32">
					<dim>1</dim>
					<dim>1</dim>
					<dim>1</dim>
					<dim>1</dim>
				</port>
			</input>
			<output>
				<port id="5" precision="FP32" names="/model.0/conv/Conv_output_0_DequantizeLinear_Output">
					<dim>1</dim>
					<dim>16</dim>
					<dim>320</dim>
					<dim>320</dim>
				</port>
			</output>
		</layer>
		<layer id="24" name="/model.0/act/Sigmoid" type="Sigmoid" version="opset1">
			<input>
				<port id="0" precision="FP32">
					<dim>1</dim>
					<dim>16</dim>
					<dim>320</dim>
					<dim>320</dim>
				</port>
			</input>
			<output>
				<port id="1" precision="FP32" names="/model.0/act/Sigmoid_output_0">
					<dim>1</dim>
					<dim>16</dim>
					<dim>320</dim>
					<dim>320</dim>
				</port>
			</output>
		</layer>
		<layer id="25" name="Constant_20409" type="Const" version="opset1">
			<data element_type="f32" shape="1, 1, 1, 1" offset="67200" size="4" />
			<output>
				<port id="0" precision="FP32">
					<dim>1</dim>
					<dim>1</dim>
					<dim>1</dim>
					<dim>1</dim>
				</port>
			</output>
		</layer>
		<layer id="26" name="Constant_20410" type="Const" version="opset1">
			<data element_type="f32" shape="1, 1, 1, 1" offset="67752" size="4" />
			<output>
				<port id="0" precision="FP32">
					<dim>1</dim>
					<dim>1</dim>
					<dim>1</dim>
					<dim>1</dim>
				</port>
			</output>
		</layer>
		<layer id="27" name="Constant_20411" type="Const" version="opset1">
			<data element_type="f32" shape="1, 1, 1, 1" offset="67200" size="4" />
			<output>
				<port id="0" precision="FP32">
					<dim>1</dim>
					<dim>1</dim>
					<dim>1</dim>
					<dim>1</dim>
				</port>
			</output>
		</layer>
		<layer id="28" name="Constant_20412" type="Const" version="opset1">
			<data element_type="f32" shape="1, 1, 1, 1" offset="67752" size="4" />
			<output>
				<port id="0" precision="FP32">
					<dim>1</dim>
					<dim>1</dim>
					<dim>1</dim>
					<dim>1</dim>
				</port>
			</output>
		</layer>
		<layer id="29" name="/model.0/act/Sigmoid_output_0_DequantizeLinear" type="FakeQuantize" version="opset1">
			<data levels="256" auto_broadcast="numpy" />
			<input>
				<port id="0" precision="FP32">
					<dim>1</dim>
					<dim>16</dim>
					<dim>320</dim>
					<dim>320</dim>
				</port>
				<port id="1" precision="FP32">
					<dim>1</dim>
					<dim>1</dim>
					<dim>1</dim>
					<dim>1</dim>
				</port>
				<port id="2" precision="FP32">
					<dim>1</dim>
					<dim>1</dim>
					<dim>1</dim>
					<dim>1</dim>
				</port>
				<port id="3" precision="FP32">
					<dim>1</dim>
					<dim>1</dim>
					<dim>1</dim>
					<dim>1</dim>
				</port>
				<port id="4" precision="FP32">
					<dim>1</dim>
					<dim>1</dim>
					<dim>1</dim>
					<dim>1</dim>
				</port>
			</input>
			<output>
				<port id="5" precision="FP32" names="/model.0/act/Sigmoid_output_0_DequantizeLinear_Output">
					<dim>1</dim>
					<dim>16</dim>
					<dim>320</dim>
					<dim>320</dim>
				</port>
			</output>
		</layer>
		<layer id="30" name="/model.0/act/Mul" type="Multiply" version="opset1">
			<data auto_broadcast="numpy" />
			<input>
				<port id="0" precision="FP32">
					<dim>1</dim>
					<dim>16</dim>
					<dim>320</dim>
					<dim>320</dim>
				</port>
				<port id="1" precision="FP32">
					<dim>1</dim>
					<dim>16</dim>
					<dim>320</dim>
					<dim>320</dim>
				</port>
			</input>
			<output>
				<port id="2" precision="FP32" names="/model.0/act/Mul_output_0">
					<dim>1</dim>
					<dim>16</dim>
					<dim>320</dim>
					<dim>320</dim>
				</port>
			</output>
		</layer>
		<layer id="31" name="Constant_20413" type="Const" version="opset1">
			<data element_type="f32" shape="1, 1, 1, 1" offset="67756" size="4" />
			<output>
				<port id="0" precision="FP32">
					<dim>1</dim>
					<dim>1</dim>
					<dim>1</dim>
					<dim>1</dim>
				</port>
			</output>
		</layer>
		<layer id="32" name="Constant_20414" type="Const" version="opset1">
			<data element_type="f32" shape="1, 1, 1, 1" offset="67760" size="4" />
			<output>
				<port id="0" precision="FP32">
					<dim>1</dim>
					<dim>1</dim>
					<dim>1</dim>
					<dim>1</dim>
				</port>
			</output>
		</layer>
		<layer id="33" name="Constant_20415" type="Const" version="opset1">
			<data element_type="f32" shape="1, 1, 1, 1" offset="67756" size="4" />
			<output>
				<port id="0" precision="FP32">
					<dim>1</dim>
					<dim>1</dim>
					<dim>1</dim>
					<dim>1</dim>
				</port>
			</output>
		</layer>
		<layer id="34" name="Constant_20416" type="Const" version="opset1">
			<data element_type="f32" shape="1, 1, 1, 1" offset="67760" size="4" />
			<output>
				<port id="0" precision="FP32">
					<dim>1</dim>
					<dim>1</dim>
					<dim>1</dim>
					<dim>1</dim>
				</port>
			</output>
		</layer>
		<layer id="35" name="/model.0/act/Mul_output_0_DequantizeLinear" type="FakeQuantize" version="opset1">
			<data levels="256" auto_broadcast="numpy" />
			<input>
				<port id="0" precision="FP32">
					<dim>1</dim>
					<dim>16</dim>
					<dim>320</dim>
					<dim>320</dim>
				</port>
				<port id="1" precision="FP32">
					<dim>1</dim>
					<dim>1</dim>
					<dim>1</dim>
					<dim>1</dim>
				</port>
				<port id="2" precision="FP32">
					<dim>1</dim>
					<dim>1</dim>
					<dim>1</dim>
					<dim>1</dim>
				</port>
				<port id="3" precision="FP32">
					<dim>1</dim>
					<dim>1</dim>
					<dim>1</dim>
					<dim>1</dim>
				</port>
				<port id="4" precision="FP32">
					<dim>1</dim>
					<dim>1</dim>
					<dim>1</dim>
					<dim>1</dim>
				</port>
			</input>
			<output>
				<port id="5" precision="FP32" names="/model.0/act/Mul_output_0_DequantizeLinear_Output">
					<dim>1</dim>
					<dim>16</dim>
					<dim>320</dim>
					<dim>320</dim>
				</port>
			</output>
		</layer>
		<layer id="36" name="model.1.conv.weight_quantized" type="Const" version="opset1">
			<data element_type="i8" shape="32, 16, 3, 3" offset="67764" size="4608" />
			<output>
				<port id="0" precision="I8" names="model.1.conv.weight_quantized">
					<dim>32</dim>
					<dim>16</dim>
					<dim>3</dim>
					<dim>3</dim>
				</port>
			</output>
		</layer>
		<layer id="37" name="Convert_856" type="Convert" version="opset1">
			<data destination_type="f32" />
			<input>
				<port id="0" precision="I8">
					<dim>32</dim>
					<dim>16</dim>
					<dim>3</dim>
					<dim>3</dim>
				</port>
			</input>
			<output>
				<port id="1" precision="FP32">
					<dim>32</dim>
					<dim>16</dim>
					<dim>3</dim>
					<dim>3</dim>
				</port>
			</output>
		</layer>
		<layer id="38" name="Constant_20417" type="Const" version="opset1">
			<data element_type="f32" shape="1, 1, 1, 1" offset="72372" size="4" />
			<output>
				<port id="0" precision="FP32">
					<dim>1</dim>
					<dim>1</dim>
					<dim>1</dim>
					<dim>1</dim>
				</port>
			</output>
		</layer>
		<layer id="39" name="model.1.conv.weight_DequantizeLinear" type="Multiply" version="opset1">
			<data auto_broadcast="numpy" />
			<input>
				<port id="0" precision="FP32">
					<dim>32</dim>
					<dim>16</dim>
					<dim>3</dim>
					<dim>3</dim>
				</port>
				<port id="1" precision="FP32">
					<dim>1</dim>
					<dim>1</dim>
					<dim>1</dim>
					<dim>1</dim>
				</port>
			</input>
			<output>
				<port id="2" precision="FP32" names="model.1.conv.weight_DequantizeLinear_Output">
					<dim>32</dim>
					<dim>16</dim>
					<dim>3</dim>
					<dim>3</dim>
				</port>
			</output>
		</layer>
		<layer id="40" name="/model.1/conv/Conv/WithoutBiases" type="Convolution" version="opset1">
			<data strides="2, 2" dilations="1, 1" pads_begin="1, 1" pads_end="1, 1" auto_pad="explicit" />
			<input>
				<port id="0" precision="FP32">
					<dim>1</dim>
					<dim>16</dim>
					<dim>320</dim>
					<dim>320</dim>
				</port>
				<port id="1" precision="FP32">
					<dim>32</dim>
					<dim>16</dim>
					<dim>3</dim>
					<dim>3</dim>
				</port>
			</input>
			<output>
				<port id="2" precision="FP32">
					<dim>1</dim>
					<dim>32</dim>
					<dim>160</dim>
					<dim>160</dim>
				</port>
			</output>
		</layer>
		<layer id="41" name="model.1.conv.bias_quantized" type="Const" version="opset1">
			<data element_type="i32" shape="32" offset="72376" size="128" />
			<output>
				<port id="0" precision="I32" names="model.1.conv.bias_quantized">
					<dim>32</dim>
				</port>
			</output>
		</layer>
		<layer id="42" name="Convert_852" type="Convert" version="opset1">
			<data destination_type="f32" />
			<input>
				<port id="0" precision="I32">
					<dim>32</dim>
				</port>
			</input>
			<output>
				<port id="1" precision="FP32">
					<dim>32</dim>
				</port>
			</output>
		</layer>
		<layer id="43" name="model.1.conv.bias_quantized_scale" type="Const" version="opset1">
			<data element_type="f32" shape="1" offset="72504" size="4" />
			<output>
				<port id="0" precision="FP32" names="model.1.conv.bias_quantized_scale">
					<dim>1</dim>
				</port>
			</output>
		</layer>
		<layer id="44" name="model.1.conv.bias_DequantizeLinear" type="Multiply" version="opset1">
			<data auto_broadcast="numpy" />
			<input>
				<port id="0" precision="FP32">
					<dim>32</dim>
				</port>
				<port id="1" precision="FP32">
					<dim>1</dim>
				</port>
			</input>
			<output>
				<port id="2" precision="FP32" names="model.1.conv.bias">
					<dim>32</dim>
				</port>
			</output>
		</layer>
		<layer id="45" name="Concat_1425" type="Const" version="opset1">
			<data element_type="i64" shape="4" offset="72508" size="32" />
			<output>
				<port id="0" precision="I64">
					<dim>4</dim>
				</port>
			</output>
		</layer>
		<layer id="46" name="Reshape_1426" type="Reshape" version="opset1">
			<data special_zero="false" />
			<input>
				<port id="0" precision="FP32">
					<dim>32</dim>
				</port>
				<port id="1" precision="I64">
					<dim>4</dim>
				</port>
			</input>
			<output>
				<port id="2" precision="FP32">
					<dim>1</dim>
					<dim>32</dim>
					<dim>1</dim>
					<dim>1</dim>
				</port>
			</output>
		</layer>
		<layer id="47" name="/model.1/conv/Conv" type="Add" version="opset1">
			<data auto_broadcast="numpy" />
			<input>
				<port id="0" precision="FP32">
					<dim>1</dim>
					<dim>32</dim>
					<dim>160</dim>
					<dim>160</dim>
				</port>
				<port id="1" precision="FP32">
					<dim>1</dim>
					<dim>32</dim>
					<dim>1</dim>
					<dim>1</dim>
				</port>
			</input>
			<output>
				<port id="2" precision="FP32" names="/model.1/conv/Conv_output_0">
					<dim>1</dim>
					<dim>32</dim>
					<dim>160</dim>
					<dim>160</dim>
				</port>
			</output>
		</layer>
		<layer id="48" name="Constant_20418" type="Const" version="opset1">
			<data element_type="f32" shape="1, 1, 1, 1" offset="72540" size="4" />
			<output>
				<port id="0" precision="FP32">
					<dim>1</dim>
					<dim>1</dim>
					<dim>1</dim>
					<dim>1</dim>
				</port>
			</output>
		</layer>
		<layer id="49" name="Constant_20419" type="Const" version="opset1">
			<data element_type="f32" shape="1, 1, 1, 1" offset="72544" size="4" />
			<output>
				<port id="0" precision="FP32">
					<dim>1</dim>
					<dim>1</dim>
					<dim>1</dim>
					<dim>1</dim>
				</port>
			</output>
		</layer>
		<layer id="50" name="Constant_20420" type="Const" version="opset1">
			<data element_type="f32" shape="1, 1, 1, 1" offset="72540" size="4" />
			<output>
				<port id="0" precision="FP32">
					<dim>1</dim>
					<dim>1</dim>
					<dim>1</dim>
					<dim>1</dim>
				</port>
			</output>
		</layer>
		<layer id="51" name="Constant_20421" type="Const" version="opset1">
			<data element_type="f32" shape="1, 1, 1, 1" offset="72544" size="4" />
			<output>
				<port id="0" precision="FP32">
					<dim>1</dim>
					<dim>1</dim>
					<dim>1</dim>
					<dim>1</dim>
				</port>
			</output>
		</layer>
		<layer id="52" name="/model.1/conv/Conv_output_0_DequantizeLinear" type="FakeQuantize" version="opset1">
			<data levels="256" auto_broadcast="numpy" />
			<input>
				<port id="0" precision="FP32">
					<dim>1</dim>
					<dim>32</dim>
					<dim>160</dim>
					<dim>160</dim>
				</port>
				<port id="1" precision="FP32">
					<dim>1</dim>
					<dim>1</dim>
					<dim>1</dim>
					<dim>1</dim>
				</port>
				<port id="2" precision="FP32">
					<dim>1</dim>
					<dim>1</dim>
					<dim>1</dim>
					<dim>1</dim>
				</port>
				<port id="3" precision="FP32">
					<dim>1</dim>
					<dim>1</dim>
					<dim>1</dim>
					<dim>1</dim>
				</port>
				<port id="4" precision="FP32">
					<dim>1</dim>
					<dim>1</dim>
					<dim>1</dim>
					<dim>1</dim>
				</port>
			</input>
			<output>
				<port id="5" precision="FP32" names="/model.1/conv/Conv_output_0_DequantizeLinear_Output">
					<dim>1</dim>
					<dim>32</dim>
					<dim>160</dim>
					<dim>160</dim>
				</port>
			</output>
		</layer>
		<layer id="53" name="/model.1/act/Sigmoid" type="Sigmoid" version="opset1">
			<input>
				<port id="0" precision="FP32">
					<dim>1</dim>
					<dim>32</dim>
					<dim>160</dim>
					<dim>160</dim>
				</port>
			</input>
			<output>
				<port id="1" precision="FP32" names="/model.1/act/Sigmoid_output_0">
					<dim>1</dim>
					<dim>32</dim>
					<dim>160</dim>
					<dim>160</dim>
				</port>
			</output>
		</layer>
		<layer id="54" name="Constant_20422" type="Const" version="opset1">
			<data element_type="f32" shape="1, 1, 1, 1" offset="67200" size="4" />
			<output>
				<port id="0" precision="FP32">
					<dim>1</dim>
					<dim>1</dim>
					<dim>1</dim>
					<dim>1</dim>
				</port>
			</output>
		</layer>
		<layer id="55" name="Constant_20423" type="Const" version="opset1">
			<data element_type="f32" shape="1, 1, 1, 1" offset="67752" size="4" />
			<output>
				<port id="0" precision="FP32">
					<dim>1</dim>
					<dim>1</dim>
					<dim>1</dim>
					<dim>1</dim>
				</port>
			</output>
		</layer>
		<layer id="56" name="Constant_20424" type="Const" version="opset1">
			<data element_type="f32" shape="1, 1, 1, 1" offset="67200" size="4" />
			<output>
				<port id="0" precision="FP32">
					<dim>1</dim>
					<dim>1</dim>
					<dim>1</dim>
					<dim>1</dim>
				</port>
			</output>
		</layer>
		<layer id="57" name="Constant_20425" type="Const" version="opset1">
			<data element_type="f32" shape="1, 1, 1, 1" offset="67752" size="4" />
			<output>
				<port id="0" precision="FP32">
					<dim>1</dim>
					<dim>1</dim>
					<dim>1</dim>
					<dim>1</dim>
				</port>
			</output>
		</layer>
		<layer id="58" name="/model.1/act/Sigmoid_output_0_DequantizeLinear" type="FakeQuantize" version="opset1">
			<data levels="256" auto_broadcast="numpy" />
			<input>
				<port id="0" precision="FP32">
					<dim>1</dim>
					<dim>32</dim>
					<dim>160</dim>
					<dim>160</dim>
				</port>
				<port id="1" precision="FP32">
					<dim>1</dim>
					<dim>1</dim>
					<dim>1</dim>
					<dim>1</dim>
				</port>
				<port id="2" precision="FP32">
					<dim>1</dim>
					<dim>1</dim>
					<dim>1</dim>
					<dim>1</dim>
				</port>
				<port id="3" precision="FP32">
					<dim>1</dim>
					<dim>1</dim>
					<dim>1</dim>
					<dim>1</dim>
				</port>
				<port id="4" precision="FP32">
					<dim>1</dim>
					<dim>1</dim>
					<dim>1</dim>
					<dim>1</dim>
				</port>
			</input>
			<output>
				<port id="5" precision="FP32" names="/model.1/act/Sigmoid_output_0_DequantizeLinear_Output">
					<dim>1</dim>
					<dim>32</dim>
					<dim>160</dim>
					<dim>160</dim>
				</port>
			</output>
		</layer>
		<layer id="59" name="/model.1/act/Mul" type="Multiply" version="opset1">
			<data auto_broadcast="numpy" />
			<input>
				<port id="0" precision="FP32">
					<dim>1</dim>
					<dim>32</dim>
					<dim>160</dim>
					<dim>160</dim>
				</port>
				<port id="1" precision="FP32">
					<dim>1</dim>
					<dim>32</dim>
					<dim>160</dim>
					<dim>160</dim>
				</port>
			</input>
			<output>
				<port id="2" precision="FP32" names="/model.1/act/Mul_output_0">
					<dim>1</dim>
					<dim>32</dim>
					<dim>160</dim>
					<dim>160</dim>
				</port>
			</output>
		</layer>
		<layer id="60" name="Constant_20426" type="Const" version="opset1">
			<data element_type="f32" shape="1, 1, 1, 1" offset="67200" size="4" />
			<output>
				<port id="0" precision="FP32">
					<dim>1</dim>
					<dim>1</dim>
					<dim>1</dim>
					<dim>1</dim>
				</port>
			</output>
		</layer>
		<layer id="61" name="Constant_20427" type="Const" version="opset1">
			<data element_type="f32" shape="1, 1, 1, 1" offset="72548" size="4" />
			<output>
				<port id="0" precision="FP32">
					<dim>1</dim>
					<dim>1</dim>
					<dim>1</dim>
					<dim>1</dim>
				</port>
			</output>
		</layer>
		<layer id="62" name="Constant_20428" type="Const" version="opset1">
			<data element_type="f32" shape="1, 1, 1, 1" offset="67200" size="4" />
			<output>
				<port id="0" precision="FP32">
					<dim>1</dim>
					<dim>1</dim>
					<dim>1</dim>
					<dim>1</dim>
				</port>
			</output>
		</layer>
		<layer id="63" name="Constant_20429" type="Const" version="opset1">
			<data element_type="f32" shape="1, 1, 1, 1" offset="72548" size="4" />
			<output>
				<port id="0" precision="FP32">
					<dim>1</dim>
					<dim>1</dim>
					<dim>1</dim>
					<dim>1</dim>
				</port>
			</output>
		</layer>
		<layer id="64" name="/model.1/act/Mul_output_0_DequantizeLinear" type="FakeQuantize" version="opset1">
			<data levels="256" auto_broadcast="numpy" />
			<input>
				<port id="0" precision="FP32">
					<dim>1</dim>
					<dim>32</dim>
					<dim>160</dim>
					<dim>160</dim>
				</port>
				<port id="1" precision="FP32">
					<dim>1</dim>
					<dim>1</dim>
					<dim>1</dim>
					<dim>1</dim>
				</port>
				<port id="2" precision="FP32">
					<dim>1</dim>
					<dim>1</dim>
					<dim>1</dim>
					<dim>1</dim>
				</port>
				<port id="3" precision="FP32">
					<dim>1</dim>
					<dim>1</dim>
					<dim>1</dim>
					<dim>1</dim>
				</port>
				<port id="4" precision="FP32">
					<dim>1</dim>
					<dim>1</dim>
					<dim>1</dim>
					<dim>1</dim>
				</port>
			</input>
			<output>
				<port id="5" precision="FP32" names="/model.1/act/Mul_output_0_DequantizeLinear_Output">
					<dim>1</dim>
					<dim>32</dim>
					<dim>160</dim>
					<dim>160</dim>
				</port>
			</output>
		</layer>
		<layer id="65" name="model.2.cv1.conv.weight_quantized" type="Const" version="opset1">
			<data element_type="i8" shape="32, 32, 1, 1" offset="72552" size="1024" />
			<output>
				<port id="0" precision="I8" names="model.2.cv1.conv.weight_quantized">
					<dim>32</dim>
					<dim>32</dim>
					<dim>1</dim>
					<dim>1</dim>
				</port>
			</output>
		</layer>
		<layer id="66" name="Convert_976" type="Convert" version="opset1">
			<data destination_type="f32" />
			<input>
				<port id="0" precision="I8">
					<dim>32</dim>
					<dim>32</dim>
					<dim>1</dim>
					<dim>1</dim>
				</port>
			</input>
			<output>
				<port id="1" precision="FP32">
					<dim>32</dim>
					<dim>32</dim>
					<dim>1</dim>
					<dim>1</dim>
				</port>
			</output>
		</layer>
		<layer id="67" name="Constant_20430" type="Const" version="opset1">
			<data element_type="f32" shape="1, 1, 1, 1" offset="73576" size="4" />
			<output>
				<port id="0" precision="FP32">
					<dim>1</dim>
					<dim>1</dim>
					<dim>1</dim>
					<dim>1</dim>
				</port>
			</output>
		</layer>
		<layer id="68" name="model.2.cv1.conv.weight_DequantizeLinear" type="Multiply" version="opset1">
			<data auto_broadcast="numpy" />
			<input>
				<port id="0" precision="FP32">
					<dim>32</dim>
					<dim>32</dim>
					<dim>1</dim>
					<dim>1</dim>
				</port>
				<port id="1" precision="FP32">
					<dim>1</dim>
					<dim>1</dim>
					<dim>1</dim>
					<dim>1</dim>
				</port>
			</input>
			<output>
				<port id="2" precision="FP32" names="model.2.cv1.conv.weight_DequantizeLinear_Output">
					<dim>32</dim>
					<dim>32</dim>
					<dim>1</dim>
					<dim>1</dim>
				</port>
			</output>
		</layer>
		<layer id="69" name="/model.2/cv1/conv/Conv/WithoutBiases" type="Convolution" version="opset1">
			<data strides="1, 1" dilations="1, 1" pads_begin="0, 0" pads_end="0, 0" auto_pad="explicit" />
			<input>
				<port id="0" precision="FP32">
					<dim>1</dim>
					<dim>32</dim>
					<dim>160</dim>
					<dim>160</dim>
				</port>
				<port id="1" precision="FP32">
					<dim>32</dim>
					<dim>32</dim>
					<dim>1</dim>
					<dim>1</dim>
				</port>
			</input>
			<output>
				<port id="2" precision="FP32">
					<dim>1</dim>
					<dim>32</dim>
					<dim>160</dim>
					<dim>160</dim>
				</port>
			</output>
		</layer>
		<layer id="70" name="model.2.cv1.conv.bias_quantized" type="Const" version="opset1">
			<data element_type="i32" shape="32" offset="73580" size="128" />
			<output>
				<port id="0" precision="I32" names="model.2.cv1.conv.bias_quantized">
					<dim>32</dim>
				</port>
			</output>
		</layer>
		<layer id="71" name="Convert_972" type="Convert" version="opset1">
			<data destination_type="f32" />
			<input>
				<port id="0" precision="I32">
					<dim>32</dim>
				</port>
			</input>
			<output>
				<port id="1" precision="FP32">
					<dim>32</dim>
				</port>
			</output>
		</layer>
		<layer id="72" name="model.2.cv1.conv.bias_quantized_scale" type="Const" version="opset1">
			<data element_type="f32" shape="1" offset="73708" size="4" />
			<output>
				<port id="0" precision="FP32" names="model.2.cv1.conv.bias_quantized_scale">
					<dim>1</dim>
				</port>
			</output>
		</layer>
		<layer id="73" name="model.2.cv1.conv.bias_DequantizeLinear" type="Multiply" version="opset1">
			<data auto_broadcast="numpy" />
			<input>
				<port id="0" precision="FP32">
					<dim>32</dim>
				</port>
				<port id="1" precision="FP32">
					<dim>1</dim>
				</port>
			</input>
			<output>
				<port id="2" precision="FP32" names="model.2.cv1.conv.bias">
					<dim>32</dim>
				</port>
			</output>
		</layer>
		<layer id="74" name="Concat_1485" type="Const" version="opset1">
			<data element_type="i64" shape="4" offset="72508" size="32" />
			<output>
				<port id="0" precision="I64">
					<dim>4</dim>
				</port>
			</output>
		</layer>
		<layer id="75" name="Reshape_1486" type="Reshape" version="opset1">
			<data special_zero="false" />
			<input>
				<port id="0" precision="FP32">
					<dim>32</dim>
				</port>
				<port id="1" precision="I64">
					<dim>4</dim>
				</port>
			</input>
			<output>
				<port id="2" precision="FP32">
					<dim>1</dim>
					<dim>32</dim>
					<dim>1</dim>
					<dim>1</dim>
				</port>
			</output>
		</layer>
		<layer id="76" name="/model.2/cv1/conv/Conv" type="Add" version="opset1">
			<data auto_broadcast="numpy" />
			<input>
				<port id="0" precision="FP32">
					<dim>1</dim>
					<dim>32</dim>
					<dim>160</dim>
					<dim>160</dim>
				</port>
				<port id="1" precision="FP32">
					<dim>1</dim>
					<dim>32</dim>
					<dim>1</dim>
					<dim>1</dim>
				</port>
			</input>
			<output>
				<port id="2" precision="FP32" names="/model.2/cv1/conv/Conv_output_0">
					<dim>1</dim>
					<dim>32</dim>
					<dim>160</dim>
					<dim>160</dim>
				</port>
			</output>
		</layer>
		<layer id="77" name="Constant_20431" type="Const" version="opset1">
			<data element_type="f32" shape="1, 1, 1, 1" offset="73712" size="4" />
			<output>
				<port id="0" precision="FP32">
					<dim>1</dim>
					<dim>1</dim>
					<dim>1</dim>
					<dim>1</dim>
				</port>
			</output>
		</layer>
		<layer id="78" name="Constant_20432" type="Const" version="opset1">
			<data element_type="f32" shape="1, 1, 1, 1" offset="73716" size="4" />
			<output>
				<port id="0" precision="FP32">
					<dim>1</dim>
					<dim>1</dim>
					<dim>1</dim>
					<dim>1</dim>
				</port>
			</output>
		</layer>
		<layer id="79" name="Constant_20433" type="Const" version="opset1">
			<data element_type="f32" shape="1, 1, 1, 1" offset="73712" size="4" />
			<output>
				<port id="0" precision="FP32">
					<dim>1</dim>
					<dim>1</dim>
					<dim>1</dim>
					<dim>1</dim>
				</port>
			</output>
		</layer>
		<layer id="80" name="Constant_20434" type="Const" version="opset1">
			<data element_type="f32" shape="1, 1, 1, 1" offset="73716" size="4" />
			<output>
				<port id="0" precision="FP32">
					<dim>1</dim>
					<dim>1</dim>
					<dim>1</dim>
					<dim>1</dim>
				</port>
			</output>
		</layer>
		<layer id="81" name="/model.2/cv1/conv/Conv_output_0_DequantizeLinear" type="FakeQuantize" version="opset1">
			<data levels="256" auto_broadcast="numpy" />
			<input>
				<port id="0" precision="FP32">
					<dim>1</dim>
					<dim>32</dim>
					<dim>160</dim>
					<dim>160</dim>
				</port>
				<port id="1" precision="FP32">
					<dim>1</dim>
					<dim>1</dim>
					<dim>1</dim>
					<dim>1</dim>
				</port>
				<port id="2" precision="FP32">
					<dim>1</dim>
					<dim>1</dim>
					<dim>1</dim>
					<dim>1</dim>
				</port>
				<port id="3" precision="FP32">
					<dim>1</dim>
					<dim>1</dim>
					<dim>1</dim>
					<dim>1</dim>
				</port>
				<port id="4" precision="FP32">
					<dim>1</dim>
					<dim>1</dim>
					<dim>1</dim>
					<dim>1</dim>
				</port>
			</input>
			<output>
				<port id="5" precision="FP32" names="/model.2/cv1/conv/Conv_output_0_DequantizeLinear_Output">
					<dim>1</dim>
					<dim>32</dim>
					<dim>160</dim>
					<dim>160</dim>
				</port>
			</output>
		</layer>
		<layer id="82" name="/model.2/cv1/act/Sigmoid" type="Sigmoid" version="opset1">
			<input>
				<port id="0" precision="FP32">
					<dim>1</dim>
					<dim>32</dim>
					<dim>160</dim>
					<dim>160</dim>
				</port>
			</input>
			<output>
				<port id="1" precision="FP32" names="/model.2/cv1/act/Sigmoid_output_0">
					<dim>1</dim>
					<dim>32</dim>
					<dim>160</dim>
					<dim>160</dim>
				</port>
			</output>
		</layer>
		<layer id="83" name="Constant_20435" type="Const" version="opset1">
			<data element_type="f32" shape="1, 1, 1, 1" offset="67200" size="4" />
			<output>
				<port id="0" precision="FP32">
					<dim>1</dim>
					<dim>1</dim>
					<dim>1</dim>
					<dim>1</dim>
				</port>
			</output>
		</layer>
		<layer id="84" name="Constant_20436" type="Const" version="opset1">
			<data element_type="f32" shape="1, 1, 1, 1" offset="67204" size="4" />
			<output>
				<port id="0" precision="FP32">
					<dim>1</dim>
					<dim>1</dim>
					<dim>1</dim>
					<dim>1</dim>
				</port>
			</output>
		</layer>
		<layer id="85" name="Constant_20437" type="Const" version="opset1">
			<data element_type="f32" shape="1, 1, 1, 1" offset="67200" size="4" />
			<output>
				<port id="0" precision="FP32">
					<dim>1</dim>
					<dim>1</dim>
					<dim>1</dim>
					<dim>1</dim>
				</port>
			</output>
		</layer>
		<layer id="86" name="Constant_20438" type="Const" version="opset1">
			<data element_type="f32" shape="1, 1, 1, 1" offset="67204" size="4" />
			<output>
				<port id="0" precision="FP32">
					<dim>1</dim>
					<dim>1</dim>
					<dim>1</dim>
					<dim>1</dim>
				</port>
			</output>
		</layer>
		<layer id="87" name="/model.2/cv1/act/Sigmoid_output_0_DequantizeLinear" type="FakeQuantize" version="opset1">
			<data levels="256" auto_broadcast="numpy" />
			<input>
				<port id="0" precision="FP32">
					<dim>1</dim>
					<dim>32</dim>
					<dim>160</dim>
					<dim>160</dim>
				</port>
				<port id="1" precision="FP32">
					<dim>1</dim>
					<dim>1</dim>
					<dim>1</dim>
					<dim>1</dim>
				</port>
				<port id="2" precision="FP32">
					<dim>1</dim>
					<dim>1</dim>
					<dim>1</dim>
					<dim>1</dim>
				</port>
				<port id="3" precision="FP32">
					<dim>1</dim>
					<dim>1</dim>
					<dim>1</dim>
					<dim>1</dim>
				</port>
				<port id="4" precision="FP32">
					<dim>1</dim>
					<dim>1</dim>
					<dim>1</dim>
					<dim>1</dim>
				</port>
			</input>
			<output>
				<port id="5" precision="FP32" names="/model.2/cv1/act/Sigmoid_output_0_DequantizeLinear_Output">
					<dim>1</dim>
					<dim>32</dim>
					<dim>160</dim>
					<dim>160</dim>
				</port>
			</output>
		</layer>
		<layer id="88" name="/model.2/cv1/act/Mul" type="Multiply" version="opset1">
			<data auto_broadcast="numpy" />
			<input>
				<port id="0" precision="FP32">
					<dim>1</dim>
					<dim>32</dim>
					<dim>160</dim>
					<dim>160</dim>
				</port>
				<port id="1" precision="FP32">
					<dim>1</dim>
					<dim>32</dim>
					<dim>160</dim>
					<dim>160</dim>
				</port>
			</input>
			<output>
				<port id="2" precision="FP32" names="/model.2/cv1/act/Mul_output_0">
					<dim>1</dim>
					<dim>32</dim>
					<dim>160</dim>
					<dim>160</dim>
				</port>
			</output>
		</layer>
		<layer id="89" name="Constant_20439" type="Const" version="opset1">
			<data element_type="f32" shape="1, 1, 1, 1" offset="73720" size="4" />
			<output>
				<port id="0" precision="FP32">
					<dim>1</dim>
					<dim>1</dim>
					<dim>1</dim>
					<dim>1</dim>
				</port>
			</output>
		</layer>
		<layer id="90" name="Constant_20440" type="Const" version="opset1">
			<data element_type="f32" shape="1, 1, 1, 1" offset="73724" size="4" />
			<output>
				<port id="0" precision="FP32">
					<dim>1</dim>
					<dim>1</dim>
					<dim>1</dim>
					<dim>1</dim>
				</port>
			</output>
		</layer>
		<layer id="91" name="Constant_20441" type="Const" version="opset1">
			<data element_type="f32" shape="1, 1, 1, 1" offset="73720" size="4" />
			<output>
				<port id="0" precision="FP32">
					<dim>1</dim>
					<dim>1</dim>
					<dim>1</dim>
					<dim>1</dim>
				</port>
			</output>
		</layer>
		<layer id="92" name="Constant_20442" type="Const" version="opset1">
			<data element_type="f32" shape="1, 1, 1, 1" offset="73724" size="4" />
			<output>
				<port id="0" precision="FP32">
					<dim>1</dim>
					<dim>1</dim>
					<dim>1</dim>
					<dim>1</dim>
				</port>
			</output>
		</layer>
		<layer id="93" name="/model.2/cv1/act/Mul_output_0_DequantizeLinear" type="FakeQuantize" version="opset1">
			<data levels="256" auto_broadcast="numpy" />
			<input>
				<port id="0" precision="FP32">
					<dim>1</dim>
					<dim>32</dim>
					<dim>160</dim>
					<dim>160</dim>
				</port>
				<port id="1" precision="FP32">
					<dim>1</dim>
					<dim>1</dim>
					<dim>1</dim>
					<dim>1</dim>
				</port>
				<port id="2" precision="FP32">
					<dim>1</dim>
					<dim>1</dim>
					<dim>1</dim>
					<dim>1</dim>
				</port>
				<port id="3" precision="FP32">
					<dim>1</dim>
					<dim>1</dim>
					<dim>1</dim>
					<dim>1</dim>
				</port>
				<port id="4" precision="FP32">
					<dim>1</dim>
					<dim>1</dim>
					<dim>1</dim>
					<dim>1</dim>
				</port>
			</input>
			<output>
				<port id="5" precision="FP32" names="/model.2/cv1/act/Mul_output_0_DequantizeLinear_Output">
					<dim>1</dim>
					<dim>32</dim>
					<dim>160</dim>
					<dim>160</dim>
				</port>
			</output>
		</layer>
		<layer id="94" name="Constant_1535" type="Const" version="opset1">
			<data element_type="i64" shape="" offset="73728" size="8" />
			<output>
				<port id="0" precision="I64" />
			</output>
		</layer>
		<layer id="95" name="Constant_1536" type="Const" version="opset1">
			<data element_type="i64" shape="2" offset="73736" size="16" />
			<output>
				<port id="0" precision="I64">
					<dim>2</dim>
				</port>
			</output>
		</layer>
		<layer id="96" name="/model.2/Split" type="VariadicSplit" version="opset1">
			<input>
				<port id="0" precision="FP32">
					<dim>1</dim>
					<dim>32</dim>
					<dim>160</dim>
					<dim>160</dim>
				</port>
				<port id="1" precision="I64" />
				<port id="2" precision="I64">
					<dim>2</dim>
				</port>
			</input>
			<output>
				<port id="3" precision="FP32" names="/model.2/Split_output_0">
					<dim>1</dim>
					<dim>16</dim>
					<dim>160</dim>
					<dim>160</dim>
				</port>
				<port id="4" precision="FP32" names="/model.2/Split_output_1">
					<dim>1</dim>
					<dim>16</dim>
					<dim>160</dim>
					<dim>160</dim>
				</port>
			</output>
		</layer>
		<layer id="97" name="Constant_20443" type="Const" version="opset1">
			<data element_type="f32" shape="1, 1, 1, 1" offset="73720" size="4" />
			<output>
				<port id="0" precision="FP32">
					<dim>1</dim>
					<dim>1</dim>
					<dim>1</dim>
					<dim>1</dim>
				</port>
			</output>
		</layer>
		<layer id="98" name="Constant_20444" type="Const" version="opset1">
			<data element_type="f32" shape="1, 1, 1, 1" offset="73724" size="4" />
			<output>
				<port id="0" precision="FP32">
					<dim>1</dim>
					<dim>1</dim>
					<dim>1</dim>
					<dim>1</dim>
				</port>
			</output>
		</layer>
		<layer id="99" name="Constant_20445" type="Const" version="opset1">
			<data element_type="f32" shape="1, 1, 1, 1" offset="73720" size="4" />
			<output>
				<port id="0" precision="FP32">
					<dim>1</dim>
					<dim>1</dim>
					<dim>1</dim>
					<dim>1</dim>
				</port>
			</output>
		</layer>
		<layer id="100" name="Constant_20446" type="Const" version="opset1">
			<data element_type="f32" shape="1, 1, 1, 1" offset="73724" size="4" />
			<output>
				<port id="0" precision="FP32">
					<dim>1</dim>
					<dim>1</dim>
					<dim>1</dim>
					<dim>1</dim>
				</port>
			</output>
		</layer>
		<layer id="101" name="/model.2/Split_output_0_DequantizeLinear" type="FakeQuantize" version="opset1">
			<data levels="256" auto_broadcast="numpy" />
			<input>
				<port id="0" precision="FP32">
					<dim>1</dim>
					<dim>16</dim>
					<dim>160</dim>
					<dim>160</dim>
				</port>
				<port id="1" precision="FP32">
					<dim>1</dim>
					<dim>1</dim>
					<dim>1</dim>
					<dim>1</dim>
				</port>
				<port id="2" precision="FP32">
					<dim>1</dim>
					<dim>1</dim>
					<dim>1</dim>
					<dim>1</dim>
				</port>
				<port id="3" precision="FP32">
					<dim>1</dim>
					<dim>1</dim>
					<dim>1</dim>
					<dim>1</dim>
				</port>
				<port id="4" precision="FP32">
					<dim>1</dim>
					<dim>1</dim>
					<dim>1</dim>
					<dim>1</dim>
				</port>
			</input>
			<output>
				<port id="5" precision="FP32" names="/model.2/Split_output_0_DequantizeLinear_Output">
					<dim>1</dim>
					<dim>16</dim>
					<dim>160</dim>
					<dim>160</dim>
				</port>
			</output>
		</layer>
		<layer id="102" name="Constant_20447" type="Const" version="opset1">
			<data element_type="f32" shape="1, 1, 1, 1" offset="73720" size="4" />
			<output>
				<port id="0" precision="FP32">
					<dim>1</dim>
					<dim>1</dim>
					<dim>1</dim>
					<dim>1</dim>
				</port>
			</output>
		</layer>
		<layer id="103" name="Constant_20448" type="Const" version="opset1">
			<data element_type="f32" shape="1, 1, 1, 1" offset="73724" size="4" />
			<output>
				<port id="0" precision="FP32">
					<dim>1</dim>
					<dim>1</dim>
					<dim>1</dim>
					<dim>1</dim>
				</port>
			</output>
		</layer>
		<layer id="104" name="Constant_20449" type="Const" version="opset1">
			<data element_type="f32" shape="1, 1, 1, 1" offset="73720" size="4" />
			<output>
				<port id="0" precision="FP32">
					<dim>1</dim>
					<dim>1</dim>
					<dim>1</dim>
					<dim>1</dim>
				</port>
			</output>
		</layer>
		<layer id="105" name="Constant_20450" type="Const" version="opset1">
			<data element_type="f32" shape="1, 1, 1, 1" offset="73724" size="4" />
			<output>
				<port id="0" precision="FP32">
					<dim>1</dim>
					<dim>1</dim>
					<dim>1</dim>
					<dim>1</dim>
				</port>
			</output>
		</layer>
		<layer id="106" name="/model.2/Split_output_1_DequantizeLinear" type="FakeQuantize" version="opset1">
			<data levels="256" auto_broadcast="numpy" />
			<input>
				<port id="0" precision="FP32">
					<dim>1</dim>
					<dim>16</dim>
					<dim>160</dim>
					<dim>160</dim>
				</port>
				<port id="1" precision="FP32">
					<dim>1</dim>
					<dim>1</dim>
					<dim>1</dim>
					<dim>1</dim>
				</port>
				<port id="2" precision="FP32">
					<dim>1</dim>
					<dim>1</dim>
					<dim>1</dim>
					<dim>1</dim>
				</port>
				<port id="3" precision="FP32">
					<dim>1</dim>
					<dim>1</dim>
					<dim>1</dim>
					<dim>1</dim>
				</port>
				<port id="4" precision="FP32">
					<dim>1</dim>
					<dim>1</dim>
					<dim>1</dim>
					<dim>1</dim>
				</port>
			</input>
			<output>
				<port id="5" precision="FP32" names="/model.2/Split_output_1_DequantizeLinear_Output">
					<dim>1</dim>
					<dim>16</dim>
					<dim>160</dim>
					<dim>160</dim>
				</port>
			</output>
		</layer>
		<layer id="107" name="model.2.m.0.cv1.conv.weight_quantized" type="Const" version="opset1">
			<data element_type="i8" shape="16, 16, 3, 3" offset="73752" size="2304" />
			<output>
				<port id="0" precision="I8" names="model.2.m.0.cv1.conv.weight_quantized">
					<dim>16</dim>
					<dim>16</dim>
					<dim>3</dim>
					<dim>3</dim>
				</port>
			</output>
		</layer>
		<layer id="108" name="Convert_992" type="Convert" version="opset1">
			<data destination_type="f32" />
			<input>
				<port id="0" precision="I8">
					<dim>16</dim>
					<dim>16</dim>
					<dim>3</dim>
					<dim>3</dim>
				</port>
			</input>
			<output>
				<port id="1" precision="FP32">
					<dim>16</dim>
					<dim>16</dim>
					<dim>3</dim>
					<dim>3</dim>
				</port>
			</output>
		</layer>
		<layer id="109" name="Constant_20451" type="Const" version="opset1">
			<data element_type="f32" shape="1, 1, 1, 1" offset="76056" size="4" />
			<output>
				<port id="0" precision="FP32">
					<dim>1</dim>
					<dim>1</dim>
					<dim>1</dim>
					<dim>1</dim>
				</port>
			</output>
		</layer>
		<layer id="110" name="model.2.m.0.cv1.conv.weight_DequantizeLinear" type="Multiply" version="opset1">
			<data auto_broadcast="numpy" />
			<input>
				<port id="0" precision="FP32">
					<dim>16</dim>
					<dim>16</dim>
					<dim>3</dim>
					<dim>3</dim>
				</port>
				<port id="1" precision="FP32">
					<dim>1</dim>
					<dim>1</dim>
					<dim>1</dim>
					<dim>1</dim>
				</port>
			</input>
			<output>
				<port id="2" precision="FP32" names="model.2.m.0.cv1.conv.weight_DequantizeLinear_Output">
					<dim>16</dim>
					<dim>16</dim>
					<dim>3</dim>
					<dim>3</dim>
				</port>
			</output>
		</layer>
		<layer id="111" name="/model.2/m.0/cv1/conv/Conv/WithoutBiases" type="Convolution" version="opset1">
			<data strides="1, 1" dilations="1, 1" pads_begin="1, 1" pads_end="1, 1" auto_pad="explicit" />
			<input>
				<port id="0" precision="FP32">
					<dim>1</dim>
					<dim>16</dim>
					<dim>160</dim>
					<dim>160</dim>
				</port>
				<port id="1" precision="FP32">
					<dim>16</dim>
					<dim>16</dim>
					<dim>3</dim>
					<dim>3</dim>
				</port>
			</input>
			<output>
				<port id="2" precision="FP32">
					<dim>1</dim>
					<dim>16</dim>
					<dim>160</dim>
					<dim>160</dim>
				</port>
			</output>
		</layer>
		<layer id="112" name="model.2.m.0.cv1.conv.bias_quantized" type="Const" version="opset1">
			<data element_type="i32" shape="16" offset="76060" size="64" />
			<output>
				<port id="0" precision="I32" names="model.2.m.0.cv1.conv.bias_quantized">
					<dim>16</dim>
				</port>
			</output>
		</layer>
		<layer id="113" name="Convert_988" type="Convert" version="opset1">
			<data destination_type="f32" />
			<input>
				<port id="0" precision="I32">
					<dim>16</dim>
				</port>
			</input>
			<output>
				<port id="1" precision="FP32">
					<dim>16</dim>
				</port>
			</output>
		</layer>
		<layer id="114" name="model.2.m.0.cv1.conv.bias_quantized_scale" type="Const" version="opset1">
			<data element_type="f32" shape="1" offset="76124" size="4" />
			<output>
				<port id="0" precision="FP32" names="model.2.m.0.cv1.conv.bias_quantized_scale">
					<dim>1</dim>
				</port>
			</output>
		</layer>
		<layer id="115" name="model.2.m.0.cv1.conv.bias_DequantizeLinear" type="Multiply" version="opset1">
			<data auto_broadcast="numpy" />
			<input>
				<port id="0" precision="FP32">
					<dim>16</dim>
				</port>
				<port id="1" precision="FP32">
					<dim>1</dim>
				</port>
			</input>
			<output>
				<port id="2" precision="FP32" names="model.2.m.0.cv1.conv.bias">
					<dim>16</dim>
				</port>
			</output>
		</layer>
		<layer id="116" name="Concat_1578" type="Const" version="opset1">
			<data element_type="i64" shape="4" offset="67712" size="32" />
			<output>
				<port id="0" precision="I64">
					<dim>4</dim>
				</port>
			</output>
		</layer>
		<layer id="117" name="Reshape_1579" type="Reshape" version="opset1">
			<data special_zero="false" />
			<input>
				<port id="0" precision="FP32">
					<dim>16</dim>
				</port>
				<port id="1" precision="I64">
					<dim>4</dim>
				</port>
			</input>
			<output>
				<port id="2" precision="FP32">
					<dim>1</dim>
					<dim>16</dim>
					<dim>1</dim>
					<dim>1</dim>
				</port>
			</output>
		</layer>
		<layer id="118" name="/model.2/m.0/cv1/conv/Conv" type="Add" version="opset1">
			<data auto_broadcast="numpy" />
			<input>
				<port id="0" precision="FP32">
					<dim>1</dim>
					<dim>16</dim>
					<dim>160</dim>
					<dim>160</dim>
				</port>
				<port id="1" precision="FP32">
					<dim>1</dim>
					<dim>16</dim>
					<dim>1</dim>
					<dim>1</dim>
				</port>
			</input>
			<output>
				<port id="2" precision="FP32" names="/model.2/m.0/cv1/conv/Conv_output_0">
					<dim>1</dim>
					<dim>16</dim>
					<dim>160</dim>
					<dim>160</dim>
				</port>
			</output>
		</layer>
		<layer id="119" name="Constant_20452" type="Const" version="opset1">
			<data element_type="f32" shape="1, 1, 1, 1" offset="76128" size="4" />
			<output>
				<port id="0" precision="FP32">
					<dim>1</dim>
					<dim>1</dim>
					<dim>1</dim>
					<dim>1</dim>
				</port>
			</output>
		</layer>
		<layer id="120" name="Constant_20453" type="Const" version="opset1">
			<data element_type="f32" shape="1, 1, 1, 1" offset="76132" size="4" />
			<output>
				<port id="0" precision="FP32">
					<dim>1</dim>
					<dim>1</dim>
					<dim>1</dim>
					<dim>1</dim>
				</port>
			</output>
		</layer>
		<layer id="121" name="Constant_20454" type="Const" version="opset1">
			<data element_type="f32" shape="1, 1, 1, 1" offset="76128" size="4" />
			<output>
				<port id="0" precision="FP32">
					<dim>1</dim>
					<dim>1</dim>
					<dim>1</dim>
					<dim>1</dim>
				</port>
			</output>
		</layer>
		<layer id="122" name="Constant_20455" type="Const" version="opset1">
			<data element_type="f32" shape="1, 1, 1, 1" offset="76132" size="4" />
			<output>
				<port id="0" precision="FP32">
					<dim>1</dim>
					<dim>1</dim>
					<dim>1</dim>
					<dim>1</dim>
				</port>
			</output>
		</layer>
		<layer id="123" name="/model.2/m.0/cv1/conv/Conv_output_0_DequantizeLinear" type="FakeQuantize" version="opset1">
			<data levels="256" auto_broadcast="numpy" />
			<input>
				<port id="0" precision="FP32">
					<dim>1</dim>
					<dim>16</dim>
					<dim>160</dim>
					<dim>160</dim>
				</port>
				<port id="1" precision="FP32">
					<dim>1</dim>
					<dim>1</dim>
					<dim>1</dim>
					<dim>1</dim>
				</port>
				<port id="2" precision="FP32">
					<dim>1</dim>
					<dim>1</dim>
					<dim>1</dim>
					<dim>1</dim>
				</port>
				<port id="3" precision="FP32">
					<dim>1</dim>
					<dim>1</dim>
					<dim>1</dim>
					<dim>1</dim>
				</port>
				<port id="4" precision="FP32">
					<dim>1</dim>
					<dim>1</dim>
					<dim>1</dim>
					<dim>1</dim>
				</port>
			</input>
			<output>
				<port id="5" precision="FP32" names="/model.2/m.0/cv1/conv/Conv_output_0_DequantizeLinear_Output">
					<dim>1</dim>
					<dim>16</dim>
					<dim>160</dim>
					<dim>160</dim>
				</port>
			</output>
		</layer>
		<layer id="124" name="/model.2/m.0/cv1/act/Sigmoid" type="Sigmoid" version="opset1">
			<input>
				<port id="0" precision="FP32">
					<dim>1</dim>
					<dim>16</dim>
					<dim>160</dim>
					<dim>160</dim>
				</port>
			</input>
			<output>
				<port id="1" precision="FP32" names="/model.2/m.0/cv1/act/Sigmoid_output_0">
					<dim>1</dim>
					<dim>16</dim>
					<dim>160</dim>
					<dim>160</dim>
				</port>
			</output>
		</layer>
		<layer id="125" name="Constant_20456" type="Const" version="opset1">
			<data element_type="f32" shape="1, 1, 1, 1" offset="67200" size="4" />
			<output>
				<port id="0" precision="FP32">
					<dim>1</dim>
					<dim>1</dim>
					<dim>1</dim>
					<dim>1</dim>
				</port>
			</output>
		</layer>
		<layer id="126" name="Constant_20457" type="Const" version="opset1">
			<data element_type="f32" shape="1, 1, 1, 1" offset="67204" size="4" />
			<output>
				<port id="0" precision="FP32">
					<dim>1</dim>
					<dim>1</dim>
					<dim>1</dim>
					<dim>1</dim>
				</port>
			</output>
		</layer>
		<layer id="127" name="Constant_20458" type="Const" version="opset1">
			<data element_type="f32" shape="1, 1, 1, 1" offset="67200" size="4" />
			<output>
				<port id="0" precision="FP32">
					<dim>1</dim>
					<dim>1</dim>
					<dim>1</dim>
					<dim>1</dim>
				</port>
			</output>
		</layer>
		<layer id="128" name="Constant_20459" type="Const" version="opset1">
			<data element_type="f32" shape="1, 1, 1, 1" offset="67204" size="4" />
			<output>
				<port id="0" precision="FP32">
					<dim>1</dim>
					<dim>1</dim>
					<dim>1</dim>
					<dim>1</dim>
				</port>
			</output>
		</layer>
		<layer id="129" name="/model.2/m.0/cv1/act/Sigmoid_output_0_DequantizeLinear" type="FakeQuantize" version="opset1">
			<data levels="256" auto_broadcast="numpy" />
			<input>
				<port id="0" precision="FP32">
					<dim>1</dim>
					<dim>16</dim>
					<dim>160</dim>
					<dim>160</dim>
				</port>
				<port id="1" precision="FP32">
					<dim>1</dim>
					<dim>1</dim>
					<dim>1</dim>
					<dim>1</dim>
				</port>
				<port id="2" precision="FP32">
					<dim>1</dim>
					<dim>1</dim>
					<dim>1</dim>
					<dim>1</dim>
				</port>
				<port id="3" precision="FP32">
					<dim>1</dim>
					<dim>1</dim>
					<dim>1</dim>
					<dim>1</dim>
				</port>
				<port id="4" precision="FP32">
					<dim>1</dim>
					<dim>1</dim>
					<dim>1</dim>
					<dim>1</dim>
				</port>
			</input>
			<output>
				<port id="5" precision="FP32" names="/model.2/m.0/cv1/act/Sigmoid_output_0_DequantizeLinear_Output">
					<dim>1</dim>
					<dim>16</dim>
					<dim>160</dim>
					<dim>160</dim>
				</port>
			</output>
		</layer>
		<layer id="130" name="/model.2/m.0/cv1/act/Mul" type="Multiply" version="opset1">
			<data auto_broadcast="numpy" />
			<input>
				<port id="0" precision="FP32">
					<dim>1</dim>
					<dim>16</dim>
					<dim>160</dim>
					<dim>160</dim>
				</port>
				<port id="1" precision="FP32">
					<dim>1</dim>
					<dim>16</dim>
					<dim>160</dim>
					<dim>160</dim>
				</port>
			</input>
			<output>
				<port id="2" precision="FP32" names="/model.2/m.0/cv1/act/Mul_output_0">
					<dim>1</dim>
					<dim>16</dim>
					<dim>160</dim>
					<dim>160</dim>
				</port>
			</output>
		</layer>
		<layer id="131" name="Constant_20460" type="Const" version="opset1">
			<data element_type="f32" shape="1, 1, 1, 1" offset="76136" size="4" />
			<output>
				<port id="0" precision="FP32">
					<dim>1</dim>
					<dim>1</dim>
					<dim>1</dim>
					<dim>1</dim>
				</port>
			</output>
		</layer>
		<layer id="132" name="Constant_20461" type="Const" version="opset1">
			<data element_type="f32" shape="1, 1, 1, 1" offset="76140" size="4" />
			<output>
				<port id="0" precision="FP32">
					<dim>1</dim>
					<dim>1</dim>
					<dim>1</dim>
					<dim>1</dim>
				</port>
			</output>
		</layer>
		<layer id="133" name="Constant_20462" type="Const" version="opset1">
			<data element_type="f32" shape="1, 1, 1, 1" offset="76136" size="4" />
			<output>
				<port id="0" precision="FP32">
					<dim>1</dim>
					<dim>1</dim>
					<dim>1</dim>
					<dim>1</dim>
				</port>
			</output>
		</layer>
		<layer id="134" name="Constant_20463" type="Const" version="opset1">
			<data element_type="f32" shape="1, 1, 1, 1" offset="76140" size="4" />
			<output>
				<port id="0" precision="FP32">
					<dim>1</dim>
					<dim>1</dim>
					<dim>1</dim>
					<dim>1</dim>
				</port>
			</output>
		</layer>
		<layer id="135" name="/model.2/m.0/cv1/act/Mul_output_0_DequantizeLinear" type="FakeQuantize" version="opset1">
			<data levels="256" auto_broadcast="numpy" />
			<input>
				<port id="0" precision="FP32">
					<dim>1</dim>
					<dim>16</dim>
					<dim>160</dim>
					<dim>160</dim>
				</port>
				<port id="1" precision="FP32">
					<dim>1</dim>
					<dim>1</dim>
					<dim>1</dim>
					<dim>1</dim>
				</port>
				<port id="2" precision="FP32">
					<dim>1</dim>
					<dim>1</dim>
					<dim>1</dim>
					<dim>1</dim>
				</port>
				<port id="3" precision="FP32">
					<dim>1</dim>
					<dim>1</dim>
					<dim>1</dim>
					<dim>1</dim>
				</port>
				<port id="4" precision="FP32">
					<dim>1</dim>
					<dim>1</dim>
					<dim>1</dim>
					<dim>1</dim>
				</port>
			</input>
			<output>
				<port id="5" precision="FP32" names="/model.2/m.0/cv1/act/Mul_output_0_DequantizeLinear_Output">
					<dim>1</dim>
					<dim>16</dim>
					<dim>160</dim>
					<dim>160</dim>
				</port>
			</output>
		</layer>
		<layer id="136" name="model.2.m.0.cv2.conv.weight_quantized" type="Const" version="opset1">
			<data element_type="i8" shape="16, 16, 3, 3" offset="76144" size="2304" />
			<output>
				<port id="0" precision="I8" names="model.2.m.0.cv2.conv.weight_quantized">
					<dim>16</dim>
					<dim>16</dim>
					<dim>3</dim>
					<dim>3</dim>
				</port>
			</output>
		</layer>
		<layer id="137" name="Convert_1000" type="Convert" version="opset1">
			<data destination_type="f32" />
			<input>
				<port id="0" precision="I8">
					<dim>16</dim>
					<dim>16</dim>
					<dim>3</dim>
					<dim>3</dim>
				</port>
			</input>
			<output>
				<port id="1" precision="FP32">
					<dim>16</dim>
					<dim>16</dim>
					<dim>3</dim>
					<dim>3</dim>
				</port>
			</output>
		</layer>
		<layer id="138" name="Constant_20464" type="Const" version="opset1">
			<data element_type="f32" shape="1, 1, 1, 1" offset="78448" size="4" />
			<output>
				<port id="0" precision="FP32">
					<dim>1</dim>
					<dim>1</dim>
					<dim>1</dim>
					<dim>1</dim>
				</port>
			</output>
		</layer>
		<layer id="139" name="model.2.m.0.cv2.conv.weight_DequantizeLinear" type="Multiply" version="opset1">
			<data auto_broadcast="numpy" />
			<input>
				<port id="0" precision="FP32">
					<dim>16</dim>
					<dim>16</dim>
					<dim>3</dim>
					<dim>3</dim>
				</port>
				<port id="1" precision="FP32">
					<dim>1</dim>
					<dim>1</dim>
					<dim>1</dim>
					<dim>1</dim>
				</port>
			</input>
			<output>
				<port id="2" precision="FP32" names="model.2.m.0.cv2.conv.weight_DequantizeLinear_Output">
					<dim>16</dim>
					<dim>16</dim>
					<dim>3</dim>
					<dim>3</dim>
				</port>
			</output>
		</layer>
		<layer id="140" name="/model.2/m.0/cv2/conv/Conv/WithoutBiases" type="Convolution" version="opset1">
			<data strides="1, 1" dilations="1, 1" pads_begin="1, 1" pads_end="1, 1" auto_pad="explicit" />
			<input>
				<port id="0" precision="FP32">
					<dim>1</dim>
					<dim>16</dim>
					<dim>160</dim>
					<dim>160</dim>
				</port>
				<port id="1" precision="FP32">
					<dim>16</dim>
					<dim>16</dim>
					<dim>3</dim>
					<dim>3</dim>
				</port>
			</input>
			<output>
				<port id="2" precision="FP32">
					<dim>1</dim>
					<dim>16</dim>
					<dim>160</dim>
					<dim>160</dim>
				</port>
			</output>
		</layer>
		<layer id="141" name="model.2.m.0.cv2.conv.bias_quantized" type="Const" version="opset1">
			<data element_type="i32" shape="16" offset="78452" size="64" />
			<output>
				<port id="0" precision="I32" names="model.2.m.0.cv2.conv.bias_quantized">
					<dim>16</dim>
				</port>
			</output>
		</layer>
		<layer id="142" name="Convert_996" type="Convert" version="opset1">
			<data destination_type="f32" />
			<input>
				<port id="0" precision="I32">
					<dim>16</dim>
				</port>
			</input>
			<output>
				<port id="1" precision="FP32">
					<dim>16</dim>
				</port>
			</output>
		</layer>
		<layer id="143" name="model.2.m.0.cv2.conv.bias_quantized_scale" type="Const" version="opset1">
			<data element_type="f32" shape="1" offset="78516" size="4" />
			<output>
				<port id="0" precision="FP32" names="model.2.m.0.cv2.conv.bias_quantized_scale">
					<dim>1</dim>
				</port>
			</output>
		</layer>
		<layer id="144" name="model.2.m.0.cv2.conv.bias_DequantizeLinear" type="Multiply" version="opset1">
			<data auto_broadcast="numpy" />
			<input>
				<port id="0" precision="FP32">
					<dim>16</dim>
				</port>
				<port id="1" precision="FP32">
					<dim>1</dim>
				</port>
			</input>
			<output>
				<port id="2" precision="FP32" names="model.2.m.0.cv2.conv.bias">
					<dim>16</dim>
				</port>
			</output>
		</layer>
		<layer id="145" name="Concat_1638" type="Const" version="opset1">
			<data element_type="i64" shape="4" offset="67712" size="32" />
			<output>
				<port id="0" precision="I64">
					<dim>4</dim>
				</port>
			</output>
		</layer>
		<layer id="146" name="Reshape_1639" type="Reshape" version="opset1">
			<data special_zero="false" />
			<input>
				<port id="0" precision="FP32">
					<dim>16</dim>
				</port>
				<port id="1" precision="I64">
					<dim>4</dim>
				</port>
			</input>
			<output>
				<port id="2" precision="FP32">
					<dim>1</dim>
					<dim>16</dim>
					<dim>1</dim>
					<dim>1</dim>
				</port>
			</output>
		</layer>
		<layer id="147" name="/model.2/m.0/cv2/conv/Conv" type="Add" version="opset1">
			<data auto_broadcast="numpy" />
			<input>
				<port id="0" precision="FP32">
					<dim>1</dim>
					<dim>16</dim>
					<dim>160</dim>
					<dim>160</dim>
				</port>
				<port id="1" precision="FP32">
					<dim>1</dim>
					<dim>16</dim>
					<dim>1</dim>
					<dim>1</dim>
				</port>
			</input>
			<output>
				<port id="2" precision="FP32" names="/model.2/m.0/cv2/conv/Conv_output_0">
					<dim>1</dim>
					<dim>16</dim>
					<dim>160</dim>
					<dim>160</dim>
				</port>
			</output>
		</layer>
		<layer id="148" name="Constant_20465" type="Const" version="opset1">
			<data element_type="f32" shape="1, 1, 1, 1" offset="78520" size="4" />
			<output>
				<port id="0" precision="FP32">
					<dim>1</dim>
					<dim>1</dim>
					<dim>1</dim>
					<dim>1</dim>
				</port>
			</output>
		</layer>
		<layer id="149" name="Constant_20466" type="Const" version="opset1">
			<data element_type="f32" shape="1, 1, 1, 1" offset="78524" size="4" />
			<output>
				<port id="0" precision="FP32">
					<dim>1</dim>
					<dim>1</dim>
					<dim>1</dim>
					<dim>1</dim>
				</port>
			</output>
		</layer>
		<layer id="150" name="Constant_20467" type="Const" version="opset1">
			<data element_type="f32" shape="1, 1, 1, 1" offset="78520" size="4" />
			<output>
				<port id="0" precision="FP32">
					<dim>1</dim>
					<dim>1</dim>
					<dim>1</dim>
					<dim>1</dim>
				</port>
			</output>
		</layer>
		<layer id="151" name="Constant_20468" type="Const" version="opset1">
			<data element_type="f32" shape="1, 1, 1, 1" offset="78524" size="4" />
			<output>
				<port id="0" precision="FP32">
					<dim>1</dim>
					<dim>1</dim>
					<dim>1</dim>
					<dim>1</dim>
				</port>
			</output>
		</layer>
		<layer id="152" name="/model.2/m.0/cv2/conv/Conv_output_0_DequantizeLinear" type="FakeQuantize" version="opset1">
			<data levels="256" auto_broadcast="numpy" />
			<input>
				<port id="0" precision="FP32">
					<dim>1</dim>
					<dim>16</dim>
					<dim>160</dim>
					<dim>160</dim>
				</port>
				<port id="1" precision="FP32">
					<dim>1</dim>
					<dim>1</dim>
					<dim>1</dim>
					<dim>1</dim>
				</port>
				<port id="2" precision="FP32">
					<dim>1</dim>
					<dim>1</dim>
					<dim>1</dim>
					<dim>1</dim>
				</port>
				<port id="3" precision="FP32">
					<dim>1</dim>
					<dim>1</dim>
					<dim>1</dim>
					<dim>1</dim>
				</port>
				<port id="4" precision="FP32">
					<dim>1</dim>
					<dim>1</dim>
					<dim>1</dim>
					<dim>1</dim>
				</port>
			</input>
			<output>
				<port id="5" precision="FP32" names="/model.2/m.0/cv2/conv/Conv_output_0_DequantizeLinear_Output">
					<dim>1</dim>
					<dim>16</dim>
					<dim>160</dim>
					<dim>160</dim>
				</port>
			</output>
		</layer>
		<layer id="153" name="/model.2/m.0/cv2/act/Sigmoid" type="Sigmoid" version="opset1">
			<input>
				<port id="0" precision="FP32">
					<dim>1</dim>
					<dim>16</dim>
					<dim>160</dim>
					<dim>160</dim>
				</port>
			</input>
			<output>
				<port id="1" precision="FP32" names="/model.2/m.0/cv2/act/Sigmoid_output_0">
					<dim>1</dim>
					<dim>16</dim>
					<dim>160</dim>
					<dim>160</dim>
				</port>
			</output>
		</layer>
		<layer id="154" name="Constant_20469" type="Const" version="opset1">
			<data element_type="f32" shape="1, 1, 1, 1" offset="67200" size="4" />
			<output>
				<port id="0" precision="FP32">
					<dim>1</dim>
					<dim>1</dim>
					<dim>1</dim>
					<dim>1</dim>
				</port>
			</output>
		</layer>
		<layer id="155" name="Constant_20470" type="Const" version="opset1">
			<data element_type="f32" shape="1, 1, 1, 1" offset="67752" size="4" />
			<output>
				<port id="0" precision="FP32">
					<dim>1</dim>
					<dim>1</dim>
					<dim>1</dim>
					<dim>1</dim>
				</port>
			</output>
		</layer>
		<layer id="156" name="Constant_20471" type="Const" version="opset1">
			<data element_type="f32" shape="1, 1, 1, 1" offset="67200" size="4" />
			<output>
				<port id="0" precision="FP32">
					<dim>1</dim>
					<dim>1</dim>
					<dim>1</dim>
					<dim>1</dim>
				</port>
			</output>
		</layer>
		<layer id="157" name="Constant_20472" type="Const" version="opset1">
			<data element_type="f32" shape="1, 1, 1, 1" offset="67752" size="4" />
			<output>
				<port id="0" precision="FP32">
					<dim>1</dim>
					<dim>1</dim>
					<dim>1</dim>
					<dim>1</dim>
				</port>
			</output>
		</layer>
		<layer id="158" name="/model.2/m.0/cv2/act/Sigmoid_output_0_DequantizeLinear" type="FakeQuantize" version="opset1">
			<data levels="256" auto_broadcast="numpy" />
			<input>
				<port id="0" precision="FP32">
					<dim>1</dim>
					<dim>16</dim>
					<dim>160</dim>
					<dim>160</dim>
				</port>
				<port id="1" precision="FP32">
					<dim>1</dim>
					<dim>1</dim>
					<dim>1</dim>
					<dim>1</dim>
				</port>
				<port id="2" precision="FP32">
					<dim>1</dim>
					<dim>1</dim>
					<dim>1</dim>
					<dim>1</dim>
				</port>
				<port id="3" precision="FP32">
					<dim>1</dim>
					<dim>1</dim>
					<dim>1</dim>
					<dim>1</dim>
				</port>
				<port id="4" precision="FP32">
					<dim>1</dim>
					<dim>1</dim>
					<dim>1</dim>
					<dim>1</dim>
				</port>
			</input>
			<output>
				<port id="5" precision="FP32" names="/model.2/m.0/cv2/act/Sigmoid_output_0_DequantizeLinear_Output">
					<dim>1</dim>
					<dim>16</dim>
					<dim>160</dim>
					<dim>160</dim>
				</port>
			</output>
		</layer>
		<layer id="159" name="/model.2/m.0/cv2/act/Mul" type="Multiply" version="opset1">
			<data auto_broadcast="numpy" />
			<input>
				<port id="0" precision="FP32">
					<dim>1</dim>
					<dim>16</dim>
					<dim>160</dim>
					<dim>160</dim>
				</port>
				<port id="1" precision="FP32">
					<dim>1</dim>
					<dim>16</dim>
					<dim>160</dim>
					<dim>160</dim>
				</port>
			</input>
			<output>
				<port id="2" precision="FP32" names="/model.2/m.0/cv2/act/Mul_output_0">
					<dim>1</dim>
					<dim>16</dim>
					<dim>160</dim>
					<dim>160</dim>
				</port>
			</output>
		</layer>
		<layer id="160" name="Constant_20473" type="Const" version="opset1">
			<data element_type="f32" shape="1, 1, 1, 1" offset="78528" size="4" />
			<output>
				<port id="0" precision="FP32">
					<dim>1</dim>
					<dim>1</dim>
					<dim>1</dim>
					<dim>1</dim>
				</port>
			</output>
		</layer>
		<layer id="161" name="Constant_20474" type="Const" version="opset1">
			<data element_type="f32" shape="1, 1, 1, 1" offset="78532" size="4" />
			<output>
				<port id="0" precision="FP32">
					<dim>1</dim>
					<dim>1</dim>
					<dim>1</dim>
					<dim>1</dim>
				</port>
			</output>
		</layer>
		<layer id="162" name="Constant_20475" type="Const" version="opset1">
			<data element_type="f32" shape="1, 1, 1, 1" offset="78528" size="4" />
			<output>
				<port id="0" precision="FP32">
					<dim>1</dim>
					<dim>1</dim>
					<dim>1</dim>
					<dim>1</dim>
				</port>
			</output>
		</layer>
		<layer id="163" name="Constant_20476" type="Const" version="opset1">
			<data element_type="f32" shape="1, 1, 1, 1" offset="78532" size="4" />
			<output>
				<port id="0" precision="FP32">
					<dim>1</dim>
					<dim>1</dim>
					<dim>1</dim>
					<dim>1</dim>
				</port>
			</output>
		</layer>
		<layer id="164" name="/model.2/m.0/cv2/act/Mul_output_0_DequantizeLinear" type="FakeQuantize" version="opset1">
			<data levels="256" auto_broadcast="numpy" />
			<input>
				<port id="0" precision="FP32">
					<dim>1</dim>
					<dim>16</dim>
					<dim>160</dim>
					<dim>160</dim>
				</port>
				<port id="1" precision="FP32">
					<dim>1</dim>
					<dim>1</dim>
					<dim>1</dim>
					<dim>1</dim>
				</port>
				<port id="2" precision="FP32">
					<dim>1</dim>
					<dim>1</dim>
					<dim>1</dim>
					<dim>1</dim>
				</port>
				<port id="3" precision="FP32">
					<dim>1</dim>
					<dim>1</dim>
					<dim>1</dim>
					<dim>1</dim>
				</port>
				<port id="4" precision="FP32">
					<dim>1</dim>
					<dim>1</dim>
					<dim>1</dim>
					<dim>1</dim>
				</port>
			</input>
			<output>
				<port id="5" precision="FP32" names="/model.2/m.0/cv2/act/Mul_output_0_DequantizeLinear_Output">
					<dim>1</dim>
					<dim>16</dim>
					<dim>160</dim>
					<dim>160</dim>
				</port>
			</output>
		</layer>
		<layer id="165" name="/model.2/m.0/Add" type="Add" version="opset1">
			<data auto_broadcast="numpy" />
			<input>
				<port id="0" precision="FP32">
					<dim>1</dim>
					<dim>16</dim>
					<dim>160</dim>
					<dim>160</dim>
				</port>
				<port id="1" precision="FP32">
					<dim>1</dim>
					<dim>16</dim>
					<dim>160</dim>
					<dim>160</dim>
				</port>
			</input>
			<output>
				<port id="2" precision="FP32" names="/model.2/m.0/Add_output_0">
					<dim>1</dim>
					<dim>16</dim>
					<dim>160</dim>
					<dim>160</dim>
				</port>
			</output>
		</layer>
		<layer id="166" name="Constant_20477" type="Const" version="opset1">
			<data element_type="f32" shape="1, 1, 1, 1" offset="78536" size="4" />
			<output>
				<port id="0" precision="FP32">
					<dim>1</dim>
					<dim>1</dim>
					<dim>1</dim>
					<dim>1</dim>
				</port>
			</output>
		</layer>
		<layer id="167" name="Constant_20478" type="Const" version="opset1">
			<data element_type="f32" shape="1, 1, 1, 1" offset="78540" size="4" />
			<output>
				<port id="0" precision="FP32">
					<dim>1</dim>
					<dim>1</dim>
					<dim>1</dim>
					<dim>1</dim>
				</port>
			</output>
		</layer>
		<layer id="168" name="Constant_20479" type="Const" version="opset1">
			<data element_type="f32" shape="1, 1, 1, 1" offset="78536" size="4" />
			<output>
				<port id="0" precision="FP32">
					<dim>1</dim>
					<dim>1</dim>
					<dim>1</dim>
					<dim>1</dim>
				</port>
			</output>
		</layer>
		<layer id="169" name="Constant_20480" type="Const" version="opset1">
			<data element_type="f32" shape="1, 1, 1, 1" offset="78540" size="4" />
			<output>
				<port id="0" precision="FP32">
					<dim>1</dim>
					<dim>1</dim>
					<dim>1</dim>
					<dim>1</dim>
				</port>
			</output>
		</layer>
		<layer id="170" name="/model.2/m.0/Add_output_0_DequantizeLinear" type="FakeQuantize" version="opset1">
			<data levels="256" auto_broadcast="numpy" />
			<input>
				<port id="0" precision="FP32">
					<dim>1</dim>
					<dim>16</dim>
					<dim>160</dim>
					<dim>160</dim>
				</port>
				<port id="1" precision="FP32">
					<dim>1</dim>
					<dim>1</dim>
					<dim>1</dim>
					<dim>1</dim>
				</port>
				<port id="2" precision="FP32">
					<dim>1</dim>
					<dim>1</dim>
					<dim>1</dim>
					<dim>1</dim>
				</port>
				<port id="3" precision="FP32">
					<dim>1</dim>
					<dim>1</dim>
					<dim>1</dim>
					<dim>1</dim>
				</port>
				<port id="4" precision="FP32">
					<dim>1</dim>
					<dim>1</dim>
					<dim>1</dim>
					<dim>1</dim>
				</port>
			</input>
			<output>
				<port id="5" precision="FP32" names="/model.2/m.0/Add_output_0_DequantizeLinear_Output">
					<dim>1</dim>
					<dim>16</dim>
					<dim>160</dim>
					<dim>160</dim>
				</port>
			</output>
		</layer>
		<layer id="171" name="/model.2/Concat" type="Concat" version="opset1">
			<data axis="1" />
			<input>
				<port id="0" precision="FP32">
					<dim>1</dim>
					<dim>16</dim>
					<dim>160</dim>
					<dim>160</dim>
				</port>
				<port id="1" precision="FP32">
					<dim>1</dim>
					<dim>16</dim>
					<dim>160</dim>
					<dim>160</dim>
				</port>
				<port id="2" precision="FP32">
					<dim>1</dim>
					<dim>16</dim>
					<dim>160</dim>
					<dim>160</dim>
				</port>
			</input>
			<output>
				<port id="3" precision="FP32" names="/model.2/Concat_output_0">
					<dim>1</dim>
					<dim>48</dim>
					<dim>160</dim>
					<dim>160</dim>
				</port>
			</output>
		</layer>
		<layer id="172" name="Constant_20481" type="Const" version="opset1">
			<data element_type="f32" shape="1, 1, 1, 1" offset="78544" size="4" />
			<output>
				<port id="0" precision="FP32">
					<dim>1</dim>
					<dim>1</dim>
					<dim>1</dim>
					<dim>1</dim>
				</port>
			</output>
		</layer>
		<layer id="173" name="Constant_20482" type="Const" version="opset1">
			<data element_type="f32" shape="1, 1, 1, 1" offset="78548" size="4" />
			<output>
				<port id="0" precision="FP32">
					<dim>1</dim>
					<dim>1</dim>
					<dim>1</dim>
					<dim>1</dim>
				</port>
			</output>
		</layer>
		<layer id="174" name="Constant_20483" type="Const" version="opset1">
			<data element_type="f32" shape="1, 1, 1, 1" offset="78544" size="4" />
			<output>
				<port id="0" precision="FP32">
					<dim>1</dim>
					<dim>1</dim>
					<dim>1</dim>
					<dim>1</dim>
				</port>
			</output>
		</layer>
		<layer id="175" name="Constant_20484" type="Const" version="opset1">
			<data element_type="f32" shape="1, 1, 1, 1" offset="78548" size="4" />
			<output>
				<port id="0" precision="FP32">
					<dim>1</dim>
					<dim>1</dim>
					<dim>1</dim>
					<dim>1</dim>
				</port>
			</output>
		</layer>
		<layer id="176" name="/model.2/Concat_output_0_DequantizeLinear" type="FakeQuantize" version="opset1">
			<data levels="256" auto_broadcast="numpy" />
			<input>
				<port id="0" precision="FP32">
					<dim>1</dim>
					<dim>48</dim>
					<dim>160</dim>
					<dim>160</dim>
				</port>
				<port id="1" precision="FP32">
					<dim>1</dim>
					<dim>1</dim>
					<dim>1</dim>
					<dim>1</dim>
				</port>
				<port id="2" precision="FP32">
					<dim>1</dim>
					<dim>1</dim>
					<dim>1</dim>
					<dim>1</dim>
				</port>
				<port id="3" precision="FP32">
					<dim>1</dim>
					<dim>1</dim>
					<dim>1</dim>
					<dim>1</dim>
				</port>
				<port id="4" precision="FP32">
					<dim>1</dim>
					<dim>1</dim>
					<dim>1</dim>
					<dim>1</dim>
				</port>
			</input>
			<output>
				<port id="5" precision="FP32" names="/model.2/Concat_output_0_DequantizeLinear_Output">
					<dim>1</dim>
					<dim>48</dim>
					<dim>160</dim>
					<dim>160</dim>
				</port>
			</output>
		</layer>
		<layer id="177" name="model.2.cv2.conv.weight_quantized" type="Const" version="opset1">
			<data element_type="i8" shape="32, 48, 1, 1" offset="78552" size="1536" />
			<output>
				<port id="0" precision="I8" names="model.2.cv2.conv.weight_quantized">
					<dim>32</dim>
					<dim>48</dim>
					<dim>1</dim>
					<dim>1</dim>
				</port>
			</output>
		</layer>
		<layer id="178" name="Convert_984" type="Convert" version="opset1">
			<data destination_type="f32" />
			<input>
				<port id="0" precision="I8">
					<dim>32</dim>
					<dim>48</dim>
					<dim>1</dim>
					<dim>1</dim>
				</port>
			</input>
			<output>
				<port id="1" precision="FP32">
					<dim>32</dim>
					<dim>48</dim>
					<dim>1</dim>
					<dim>1</dim>
				</port>
			</output>
		</layer>
		<layer id="179" name="Constant_20485" type="Const" version="opset1">
			<data element_type="f32" shape="1, 1, 1, 1" offset="80088" size="4" />
			<output>
				<port id="0" precision="FP32">
					<dim>1</dim>
					<dim>1</dim>
					<dim>1</dim>
					<dim>1</dim>
				</port>
			</output>
		</layer>
		<layer id="180" name="model.2.cv2.conv.weight_DequantizeLinear" type="Multiply" version="opset1">
			<data auto_broadcast="numpy" />
			<input>
				<port id="0" precision="FP32">
					<dim>32</dim>
					<dim>48</dim>
					<dim>1</dim>
					<dim>1</dim>
				</port>
				<port id="1" precision="FP32">
					<dim>1</dim>
					<dim>1</dim>
					<dim>1</dim>
					<dim>1</dim>
				</port>
			</input>
			<output>
				<port id="2" precision="FP32" names="model.2.cv2.conv.weight_DequantizeLinear_Output">
					<dim>32</dim>
					<dim>48</dim>
					<dim>1</dim>
					<dim>1</dim>
				</port>
			</output>
		</layer>
		<layer id="181" name="/model.2/cv2/conv/Conv/WithoutBiases" type="Convolution" version="opset1">
			<data strides="1, 1" dilations="1, 1" pads_begin="0, 0" pads_end="0, 0" auto_pad="explicit" />
			<input>
				<port id="0" precision="FP32">
					<dim>1</dim>
					<dim>48</dim>
					<dim>160</dim>
					<dim>160</dim>
				</port>
				<port id="1" precision="FP32">
					<dim>32</dim>
					<dim>48</dim>
					<dim>1</dim>
					<dim>1</dim>
				</port>
			</input>
			<output>
				<port id="2" precision="FP32">
					<dim>1</dim>
					<dim>32</dim>
					<dim>160</dim>
					<dim>160</dim>
				</port>
			</output>
		</layer>
		<layer id="182" name="model.2.cv2.conv.bias_quantized" type="Const" version="opset1">
			<data element_type="i32" shape="32" offset="80092" size="128" />
			<output>
				<port id="0" precision="I32" names="model.2.cv2.conv.bias_quantized">
					<dim>32</dim>
				</port>
			</output>
		</layer>
		<layer id="183" name="Convert_980" type="Convert" version="opset1">
			<data destination_type="f32" />
			<input>
				<port id="0" precision="I32">
					<dim>32</dim>
				</port>
			</input>
			<output>
				<port id="1" precision="FP32">
					<dim>32</dim>
				</port>
			</output>
		</layer>
		<layer id="184" name="model.2.cv2.conv.bias_quantized_scale" type="Const" version="opset1">
			<data element_type="f32" shape="1" offset="80220" size="4" />
			<output>
				<port id="0" precision="FP32" names="model.2.cv2.conv.bias_quantized_scale">
					<dim>1</dim>
				</port>
			</output>
		</layer>
		<layer id="185" name="model.2.cv2.conv.bias_DequantizeLinear" type="Multiply" version="opset1">
			<data auto_broadcast="numpy" />
			<input>
				<port id="0" precision="FP32">
					<dim>32</dim>
				</port>
				<port id="1" precision="FP32">
					<dim>1</dim>
				</port>
			</input>
			<output>
				<port id="2" precision="FP32" names="model.2.cv2.conv.bias">
					<dim>32</dim>
				</port>
			</output>
		</layer>
		<layer id="186" name="Concat_1730" type="Const" version="opset1">
			<data element_type="i64" shape="4" offset="72508" size="32" />
			<output>
				<port id="0" precision="I64">
					<dim>4</dim>
				</port>
			</output>
		</layer>
		<layer id="187" name="Reshape_1731" type="Reshape" version="opset1">
			<data special_zero="false" />
			<input>
				<port id="0" precision="FP32">
					<dim>32</dim>
				</port>
				<port id="1" precision="I64">
					<dim>4</dim>
				</port>
			</input>
			<output>
				<port id="2" precision="FP32">
					<dim>1</dim>
					<dim>32</dim>
					<dim>1</dim>
					<dim>1</dim>
				</port>
			</output>
		</layer>
		<layer id="188" name="/model.2/cv2/conv/Conv" type="Add" version="opset1">
			<data auto_broadcast="numpy" />
			<input>
				<port id="0" precision="FP32">
					<dim>1</dim>
					<dim>32</dim>
					<dim>160</dim>
					<dim>160</dim>
				</port>
				<port id="1" precision="FP32">
					<dim>1</dim>
					<dim>32</dim>
					<dim>1</dim>
					<dim>1</dim>
				</port>
			</input>
			<output>
				<port id="2" precision="FP32" names="/model.2/cv2/conv/Conv_output_0">
					<dim>1</dim>
					<dim>32</dim>
					<dim>160</dim>
					<dim>160</dim>
				</port>
			</output>
		</layer>
		<layer id="189" name="Constant_20486" type="Const" version="opset1">
			<data element_type="f32" shape="1, 1, 1, 1" offset="80224" size="4" />
			<output>
				<port id="0" precision="FP32">
					<dim>1</dim>
					<dim>1</dim>
					<dim>1</dim>
					<dim>1</dim>
				</port>
			</output>
		</layer>
		<layer id="190" name="Constant_20487" type="Const" version="opset1">
			<data element_type="f32" shape="1, 1, 1, 1" offset="80228" size="4" />
			<output>
				<port id="0" precision="FP32">
					<dim>1</dim>
					<dim>1</dim>
					<dim>1</dim>
					<dim>1</dim>
				</port>
			</output>
		</layer>
		<layer id="191" name="Constant_20488" type="Const" version="opset1">
			<data element_type="f32" shape="1, 1, 1, 1" offset="80224" size="4" />
			<output>
				<port id="0" precision="FP32">
					<dim>1</dim>
					<dim>1</dim>
					<dim>1</dim>
					<dim>1</dim>
				</port>
			</output>
		</layer>
		<layer id="192" name="Constant_20489" type="Const" version="opset1">
			<data element_type="f32" shape="1, 1, 1, 1" offset="80228" size="4" />
			<output>
				<port id="0" precision="FP32">
					<dim>1</dim>
					<dim>1</dim>
					<dim>1</dim>
					<dim>1</dim>
				</port>
			</output>
		</layer>
		<layer id="193" name="/model.2/cv2/conv/Conv_output_0_DequantizeLinear" type="FakeQuantize" version="opset1">
			<data levels="256" auto_broadcast="numpy" />
			<input>
				<port id="0" precision="FP32">
					<dim>1</dim>
					<dim>32</dim>
					<dim>160</dim>
					<dim>160</dim>
				</port>
				<port id="1" precision="FP32">
					<dim>1</dim>
					<dim>1</dim>
					<dim>1</dim>
					<dim>1</dim>
				</port>
				<port id="2" precision="FP32">
					<dim>1</dim>
					<dim>1</dim>
					<dim>1</dim>
					<dim>1</dim>
				</port>
				<port id="3" precision="FP32">
					<dim>1</dim>
					<dim>1</dim>
					<dim>1</dim>
					<dim>1</dim>
				</port>
				<port id="4" precision="FP32">
					<dim>1</dim>
					<dim>1</dim>
					<dim>1</dim>
					<dim>1</dim>
				</port>
			</input>
			<output>
				<port id="5" precision="FP32" names="/model.2/cv2/conv/Conv_output_0_DequantizeLinear_Output">
					<dim>1</dim>
					<dim>32</dim>
					<dim>160</dim>
					<dim>160</dim>
				</port>
			</output>
		</layer>
		<layer id="194" name="/model.2/cv2/act/Sigmoid" type="Sigmoid" version="opset1">
			<input>
				<port id="0" precision="FP32">
					<dim>1</dim>
					<dim>32</dim>
					<dim>160</dim>
					<dim>160</dim>
				</port>
			</input>
			<output>
				<port id="1" precision="FP32" names="/model.2/cv2/act/Sigmoid_output_0">
					<dim>1</dim>
					<dim>32</dim>
					<dim>160</dim>
					<dim>160</dim>
				</port>
			</output>
		</layer>
		<layer id="195" name="Constant_20490" type="Const" version="opset1">
			<data element_type="f32" shape="1, 1, 1, 1" offset="67200" size="4" />
			<output>
				<port id="0" precision="FP32">
					<dim>1</dim>
					<dim>1</dim>
					<dim>1</dim>
					<dim>1</dim>
				</port>
			</output>
		</layer>
		<layer id="196" name="Constant_20491" type="Const" version="opset1">
			<data element_type="f32" shape="1, 1, 1, 1" offset="67204" size="4" />
			<output>
				<port id="0" precision="FP32">
					<dim>1</dim>
					<dim>1</dim>
					<dim>1</dim>
					<dim>1</dim>
				</port>
			</output>
		</layer>
		<layer id="197" name="Constant_20492" type="Const" version="opset1">
			<data element_type="f32" shape="1, 1, 1, 1" offset="67200" size="4" />
			<output>
				<port id="0" precision="FP32">
					<dim>1</dim>
					<dim>1</dim>
					<dim>1</dim>
					<dim>1</dim>
				</port>
			</output>
		</layer>
		<layer id="198" name="Constant_20493" type="Const" version="opset1">
			<data element_type="f32" shape="1, 1, 1, 1" offset="67204" size="4" />
			<output>
				<port id="0" precision="FP32">
					<dim>1</dim>
					<dim>1</dim>
					<dim>1</dim>
					<dim>1</dim>
				</port>
			</output>
		</layer>
		<layer id="199" name="/model.2/cv2/act/Sigmoid_output_0_DequantizeLinear" type="FakeQuantize" version="opset1">
			<data levels="256" auto_broadcast="numpy" />
			<input>
				<port id="0" precision="FP32">
					<dim>1</dim>
					<dim>32</dim>
					<dim>160</dim>
					<dim>160</dim>
				</port>
				<port id="1" precision="FP32">
					<dim>1</dim>
					<dim>1</dim>
					<dim>1</dim>
					<dim>1</dim>
				</port>
				<port id="2" precision="FP32">
					<dim>1</dim>
					<dim>1</dim>
					<dim>1</dim>
					<dim>1</dim>
				</port>
				<port id="3" precision="FP32">
					<dim>1</dim>
					<dim>1</dim>
					<dim>1</dim>
					<dim>1</dim>
				</port>
				<port id="4" precision="FP32">
					<dim>1</dim>
					<dim>1</dim>
					<dim>1</dim>
					<dim>1</dim>
				</port>
			</input>
			<output>
				<port id="5" precision="FP32" names="/model.2/cv2/act/Sigmoid_output_0_DequantizeLinear_Output">
					<dim>1</dim>
					<dim>32</dim>
					<dim>160</dim>
					<dim>160</dim>
				</port>
			</output>
		</layer>
		<layer id="200" name="/model.2/cv2/act/Mul" type="Multiply" version="opset1">
			<data auto_broadcast="numpy" />
			<input>
				<port id="0" precision="FP32">
					<dim>1</dim>
					<dim>32</dim>
					<dim>160</dim>
					<dim>160</dim>
				</port>
				<port id="1" precision="FP32">
					<dim>1</dim>
					<dim>32</dim>
					<dim>160</dim>
					<dim>160</dim>
				</port>
			</input>
			<output>
				<port id="2" precision="FP32" names="/model.2/cv2/act/Mul_output_0">
					<dim>1</dim>
					<dim>32</dim>
					<dim>160</dim>
					<dim>160</dim>
				</port>
			</output>
		</layer>
		<layer id="201" name="Constant_20494" type="Const" version="opset1">
			<data element_type="f32" shape="1, 1, 1, 1" offset="80232" size="4" />
			<output>
				<port id="0" precision="FP32">
					<dim>1</dim>
					<dim>1</dim>
					<dim>1</dim>
					<dim>1</dim>
				</port>
			</output>
		</layer>
		<layer id="202" name="Constant_20495" type="Const" version="opset1">
			<data element_type="f32" shape="1, 1, 1, 1" offset="80236" size="4" />
			<output>
				<port id="0" precision="FP32">
					<dim>1</dim>
					<dim>1</dim>
					<dim>1</dim>
					<dim>1</dim>
				</port>
			</output>
		</layer>
		<layer id="203" name="Constant_20496" type="Const" version="opset1">
			<data element_type="f32" shape="1, 1, 1, 1" offset="80232" size="4" />
			<output>
				<port id="0" precision="FP32">
					<dim>1</dim>
					<dim>1</dim>
					<dim>1</dim>
					<dim>1</dim>
				</port>
			</output>
		</layer>
		<layer id="204" name="Constant_20497" type="Const" version="opset1">
			<data element_type="f32" shape="1, 1, 1, 1" offset="80236" size="4" />
			<output>
				<port id="0" precision="FP32">
					<dim>1</dim>
					<dim>1</dim>
					<dim>1</dim>
					<dim>1</dim>
				</port>
			</output>
		</layer>
		<layer id="205" name="/model.2/cv2/act/Mul_output_0_DequantizeLinear" type="FakeQuantize" version="opset1">
			<data levels="256" auto_broadcast="numpy" />
			<input>
				<port id="0" precision="FP32">
					<dim>1</dim>
					<dim>32</dim>
					<dim>160</dim>
					<dim>160</dim>
				</port>
				<port id="1" precision="FP32">
					<dim>1</dim>
					<dim>1</dim>
					<dim>1</dim>
					<dim>1</dim>
				</port>
				<port id="2" precision="FP32">
					<dim>1</dim>
					<dim>1</dim>
					<dim>1</dim>
					<dim>1</dim>
				</port>
				<port id="3" precision="FP32">
					<dim>1</dim>
					<dim>1</dim>
					<dim>1</dim>
					<dim>1</dim>
				</port>
				<port id="4" precision="FP32">
					<dim>1</dim>
					<dim>1</dim>
					<dim>1</dim>
					<dim>1</dim>
				</port>
			</input>
			<output>
				<port id="5" precision="FP32" names="/model.2/cv2/act/Mul_output_0_DequantizeLinear_Output">
					<dim>1</dim>
					<dim>32</dim>
					<dim>160</dim>
					<dim>160</dim>
				</port>
			</output>
		</layer>
		<layer id="206" name="model.3.conv.weight_quantized" type="Const" version="opset1">
			<data element_type="i8" shape="64, 32, 3, 3" offset="80240" size="18432" />
			<output>
				<port id="0" precision="I8" names="model.3.conv.weight_quantized">
					<dim>64</dim>
					<dim>32</dim>
					<dim>3</dim>
					<dim>3</dim>
				</port>
			</output>
		</layer>
		<layer id="207" name="Convert_1188" type="Convert" version="opset1">
			<data destination_type="f32" />
			<input>
				<port id="0" precision="I8">
					<dim>64</dim>
					<dim>32</dim>
					<dim>3</dim>
					<dim>3</dim>
				</port>
			</input>
			<output>
				<port id="1" precision="FP32">
					<dim>64</dim>
					<dim>32</dim>
					<dim>3</dim>
					<dim>3</dim>
				</port>
			</output>
		</layer>
		<layer id="208" name="Constant_20498" type="Const" version="opset1">
			<data element_type="f32" shape="1, 1, 1, 1" offset="98672" size="4" />
			<output>
				<port id="0" precision="FP32">
					<dim>1</dim>
					<dim>1</dim>
					<dim>1</dim>
					<dim>1</dim>
				</port>
			</output>
		</layer>
		<layer id="209" name="model.3.conv.weight_DequantizeLinear" type="Multiply" version="opset1">
			<data auto_broadcast="numpy" />
			<input>
				<port id="0" precision="FP32">
					<dim>64</dim>
					<dim>32</dim>
					<dim>3</dim>
					<dim>3</dim>
				</port>
				<port id="1" precision="FP32">
					<dim>1</dim>
					<dim>1</dim>
					<dim>1</dim>
					<dim>1</dim>
				</port>
			</input>
			<output>
				<port id="2" precision="FP32" names="model.3.conv.weight_DequantizeLinear_Output">
					<dim>64</dim>
					<dim>32</dim>
					<dim>3</dim>
					<dim>3</dim>
				</port>
			</output>
		</layer>
		<layer id="210" name="/model.3/conv/Conv/WithoutBiases" type="Convolution" version="opset1">
			<data strides="2, 2" dilations="1, 1" pads_begin="1, 1" pads_end="1, 1" auto_pad="explicit" />
			<input>
				<port id="0" precision="FP32">
					<dim>1</dim>
					<dim>32</dim>
					<dim>160</dim>
					<dim>160</dim>
				</port>
				<port id="1" precision="FP32">
					<dim>64</dim>
					<dim>32</dim>
					<dim>3</dim>
					<dim>3</dim>
				</port>
			</input>
			<output>
				<port id="2" precision="FP32">
					<dim>1</dim>
					<dim>64</dim>
					<dim>80</dim>
					<dim>80</dim>
				</port>
			</output>
		</layer>
		<layer id="211" name="model.3.conv.bias_quantized" type="Const" version="opset1">
			<data element_type="i32" shape="64" offset="98676" size="256" />
			<output>
				<port id="0" precision="I32" names="model.3.conv.bias_quantized">
					<dim>64</dim>
				</port>
			</output>
		</layer>
		<layer id="212" name="Convert_1184" type="Convert" version="opset1">
			<data destination_type="f32" />
			<input>
				<port id="0" precision="I32">
					<dim>64</dim>
				</port>
			</input>
			<output>
				<port id="1" precision="FP32">
					<dim>64</dim>
				</port>
			</output>
		</layer>
		<layer id="213" name="model.3.conv.bias_quantized_scale" type="Const" version="opset1">
			<data element_type="f32" shape="1" offset="98932" size="4" />
			<output>
				<port id="0" precision="FP32" names="model.3.conv.bias_quantized_scale">
					<dim>1</dim>
				</port>
			</output>
		</layer>
		<layer id="214" name="model.3.conv.bias_DequantizeLinear" type="Multiply" version="opset1">
			<data auto_broadcast="numpy" />
			<input>
				<port id="0" precision="FP32">
					<dim>64</dim>
				</port>
				<port id="1" precision="FP32">
					<dim>1</dim>
				</port>
			</input>
			<output>
				<port id="2" precision="FP32" names="model.3.conv.bias">
					<dim>64</dim>
				</port>
			</output>
		</layer>
		<layer id="215" name="Concat_1790" type="Const" version="opset1">
			<data element_type="i64" shape="4" offset="98936" size="32" />
			<output>
				<port id="0" precision="I64">
					<dim>4</dim>
				</port>
			</output>
		</layer>
		<layer id="216" name="Reshape_1791" type="Reshape" version="opset1">
			<data special_zero="false" />
			<input>
				<port id="0" precision="FP32">
					<dim>64</dim>
				</port>
				<port id="1" precision="I64">
					<dim>4</dim>
				</port>
			</input>
			<output>
				<port id="2" precision="FP32">
					<dim>1</dim>
					<dim>64</dim>
					<dim>1</dim>
					<dim>1</dim>
				</port>
			</output>
		</layer>
		<layer id="217" name="/model.3/conv/Conv" type="Add" version="opset1">
			<data auto_broadcast="numpy" />
			<input>
				<port id="0" precision="FP32">
					<dim>1</dim>
					<dim>64</dim>
					<dim>80</dim>
					<dim>80</dim>
				</port>
				<port id="1" precision="FP32">
					<dim>1</dim>
					<dim>64</dim>
					<dim>1</dim>
					<dim>1</dim>
				</port>
			</input>
			<output>
				<port id="2" precision="FP32" names="/model.3/conv/Conv_output_0">
					<dim>1</dim>
					<dim>64</dim>
					<dim>80</dim>
					<dim>80</dim>
				</port>
			</output>
		</layer>
		<layer id="218" name="Constant_20499" type="Const" version="opset1">
			<data element_type="f32" shape="1, 1, 1, 1" offset="98968" size="4" />
			<output>
				<port id="0" precision="FP32">
					<dim>1</dim>
					<dim>1</dim>
					<dim>1</dim>
					<dim>1</dim>
				</port>
			</output>
		</layer>
		<layer id="219" name="Constant_20500" type="Const" version="opset1">
			<data element_type="f32" shape="1, 1, 1, 1" offset="98972" size="4" />
			<output>
				<port id="0" precision="FP32">
					<dim>1</dim>
					<dim>1</dim>
					<dim>1</dim>
					<dim>1</dim>
				</port>
			</output>
		</layer>
		<layer id="220" name="Constant_20501" type="Const" version="opset1">
			<data element_type="f32" shape="1, 1, 1, 1" offset="98968" size="4" />
			<output>
				<port id="0" precision="FP32">
					<dim>1</dim>
					<dim>1</dim>
					<dim>1</dim>
					<dim>1</dim>
				</port>
			</output>
		</layer>
		<layer id="221" name="Constant_20502" type="Const" version="opset1">
			<data element_type="f32" shape="1, 1, 1, 1" offset="98972" size="4" />
			<output>
				<port id="0" precision="FP32">
					<dim>1</dim>
					<dim>1</dim>
					<dim>1</dim>
					<dim>1</dim>
				</port>
			</output>
		</layer>
		<layer id="222" name="/model.3/conv/Conv_output_0_DequantizeLinear" type="FakeQuantize" version="opset1">
			<data levels="256" auto_broadcast="numpy" />
			<input>
				<port id="0" precision="FP32">
					<dim>1</dim>
					<dim>64</dim>
					<dim>80</dim>
					<dim>80</dim>
				</port>
				<port id="1" precision="FP32">
					<dim>1</dim>
					<dim>1</dim>
					<dim>1</dim>
					<dim>1</dim>
				</port>
				<port id="2" precision="FP32">
					<dim>1</dim>
					<dim>1</dim>
					<dim>1</dim>
					<dim>1</dim>
				</port>
				<port id="3" precision="FP32">
					<dim>1</dim>
					<dim>1</dim>
					<dim>1</dim>
					<dim>1</dim>
				</port>
				<port id="4" precision="FP32">
					<dim>1</dim>
					<dim>1</dim>
					<dim>1</dim>
					<dim>1</dim>
				</port>
			</input>
			<output>
				<port id="5" precision="FP32" names="/model.3/conv/Conv_output_0_DequantizeLinear_Output">
					<dim>1</dim>
					<dim>64</dim>
					<dim>80</dim>
					<dim>80</dim>
				</port>
			</output>
		</layer>
		<layer id="223" name="/model.3/act/Sigmoid" type="Sigmoid" version="opset1">
			<input>
				<port id="0" precision="FP32">
					<dim>1</dim>
					<dim>64</dim>
					<dim>80</dim>
					<dim>80</dim>
				</port>
			</input>
			<output>
				<port id="1" precision="FP32" names="/model.3/act/Sigmoid_output_0">
					<dim>1</dim>
					<dim>64</dim>
					<dim>80</dim>
					<dim>80</dim>
				</port>
			</output>
		</layer>
		<layer id="224" name="Constant_20503" type="Const" version="opset1">
			<data element_type="f32" shape="1, 1, 1, 1" offset="67200" size="4" />
			<output>
				<port id="0" precision="FP32">
					<dim>1</dim>
					<dim>1</dim>
					<dim>1</dim>
					<dim>1</dim>
				</port>
			</output>
		</layer>
		<layer id="225" name="Constant_20504" type="Const" version="opset1">
			<data element_type="f32" shape="1, 1, 1, 1" offset="98976" size="4" />
			<output>
				<port id="0" precision="FP32">
					<dim>1</dim>
					<dim>1</dim>
					<dim>1</dim>
					<dim>1</dim>
				</port>
			</output>
		</layer>
		<layer id="226" name="Constant_20505" type="Const" version="opset1">
			<data element_type="f32" shape="1, 1, 1, 1" offset="67200" size="4" />
			<output>
				<port id="0" precision="FP32">
					<dim>1</dim>
					<dim>1</dim>
					<dim>1</dim>
					<dim>1</dim>
				</port>
			</output>
		</layer>
		<layer id="227" name="Constant_20506" type="Const" version="opset1">
			<data element_type="f32" shape="1, 1, 1, 1" offset="98976" size="4" />
			<output>
				<port id="0" precision="FP32">
					<dim>1</dim>
					<dim>1</dim>
					<dim>1</dim>
					<dim>1</dim>
				</port>
			</output>
		</layer>
		<layer id="228" name="/model.3/act/Sigmoid_output_0_DequantizeLinear" type="FakeQuantize" version="opset1">
			<data levels="256" auto_broadcast="numpy" />
			<input>
				<port id="0" precision="FP32">
					<dim>1</dim>
					<dim>64</dim>
					<dim>80</dim>
					<dim>80</dim>
				</port>
				<port id="1" precision="FP32">
					<dim>1</dim>
					<dim>1</dim>
					<dim>1</dim>
					<dim>1</dim>
				</port>
				<port id="2" precision="FP32">
					<dim>1</dim>
					<dim>1</dim>
					<dim>1</dim>
					<dim>1</dim>
				</port>
				<port id="3" precision="FP32">
					<dim>1</dim>
					<dim>1</dim>
					<dim>1</dim>
					<dim>1</dim>
				</port>
				<port id="4" precision="FP32">
					<dim>1</dim>
					<dim>1</dim>
					<dim>1</dim>
					<dim>1</dim>
				</port>
			</input>
			<output>
				<port id="5" precision="FP32" names="/model.3/act/Sigmoid_output_0_DequantizeLinear_Output">
					<dim>1</dim>
					<dim>64</dim>
					<dim>80</dim>
					<dim>80</dim>
				</port>
			</output>
		</layer>
		<layer id="229" name="/model.3/act/Mul" type="Multiply" version="opset1">
			<data auto_broadcast="numpy" />
			<input>
				<port id="0" precision="FP32">
					<dim>1</dim>
					<dim>64</dim>
					<dim>80</dim>
					<dim>80</dim>
				</port>
				<port id="1" precision="FP32">
					<dim>1</dim>
					<dim>64</dim>
					<dim>80</dim>
					<dim>80</dim>
				</port>
			</input>
			<output>
				<port id="2" precision="FP32" names="/model.3/act/Mul_output_0">
					<dim>1</dim>
					<dim>64</dim>
					<dim>80</dim>
					<dim>80</dim>
				</port>
			</output>
		</layer>
		<layer id="230" name="Constant_20507" type="Const" version="opset1">
			<data element_type="f32" shape="1, 1, 1, 1" offset="98980" size="4" />
			<output>
				<port id="0" precision="FP32">
					<dim>1</dim>
					<dim>1</dim>
					<dim>1</dim>
					<dim>1</dim>
				</port>
			</output>
		</layer>
		<layer id="231" name="Constant_20508" type="Const" version="opset1">
			<data element_type="f32" shape="1, 1, 1, 1" offset="98984" size="4" />
			<output>
				<port id="0" precision="FP32">
					<dim>1</dim>
					<dim>1</dim>
					<dim>1</dim>
					<dim>1</dim>
				</port>
			</output>
		</layer>
		<layer id="232" name="Constant_20509" type="Const" version="opset1">
			<data element_type="f32" shape="1, 1, 1, 1" offset="98980" size="4" />
			<output>
				<port id="0" precision="FP32">
					<dim>1</dim>
					<dim>1</dim>
					<dim>1</dim>
					<dim>1</dim>
				</port>
			</output>
		</layer>
		<layer id="233" name="Constant_20510" type="Const" version="opset1">
			<data element_type="f32" shape="1, 1, 1, 1" offset="98984" size="4" />
			<output>
				<port id="0" precision="FP32">
					<dim>1</dim>
					<dim>1</dim>
					<dim>1</dim>
					<dim>1</dim>
				</port>
			</output>
		</layer>
		<layer id="234" name="/model.3/act/Mul_output_0_DequantizeLinear" type="FakeQuantize" version="opset1">
			<data levels="256" auto_broadcast="numpy" />
			<input>
				<port id="0" precision="FP32">
					<dim>1</dim>
					<dim>64</dim>
					<dim>80</dim>
					<dim>80</dim>
				</port>
				<port id="1" precision="FP32">
					<dim>1</dim>
					<dim>1</dim>
					<dim>1</dim>
					<dim>1</dim>
				</port>
				<port id="2" precision="FP32">
					<dim>1</dim>
					<dim>1</dim>
					<dim>1</dim>
					<dim>1</dim>
				</port>
				<port id="3" precision="FP32">
					<dim>1</dim>
					<dim>1</dim>
					<dim>1</dim>
					<dim>1</dim>
				</port>
				<port id="4" precision="FP32">
					<dim>1</dim>
					<dim>1</dim>
					<dim>1</dim>
					<dim>1</dim>
				</port>
			</input>
			<output>
				<port id="5" precision="FP32" names="/model.3/act/Mul_output_0_DequantizeLinear_Output">
					<dim>1</dim>
					<dim>64</dim>
					<dim>80</dim>
					<dim>80</dim>
				</port>
			</output>
		</layer>
		<layer id="235" name="model.4.cv1.conv.weight_quantized" type="Const" version="opset1">
			<data element_type="i8" shape="64, 64, 1, 1" offset="98988" size="4096" />
			<output>
				<port id="0" precision="I8" names="model.4.cv1.conv.weight_quantized">
					<dim>64</dim>
					<dim>64</dim>
					<dim>1</dim>
					<dim>1</dim>
				</port>
			</output>
		</layer>
		<layer id="236" name="Convert_1196" type="Convert" version="opset1">
			<data destination_type="f32" />
			<input>
				<port id="0" precision="I8">
					<dim>64</dim>
					<dim>64</dim>
					<dim>1</dim>
					<dim>1</dim>
				</port>
			</input>
			<output>
				<port id="1" precision="FP32">
					<dim>64</dim>
					<dim>64</dim>
					<dim>1</dim>
					<dim>1</dim>
				</port>
			</output>
		</layer>
		<layer id="237" name="Constant_20511" type="Const" version="opset1">
			<data element_type="f32" shape="1, 1, 1, 1" offset="103084" size="4" />
			<output>
				<port id="0" precision="FP32">
					<dim>1</dim>
					<dim>1</dim>
					<dim>1</dim>
					<dim>1</dim>
				</port>
			</output>
		</layer>
		<layer id="238" name="model.4.cv1.conv.weight_DequantizeLinear" type="Multiply" version="opset1">
			<data auto_broadcast="numpy" />
			<input>
				<port id="0" precision="FP32">
					<dim>64</dim>
					<dim>64</dim>
					<dim>1</dim>
					<dim>1</dim>
				</port>
				<port id="1" precision="FP32">
					<dim>1</dim>
					<dim>1</dim>
					<dim>1</dim>
					<dim>1</dim>
				</port>
			</input>
			<output>
				<port id="2" precision="FP32" names="model.4.cv1.conv.weight_DequantizeLinear_Output">
					<dim>64</dim>
					<dim>64</dim>
					<dim>1</dim>
					<dim>1</dim>
				</port>
			</output>
		</layer>
		<layer id="239" name="/model.4/cv1/conv/Conv/WithoutBiases" type="Convolution" version="opset1">
			<data strides="1, 1" dilations="1, 1" pads_begin="0, 0" pads_end="0, 0" auto_pad="explicit" />
			<input>
				<port id="0" precision="FP32">
					<dim>1</dim>
					<dim>64</dim>
					<dim>80</dim>
					<dim>80</dim>
				</port>
				<port id="1" precision="FP32">
					<dim>64</dim>
					<dim>64</dim>
					<dim>1</dim>
					<dim>1</dim>
				</port>
			</input>
			<output>
				<port id="2" precision="FP32">
					<dim>1</dim>
					<dim>64</dim>
					<dim>80</dim>
					<dim>80</dim>
				</port>
			</output>
		</layer>
		<layer id="240" name="model.4.cv1.conv.bias_quantized" type="Const" version="opset1">
			<data element_type="i32" shape="64" offset="103088" size="256" />
			<output>
				<port id="0" precision="I32" names="model.4.cv1.conv.bias_quantized">
					<dim>64</dim>
				</port>
			</output>
		</layer>
		<layer id="241" name="Convert_1192" type="Convert" version="opset1">
			<data destination_type="f32" />
			<input>
				<port id="0" precision="I32">
					<dim>64</dim>
				</port>
			</input>
			<output>
				<port id="1" precision="FP32">
					<dim>64</dim>
				</port>
			</output>
		</layer>
		<layer id="242" name="model.4.cv1.conv.bias_quantized_scale" type="Const" version="opset1">
			<data element_type="f32" shape="1" offset="103344" size="4" />
			<output>
				<port id="0" precision="FP32" names="model.4.cv1.conv.bias_quantized_scale">
					<dim>1</dim>
				</port>
			</output>
		</layer>
		<layer id="243" name="model.4.cv1.conv.bias_DequantizeLinear" type="Multiply" version="opset1">
			<data auto_broadcast="numpy" />
			<input>
				<port id="0" precision="FP32">
					<dim>64</dim>
				</port>
				<port id="1" precision="FP32">
					<dim>1</dim>
				</port>
			</input>
			<output>
				<port id="2" precision="FP32" names="model.4.cv1.conv.bias">
					<dim>64</dim>
				</port>
			</output>
		</layer>
		<layer id="244" name="Concat_1850" type="Const" version="opset1">
			<data element_type="i64" shape="4" offset="98936" size="32" />
			<output>
				<port id="0" precision="I64">
					<dim>4</dim>
				</port>
			</output>
		</layer>
		<layer id="245" name="Reshape_1851" type="Reshape" version="opset1">
			<data special_zero="false" />
			<input>
				<port id="0" precision="FP32">
					<dim>64</dim>
				</port>
				<port id="1" precision="I64">
					<dim>4</dim>
				</port>
			</input>
			<output>
				<port id="2" precision="FP32">
					<dim>1</dim>
					<dim>64</dim>
					<dim>1</dim>
					<dim>1</dim>
				</port>
			</output>
		</layer>
		<layer id="246" name="/model.4/cv1/conv/Conv" type="Add" version="opset1">
			<data auto_broadcast="numpy" />
			<input>
				<port id="0" precision="FP32">
					<dim>1</dim>
					<dim>64</dim>
					<dim>80</dim>
					<dim>80</dim>
				</port>
				<port id="1" precision="FP32">
					<dim>1</dim>
					<dim>64</dim>
					<dim>1</dim>
					<dim>1</dim>
				</port>
			</input>
			<output>
				<port id="2" precision="FP32" names="/model.4/cv1/conv/Conv_output_0">
					<dim>1</dim>
					<dim>64</dim>
					<dim>80</dim>
					<dim>80</dim>
				</port>
			</output>
		</layer>
		<layer id="247" name="Constant_20512" type="Const" version="opset1">
			<data element_type="f32" shape="1, 1, 1, 1" offset="103348" size="4" />
			<output>
				<port id="0" precision="FP32">
					<dim>1</dim>
					<dim>1</dim>
					<dim>1</dim>
					<dim>1</dim>
				</port>
			</output>
		</layer>
		<layer id="248" name="Constant_20513" type="Const" version="opset1">
			<data element_type="f32" shape="1, 1, 1, 1" offset="103352" size="4" />
			<output>
				<port id="0" precision="FP32">
					<dim>1</dim>
					<dim>1</dim>
					<dim>1</dim>
					<dim>1</dim>
				</port>
			</output>
		</layer>
		<layer id="249" name="Constant_20514" type="Const" version="opset1">
			<data element_type="f32" shape="1, 1, 1, 1" offset="103348" size="4" />
			<output>
				<port id="0" precision="FP32">
					<dim>1</dim>
					<dim>1</dim>
					<dim>1</dim>
					<dim>1</dim>
				</port>
			</output>
		</layer>
		<layer id="250" name="Constant_20515" type="Const" version="opset1">
			<data element_type="f32" shape="1, 1, 1, 1" offset="103352" size="4" />
			<output>
				<port id="0" precision="FP32">
					<dim>1</dim>
					<dim>1</dim>
					<dim>1</dim>
					<dim>1</dim>
				</port>
			</output>
		</layer>
		<layer id="251" name="/model.4/cv1/conv/Conv_output_0_DequantizeLinear" type="FakeQuantize" version="opset1">
			<data levels="256" auto_broadcast="numpy" />
			<input>
				<port id="0" precision="FP32">
					<dim>1</dim>
					<dim>64</dim>
					<dim>80</dim>
					<dim>80</dim>
				</port>
				<port id="1" precision="FP32">
					<dim>1</dim>
					<dim>1</dim>
					<dim>1</dim>
					<dim>1</dim>
				</port>
				<port id="2" precision="FP32">
					<dim>1</dim>
					<dim>1</dim>
					<dim>1</dim>
					<dim>1</dim>
				</port>
				<port id="3" precision="FP32">
					<dim>1</dim>
					<dim>1</dim>
					<dim>1</dim>
					<dim>1</dim>
				</port>
				<port id="4" precision="FP32">
					<dim>1</dim>
					<dim>1</dim>
					<dim>1</dim>
					<dim>1</dim>
				</port>
			</input>
			<output>
				<port id="5" precision="FP32" names="/model.4/cv1/conv/Conv_output_0_DequantizeLinear_Output">
					<dim>1</dim>
					<dim>64</dim>
					<dim>80</dim>
					<dim>80</dim>
				</port>
			</output>
		</layer>
		<layer id="252" name="/model.4/cv1/act/Sigmoid" type="Sigmoid" version="opset1">
			<input>
				<port id="0" precision="FP32">
					<dim>1</dim>
					<dim>64</dim>
					<dim>80</dim>
					<dim>80</dim>
				</port>
			</input>
			<output>
				<port id="1" precision="FP32" names="/model.4/cv1/act/Sigmoid_output_0">
					<dim>1</dim>
					<dim>64</dim>
					<dim>80</dim>
					<dim>80</dim>
				</port>
			</output>
		</layer>
		<layer id="253" name="Constant_20516" type="Const" version="opset1">
			<data element_type="f32" shape="1, 1, 1, 1" offset="67200" size="4" />
			<output>
				<port id="0" precision="FP32">
					<dim>1</dim>
					<dim>1</dim>
					<dim>1</dim>
					<dim>1</dim>
				</port>
			</output>
		</layer>
		<layer id="254" name="Constant_20517" type="Const" version="opset1">
			<data element_type="f32" shape="1, 1, 1, 1" offset="103356" size="4" />
			<output>
				<port id="0" precision="FP32">
					<dim>1</dim>
					<dim>1</dim>
					<dim>1</dim>
					<dim>1</dim>
				</port>
			</output>
		</layer>
		<layer id="255" name="Constant_20518" type="Const" version="opset1">
			<data element_type="f32" shape="1, 1, 1, 1" offset="67200" size="4" />
			<output>
				<port id="0" precision="FP32">
					<dim>1</dim>
					<dim>1</dim>
					<dim>1</dim>
					<dim>1</dim>
				</port>
			</output>
		</layer>
		<layer id="256" name="Constant_20519" type="Const" version="opset1">
			<data element_type="f32" shape="1, 1, 1, 1" offset="103356" size="4" />
			<output>
				<port id="0" precision="FP32">
					<dim>1</dim>
					<dim>1</dim>
					<dim>1</dim>
					<dim>1</dim>
				</port>
			</output>
		</layer>
		<layer id="257" name="/model.4/cv1/act/Sigmoid_output_0_DequantizeLinear" type="FakeQuantize" version="opset1">
			<data levels="256" auto_broadcast="numpy" />
			<input>
				<port id="0" precision="FP32">
					<dim>1</dim>
					<dim>64</dim>
					<dim>80</dim>
					<dim>80</dim>
				</port>
				<port id="1" precision="FP32">
					<dim>1</dim>
					<dim>1</dim>
					<dim>1</dim>
					<dim>1</dim>
				</port>
				<port id="2" precision="FP32">
					<dim>1</dim>
					<dim>1</dim>
					<dim>1</dim>
					<dim>1</dim>
				</port>
				<port id="3" precision="FP32">
					<dim>1</dim>
					<dim>1</dim>
					<dim>1</dim>
					<dim>1</dim>
				</port>
				<port id="4" precision="FP32">
					<dim>1</dim>
					<dim>1</dim>
					<dim>1</dim>
					<dim>1</dim>
				</port>
			</input>
			<output>
				<port id="5" precision="FP32" names="/model.4/cv1/act/Sigmoid_output_0_DequantizeLinear_Output">
					<dim>1</dim>
					<dim>64</dim>
					<dim>80</dim>
					<dim>80</dim>
				</port>
			</output>
		</layer>
		<layer id="258" name="/model.4/cv1/act/Mul" type="Multiply" version="opset1">
			<data auto_broadcast="numpy" />
			<input>
				<port id="0" precision="FP32">
					<dim>1</dim>
					<dim>64</dim>
					<dim>80</dim>
					<dim>80</dim>
				</port>
				<port id="1" precision="FP32">
					<dim>1</dim>
					<dim>64</dim>
					<dim>80</dim>
					<dim>80</dim>
				</port>
			</input>
			<output>
				<port id="2" precision="FP32" names="/model.4/cv1/act/Mul_output_0">
					<dim>1</dim>
					<dim>64</dim>
					<dim>80</dim>
					<dim>80</dim>
				</port>
			</output>
		</layer>
		<layer id="259" name="Constant_20520" type="Const" version="opset1">
			<data element_type="f32" shape="1, 1, 1, 1" offset="103360" size="4" />
			<output>
				<port id="0" precision="FP32">
					<dim>1</dim>
					<dim>1</dim>
					<dim>1</dim>
					<dim>1</dim>
				</port>
			</output>
		</layer>
		<layer id="260" name="Constant_20521" type="Const" version="opset1">
			<data element_type="f32" shape="1, 1, 1, 1" offset="103364" size="4" />
			<output>
				<port id="0" precision="FP32">
					<dim>1</dim>
					<dim>1</dim>
					<dim>1</dim>
					<dim>1</dim>
				</port>
			</output>
		</layer>
		<layer id="261" name="Constant_20522" type="Const" version="opset1">
			<data element_type="f32" shape="1, 1, 1, 1" offset="103360" size="4" />
			<output>
				<port id="0" precision="FP32">
					<dim>1</dim>
					<dim>1</dim>
					<dim>1</dim>
					<dim>1</dim>
				</port>
			</output>
		</layer>
		<layer id="262" name="Constant_20523" type="Const" version="opset1">
			<data element_type="f32" shape="1, 1, 1, 1" offset="103364" size="4" />
			<output>
				<port id="0" precision="FP32">
					<dim>1</dim>
					<dim>1</dim>
					<dim>1</dim>
					<dim>1</dim>
				</port>
			</output>
		</layer>
		<layer id="263" name="/model.4/cv1/act/Mul_output_0_DequantizeLinear" type="FakeQuantize" version="opset1">
			<data levels="256" auto_broadcast="numpy" />
			<input>
				<port id="0" precision="FP32">
					<dim>1</dim>
					<dim>64</dim>
					<dim>80</dim>
					<dim>80</dim>
				</port>
				<port id="1" precision="FP32">
					<dim>1</dim>
					<dim>1</dim>
					<dim>1</dim>
					<dim>1</dim>
				</port>
				<port id="2" precision="FP32">
					<dim>1</dim>
					<dim>1</dim>
					<dim>1</dim>
					<dim>1</dim>
				</port>
				<port id="3" precision="FP32">
					<dim>1</dim>
					<dim>1</dim>
					<dim>1</dim>
					<dim>1</dim>
				</port>
				<port id="4" precision="FP32">
					<dim>1</dim>
					<dim>1</dim>
					<dim>1</dim>
					<dim>1</dim>
				</port>
			</input>
			<output>
				<port id="5" precision="FP32" names="/model.4/cv1/act/Mul_output_0_DequantizeLinear_Output">
					<dim>1</dim>
					<dim>64</dim>
					<dim>80</dim>
					<dim>80</dim>
				</port>
			</output>
		</layer>
		<layer id="264" name="Constant_1900" type="Const" version="opset1">
			<data element_type="i64" shape="" offset="73728" size="8" />
			<output>
				<port id="0" precision="I64" />
			</output>
		</layer>
		<layer id="265" name="Constant_1901" type="Const" version="opset1">
			<data element_type="i64" shape="2" offset="103368" size="16" />
			<output>
				<port id="0" precision="I64">
					<dim>2</dim>
				</port>
			</output>
		</layer>
		<layer id="266" name="/model.4/Split" type="VariadicSplit" version="opset1">
			<input>
				<port id="0" precision="FP32">
					<dim>1</dim>
					<dim>64</dim>
					<dim>80</dim>
					<dim>80</dim>
				</port>
				<port id="1" precision="I64" />
				<port id="2" precision="I64">
					<dim>2</dim>
				</port>
			</input>
			<output>
				<port id="3" precision="FP32" names="/model.4/Split_output_0">
					<dim>1</dim>
					<dim>32</dim>
					<dim>80</dim>
					<dim>80</dim>
				</port>
				<port id="4" precision="FP32" names="/model.4/Split_output_1">
					<dim>1</dim>
					<dim>32</dim>
					<dim>80</dim>
					<dim>80</dim>
				</port>
			</output>
		</layer>
		<layer id="267" name="Constant_20524" type="Const" version="opset1">
			<data element_type="f32" shape="1, 1, 1, 1" offset="103360" size="4" />
			<output>
				<port id="0" precision="FP32">
					<dim>1</dim>
					<dim>1</dim>
					<dim>1</dim>
					<dim>1</dim>
				</port>
			</output>
		</layer>
		<layer id="268" name="Constant_20525" type="Const" version="opset1">
			<data element_type="f32" shape="1, 1, 1, 1" offset="103364" size="4" />
			<output>
				<port id="0" precision="FP32">
					<dim>1</dim>
					<dim>1</dim>
					<dim>1</dim>
					<dim>1</dim>
				</port>
			</output>
		</layer>
		<layer id="269" name="Constant_20526" type="Const" version="opset1">
			<data element_type="f32" shape="1, 1, 1, 1" offset="103360" size="4" />
			<output>
				<port id="0" precision="FP32">
					<dim>1</dim>
					<dim>1</dim>
					<dim>1</dim>
					<dim>1</dim>
				</port>
			</output>
		</layer>
		<layer id="270" name="Constant_20527" type="Const" version="opset1">
			<data element_type="f32" shape="1, 1, 1, 1" offset="103364" size="4" />
			<output>
				<port id="0" precision="FP32">
					<dim>1</dim>
					<dim>1</dim>
					<dim>1</dim>
					<dim>1</dim>
				</port>
			</output>
		</layer>
		<layer id="271" name="/model.4/Split_output_0_DequantizeLinear" type="FakeQuantize" version="opset1">
			<data levels="256" auto_broadcast="numpy" />
			<input>
				<port id="0" precision="FP32">
					<dim>1</dim>
					<dim>32</dim>
					<dim>80</dim>
					<dim>80</dim>
				</port>
				<port id="1" precision="FP32">
					<dim>1</dim>
					<dim>1</dim>
					<dim>1</dim>
					<dim>1</dim>
				</port>
				<port id="2" precision="FP32">
					<dim>1</dim>
					<dim>1</dim>
					<dim>1</dim>
					<dim>1</dim>
				</port>
				<port id="3" precision="FP32">
					<dim>1</dim>
					<dim>1</dim>
					<dim>1</dim>
					<dim>1</dim>
				</port>
				<port id="4" precision="FP32">
					<dim>1</dim>
					<dim>1</dim>
					<dim>1</dim>
					<dim>1</dim>
				</port>
			</input>
			<output>
				<port id="5" precision="FP32" names="/model.4/Split_output_0_DequantizeLinear_Output">
					<dim>1</dim>
					<dim>32</dim>
					<dim>80</dim>
					<dim>80</dim>
				</port>
			</output>
		</layer>
		<layer id="272" name="Constant_20528" type="Const" version="opset1">
			<data element_type="f32" shape="1, 1, 1, 1" offset="103360" size="4" />
			<output>
				<port id="0" precision="FP32">
					<dim>1</dim>
					<dim>1</dim>
					<dim>1</dim>
					<dim>1</dim>
				</port>
			</output>
		</layer>
		<layer id="273" name="Constant_20529" type="Const" version="opset1">
			<data element_type="f32" shape="1, 1, 1, 1" offset="103364" size="4" />
			<output>
				<port id="0" precision="FP32">
					<dim>1</dim>
					<dim>1</dim>
					<dim>1</dim>
					<dim>1</dim>
				</port>
			</output>
		</layer>
		<layer id="274" name="Constant_20530" type="Const" version="opset1">
			<data element_type="f32" shape="1, 1, 1, 1" offset="103360" size="4" />
			<output>
				<port id="0" precision="FP32">
					<dim>1</dim>
					<dim>1</dim>
					<dim>1</dim>
					<dim>1</dim>
				</port>
			</output>
		</layer>
		<layer id="275" name="Constant_20531" type="Const" version="opset1">
			<data element_type="f32" shape="1, 1, 1, 1" offset="103364" size="4" />
			<output>
				<port id="0" precision="FP32">
					<dim>1</dim>
					<dim>1</dim>
					<dim>1</dim>
					<dim>1</dim>
				</port>
			</output>
		</layer>
		<layer id="276" name="/model.4/Split_output_1_DequantizeLinear" type="FakeQuantize" version="opset1">
			<data levels="256" auto_broadcast="numpy" />
			<input>
				<port id="0" precision="FP32">
					<dim>1</dim>
					<dim>32</dim>
					<dim>80</dim>
					<dim>80</dim>
				</port>
				<port id="1" precision="FP32">
					<dim>1</dim>
					<dim>1</dim>
					<dim>1</dim>
					<dim>1</dim>
				</port>
				<port id="2" precision="FP32">
					<dim>1</dim>
					<dim>1</dim>
					<dim>1</dim>
					<dim>1</dim>
				</port>
				<port id="3" precision="FP32">
					<dim>1</dim>
					<dim>1</dim>
					<dim>1</dim>
					<dim>1</dim>
				</port>
				<port id="4" precision="FP32">
					<dim>1</dim>
					<dim>1</dim>
					<dim>1</dim>
					<dim>1</dim>
				</port>
			</input>
			<output>
				<port id="5" precision="FP32" names="/model.4/Split_output_1_DequantizeLinear_Output">
					<dim>1</dim>
					<dim>32</dim>
					<dim>80</dim>
					<dim>80</dim>
				</port>
			</output>
		</layer>
		<layer id="277" name="model.4.m.0.cv1.conv.weight_quantized" type="Const" version="opset1">
			<data element_type="i8" shape="32, 32, 3, 3" offset="103384" size="9216" />
			<output>
				<port id="0" precision="I8" names="model.4.m.0.cv1.conv.weight_quantized">
					<dim>32</dim>
					<dim>32</dim>
					<dim>3</dim>
					<dim>3</dim>
				</port>
			</output>
		</layer>
		<layer id="278" name="Convert_1212" type="Convert" version="opset1">
			<data destination_type="f32" />
			<input>
				<port id="0" precision="I8">
					<dim>32</dim>
					<dim>32</dim>
					<dim>3</dim>
					<dim>3</dim>
				</port>
			</input>
			<output>
				<port id="1" precision="FP32">
					<dim>32</dim>
					<dim>32</dim>
					<dim>3</dim>
					<dim>3</dim>
				</port>
			</output>
		</layer>
		<layer id="279" name="Constant_20532" type="Const" version="opset1">
			<data element_type="f32" shape="1, 1, 1, 1" offset="112600" size="4" />
			<output>
				<port id="0" precision="FP32">
					<dim>1</dim>
					<dim>1</dim>
					<dim>1</dim>
					<dim>1</dim>
				</port>
			</output>
		</layer>
		<layer id="280" name="model.4.m.0.cv1.conv.weight_DequantizeLinear" type="Multiply" version="opset1">
			<data auto_broadcast="numpy" />
			<input>
				<port id="0" precision="FP32">
					<dim>32</dim>
					<dim>32</dim>
					<dim>3</dim>
					<dim>3</dim>
				</port>
				<port id="1" precision="FP32">
					<dim>1</dim>
					<dim>1</dim>
					<dim>1</dim>
					<dim>1</dim>
				</port>
			</input>
			<output>
				<port id="2" precision="FP32" names="model.4.m.0.cv1.conv.weight_DequantizeLinear_Output">
					<dim>32</dim>
					<dim>32</dim>
					<dim>3</dim>
					<dim>3</dim>
				</port>
			</output>
		</layer>
		<layer id="281" name="/model.4/m.0/cv1/conv/Conv/WithoutBiases" type="Convolution" version="opset1">
			<data strides="1, 1" dilations="1, 1" pads_begin="1, 1" pads_end="1, 1" auto_pad="explicit" />
			<input>
				<port id="0" precision="FP32">
					<dim>1</dim>
					<dim>32</dim>
					<dim>80</dim>
					<dim>80</dim>
				</port>
				<port id="1" precision="FP32">
					<dim>32</dim>
					<dim>32</dim>
					<dim>3</dim>
					<dim>3</dim>
				</port>
			</input>
			<output>
				<port id="2" precision="FP32">
					<dim>1</dim>
					<dim>32</dim>
					<dim>80</dim>
					<dim>80</dim>
				</port>
			</output>
		</layer>
		<layer id="282" name="model.4.m.0.cv1.conv.bias_quantized" type="Const" version="opset1">
			<data element_type="i32" shape="32" offset="112604" size="128" />
			<output>
				<port id="0" precision="I32" names="model.4.m.0.cv1.conv.bias_quantized">
					<dim>32</dim>
				</port>
			</output>
		</layer>
		<layer id="283" name="Convert_1208" type="Convert" version="opset1">
			<data destination_type="f32" />
			<input>
				<port id="0" precision="I32">
					<dim>32</dim>
				</port>
			</input>
			<output>
				<port id="1" precision="FP32">
					<dim>32</dim>
				</port>
			</output>
		</layer>
		<layer id="284" name="model.4.m.0.cv1.conv.bias_quantized_scale" type="Const" version="opset1">
			<data element_type="f32" shape="1" offset="112732" size="4" />
			<output>
				<port id="0" precision="FP32" names="model.4.m.0.cv1.conv.bias_quantized_scale">
					<dim>1</dim>
				</port>
			</output>
		</layer>
		<layer id="285" name="model.4.m.0.cv1.conv.bias_DequantizeLinear" type="Multiply" version="opset1">
			<data auto_broadcast="numpy" />
			<input>
				<port id="0" precision="FP32">
					<dim>32</dim>
				</port>
				<port id="1" precision="FP32">
					<dim>1</dim>
				</port>
			</input>
			<output>
				<port id="2" precision="FP32" names="model.4.m.0.cv1.conv.bias">
					<dim>32</dim>
				</port>
			</output>
		</layer>
		<layer id="286" name="Concat_1943" type="Const" version="opset1">
			<data element_type="i64" shape="4" offset="72508" size="32" />
			<output>
				<port id="0" precision="I64">
					<dim>4</dim>
				</port>
			</output>
		</layer>
		<layer id="287" name="Reshape_1944" type="Reshape" version="opset1">
			<data special_zero="false" />
			<input>
				<port id="0" precision="FP32">
					<dim>32</dim>
				</port>
				<port id="1" precision="I64">
					<dim>4</dim>
				</port>
			</input>
			<output>
				<port id="2" precision="FP32">
					<dim>1</dim>
					<dim>32</dim>
					<dim>1</dim>
					<dim>1</dim>
				</port>
			</output>
		</layer>
		<layer id="288" name="/model.4/m.0/cv1/conv/Conv" type="Add" version="opset1">
			<data auto_broadcast="numpy" />
			<input>
				<port id="0" precision="FP32">
					<dim>1</dim>
					<dim>32</dim>
					<dim>80</dim>
					<dim>80</dim>
				</port>
				<port id="1" precision="FP32">
					<dim>1</dim>
					<dim>32</dim>
					<dim>1</dim>
					<dim>1</dim>
				</port>
			</input>
			<output>
				<port id="2" precision="FP32" names="/model.4/m.0/cv1/conv/Conv_output_0">
					<dim>1</dim>
					<dim>32</dim>
					<dim>80</dim>
					<dim>80</dim>
				</port>
			</output>
		</layer>
		<layer id="289" name="Constant_20533" type="Const" version="opset1">
			<data element_type="f32" shape="1, 1, 1, 1" offset="112736" size="4" />
			<output>
				<port id="0" precision="FP32">
					<dim>1</dim>
					<dim>1</dim>
					<dim>1</dim>
					<dim>1</dim>
				</port>
			</output>
		</layer>
		<layer id="290" name="Constant_20534" type="Const" version="opset1">
			<data element_type="f32" shape="1, 1, 1, 1" offset="112740" size="4" />
			<output>
				<port id="0" precision="FP32">
					<dim>1</dim>
					<dim>1</dim>
					<dim>1</dim>
					<dim>1</dim>
				</port>
			</output>
		</layer>
		<layer id="291" name="Constant_20535" type="Const" version="opset1">
			<data element_type="f32" shape="1, 1, 1, 1" offset="112736" size="4" />
			<output>
				<port id="0" precision="FP32">
					<dim>1</dim>
					<dim>1</dim>
					<dim>1</dim>
					<dim>1</dim>
				</port>
			</output>
		</layer>
		<layer id="292" name="Constant_20536" type="Const" version="opset1">
			<data element_type="f32" shape="1, 1, 1, 1" offset="112740" size="4" />
			<output>
				<port id="0" precision="FP32">
					<dim>1</dim>
					<dim>1</dim>
					<dim>1</dim>
					<dim>1</dim>
				</port>
			</output>
		</layer>
		<layer id="293" name="/model.4/m.0/cv1/conv/Conv_output_0_DequantizeLinear" type="FakeQuantize" version="opset1">
			<data levels="256" auto_broadcast="numpy" />
			<input>
				<port id="0" precision="FP32">
					<dim>1</dim>
					<dim>32</dim>
					<dim>80</dim>
					<dim>80</dim>
				</port>
				<port id="1" precision="FP32">
					<dim>1</dim>
					<dim>1</dim>
					<dim>1</dim>
					<dim>1</dim>
				</port>
				<port id="2" precision="FP32">
					<dim>1</dim>
					<dim>1</dim>
					<dim>1</dim>
					<dim>1</dim>
				</port>
				<port id="3" precision="FP32">
					<dim>1</dim>
					<dim>1</dim>
					<dim>1</dim>
					<dim>1</dim>
				</port>
				<port id="4" precision="FP32">
					<dim>1</dim>
					<dim>1</dim>
					<dim>1</dim>
					<dim>1</dim>
				</port>
			</input>
			<output>
				<port id="5" precision="FP32" names="/model.4/m.0/cv1/conv/Conv_output_0_DequantizeLinear_Output">
					<dim>1</dim>
					<dim>32</dim>
					<dim>80</dim>
					<dim>80</dim>
				</port>
			</output>
		</layer>
		<layer id="294" name="/model.4/m.0/cv1/act/Sigmoid" type="Sigmoid" version="opset1">
			<input>
				<port id="0" precision="FP32">
					<dim>1</dim>
					<dim>32</dim>
					<dim>80</dim>
					<dim>80</dim>
				</port>
			</input>
			<output>
				<port id="1" precision="FP32" names="/model.4/m.0/cv1/act/Sigmoid_output_0">
					<dim>1</dim>
					<dim>32</dim>
					<dim>80</dim>
					<dim>80</dim>
				</port>
			</output>
		</layer>
		<layer id="295" name="Constant_20537" type="Const" version="opset1">
			<data element_type="f32" shape="1, 1, 1, 1" offset="67200" size="4" />
			<output>
				<port id="0" precision="FP32">
					<dim>1</dim>
					<dim>1</dim>
					<dim>1</dim>
					<dim>1</dim>
				</port>
			</output>
		</layer>
		<layer id="296" name="Constant_20538" type="Const" version="opset1">
			<data element_type="f32" shape="1, 1, 1, 1" offset="112744" size="4" />
			<output>
				<port id="0" precision="FP32">
					<dim>1</dim>
					<dim>1</dim>
					<dim>1</dim>
					<dim>1</dim>
				</port>
			</output>
		</layer>
		<layer id="297" name="Constant_20539" type="Const" version="opset1">
			<data element_type="f32" shape="1, 1, 1, 1" offset="67200" size="4" />
			<output>
				<port id="0" precision="FP32">
					<dim>1</dim>
					<dim>1</dim>
					<dim>1</dim>
					<dim>1</dim>
				</port>
			</output>
		</layer>
		<layer id="298" name="Constant_20540" type="Const" version="opset1">
			<data element_type="f32" shape="1, 1, 1, 1" offset="112744" size="4" />
			<output>
				<port id="0" precision="FP32">
					<dim>1</dim>
					<dim>1</dim>
					<dim>1</dim>
					<dim>1</dim>
				</port>
			</output>
		</layer>
		<layer id="299" name="/model.4/m.0/cv1/act/Sigmoid_output_0_DequantizeLinear" type="FakeQuantize" version="opset1">
			<data levels="256" auto_broadcast="numpy" />
			<input>
				<port id="0" precision="FP32">
					<dim>1</dim>
					<dim>32</dim>
					<dim>80</dim>
					<dim>80</dim>
				</port>
				<port id="1" precision="FP32">
					<dim>1</dim>
					<dim>1</dim>
					<dim>1</dim>
					<dim>1</dim>
				</port>
				<port id="2" precision="FP32">
					<dim>1</dim>
					<dim>1</dim>
					<dim>1</dim>
					<dim>1</dim>
				</port>
				<port id="3" precision="FP32">
					<dim>1</dim>
					<dim>1</dim>
					<dim>1</dim>
					<dim>1</dim>
				</port>
				<port id="4" precision="FP32">
					<dim>1</dim>
					<dim>1</dim>
					<dim>1</dim>
					<dim>1</dim>
				</port>
			</input>
			<output>
				<port id="5" precision="FP32" names="/model.4/m.0/cv1/act/Sigmoid_output_0_DequantizeLinear_Output">
					<dim>1</dim>
					<dim>32</dim>
					<dim>80</dim>
					<dim>80</dim>
				</port>
			</output>
		</layer>
		<layer id="300" name="/model.4/m.0/cv1/act/Mul" type="Multiply" version="opset1">
			<data auto_broadcast="numpy" />
			<input>
				<port id="0" precision="FP32">
					<dim>1</dim>
					<dim>32</dim>
					<dim>80</dim>
					<dim>80</dim>
				</port>
				<port id="1" precision="FP32">
					<dim>1</dim>
					<dim>32</dim>
					<dim>80</dim>
					<dim>80</dim>
				</port>
			</input>
			<output>
				<port id="2" precision="FP32" names="/model.4/m.0/cv1/act/Mul_output_0">
					<dim>1</dim>
					<dim>32</dim>
					<dim>80</dim>
					<dim>80</dim>
				</port>
			</output>
		</layer>
		<layer id="301" name="Constant_20541" type="Const" version="opset1">
			<data element_type="f32" shape="1, 1, 1, 1" offset="112748" size="4" />
			<output>
				<port id="0" precision="FP32">
					<dim>1</dim>
					<dim>1</dim>
					<dim>1</dim>
					<dim>1</dim>
				</port>
			</output>
		</layer>
		<layer id="302" name="Constant_20542" type="Const" version="opset1">
			<data element_type="f32" shape="1, 1, 1, 1" offset="112752" size="4" />
			<output>
				<port id="0" precision="FP32">
					<dim>1</dim>
					<dim>1</dim>
					<dim>1</dim>
					<dim>1</dim>
				</port>
			</output>
		</layer>
		<layer id="303" name="Constant_20543" type="Const" version="opset1">
			<data element_type="f32" shape="1, 1, 1, 1" offset="112748" size="4" />
			<output>
				<port id="0" precision="FP32">
					<dim>1</dim>
					<dim>1</dim>
					<dim>1</dim>
					<dim>1</dim>
				</port>
			</output>
		</layer>
		<layer id="304" name="Constant_20544" type="Const" version="opset1">
			<data element_type="f32" shape="1, 1, 1, 1" offset="112752" size="4" />
			<output>
				<port id="0" precision="FP32">
					<dim>1</dim>
					<dim>1</dim>
					<dim>1</dim>
					<dim>1</dim>
				</port>
			</output>
		</layer>
		<layer id="305" name="/model.4/m.0/cv1/act/Mul_output_0_DequantizeLinear" type="FakeQuantize" version="opset1">
			<data levels="256" auto_broadcast="numpy" />
			<input>
				<port id="0" precision="FP32">
					<dim>1</dim>
					<dim>32</dim>
					<dim>80</dim>
					<dim>80</dim>
				</port>
				<port id="1" precision="FP32">
					<dim>1</dim>
					<dim>1</dim>
					<dim>1</dim>
					<dim>1</dim>
				</port>
				<port id="2" precision="FP32">
					<dim>1</dim>
					<dim>1</dim>
					<dim>1</dim>
					<dim>1</dim>
				</port>
				<port id="3" precision="FP32">
					<dim>1</dim>
					<dim>1</dim>
					<dim>1</dim>
					<dim>1</dim>
				</port>
				<port id="4" precision="FP32">
					<dim>1</dim>
					<dim>1</dim>
					<dim>1</dim>
					<dim>1</dim>
				</port>
			</input>
			<output>
				<port id="5" precision="FP32" names="/model.4/m.0/cv1/act/Mul_output_0_DequantizeLinear_Output">
					<dim>1</dim>
					<dim>32</dim>
					<dim>80</dim>
					<dim>80</dim>
				</port>
			</output>
		</layer>
		<layer id="306" name="model.4.m.0.cv2.conv.weight_quantized" type="Const" version="opset1">
			<data element_type="i8" shape="32, 32, 3, 3" offset="112756" size="9216" />
			<output>
				<port id="0" precision="I8" names="model.4.m.0.cv2.conv.weight_quantized">
					<dim>32</dim>
					<dim>32</dim>
					<dim>3</dim>
					<dim>3</dim>
				</port>
			</output>
		</layer>
		<layer id="307" name="Convert_1220" type="Convert" version="opset1">
			<data destination_type="f32" />
			<input>
				<port id="0" precision="I8">
					<dim>32</dim>
					<dim>32</dim>
					<dim>3</dim>
					<dim>3</dim>
				</port>
			</input>
			<output>
				<port id="1" precision="FP32">
					<dim>32</dim>
					<dim>32</dim>
					<dim>3</dim>
					<dim>3</dim>
				</port>
			</output>
		</layer>
		<layer id="308" name="Constant_20545" type="Const" version="opset1">
			<data element_type="f32" shape="1, 1, 1, 1" offset="121972" size="4" />
			<output>
				<port id="0" precision="FP32">
					<dim>1</dim>
					<dim>1</dim>
					<dim>1</dim>
					<dim>1</dim>
				</port>
			</output>
		</layer>
		<layer id="309" name="model.4.m.0.cv2.conv.weight_DequantizeLinear" type="Multiply" version="opset1">
			<data auto_broadcast="numpy" />
			<input>
				<port id="0" precision="FP32">
					<dim>32</dim>
					<dim>32</dim>
					<dim>3</dim>
					<dim>3</dim>
				</port>
				<port id="1" precision="FP32">
					<dim>1</dim>
					<dim>1</dim>
					<dim>1</dim>
					<dim>1</dim>
				</port>
			</input>
			<output>
				<port id="2" precision="FP32" names="model.4.m.0.cv2.conv.weight_DequantizeLinear_Output">
					<dim>32</dim>
					<dim>32</dim>
					<dim>3</dim>
					<dim>3</dim>
				</port>
			</output>
		</layer>
		<layer id="310" name="/model.4/m.0/cv2/conv/Conv/WithoutBiases" type="Convolution" version="opset1">
			<data strides="1, 1" dilations="1, 1" pads_begin="1, 1" pads_end="1, 1" auto_pad="explicit" />
			<input>
				<port id="0" precision="FP32">
					<dim>1</dim>
					<dim>32</dim>
					<dim>80</dim>
					<dim>80</dim>
				</port>
				<port id="1" precision="FP32">
					<dim>32</dim>
					<dim>32</dim>
					<dim>3</dim>
					<dim>3</dim>
				</port>
			</input>
			<output>
				<port id="2" precision="FP32">
					<dim>1</dim>
					<dim>32</dim>
					<dim>80</dim>
					<dim>80</dim>
				</port>
			</output>
		</layer>
		<layer id="311" name="model.4.m.0.cv2.conv.bias_quantized" type="Const" version="opset1">
			<data element_type="i32" shape="32" offset="121976" size="128" />
			<output>
				<port id="0" precision="I32" names="model.4.m.0.cv2.conv.bias_quantized">
					<dim>32</dim>
				</port>
			</output>
		</layer>
		<layer id="312" name="Convert_1216" type="Convert" version="opset1">
			<data destination_type="f32" />
			<input>
				<port id="0" precision="I32">
					<dim>32</dim>
				</port>
			</input>
			<output>
				<port id="1" precision="FP32">
					<dim>32</dim>
				</port>
			</output>
		</layer>
		<layer id="313" name="model.4.m.0.cv2.conv.bias_quantized_scale" type="Const" version="opset1">
			<data element_type="f32" shape="1" offset="122104" size="4" />
			<output>
				<port id="0" precision="FP32" names="model.4.m.0.cv2.conv.bias_quantized_scale">
					<dim>1</dim>
				</port>
			</output>
		</layer>
		<layer id="314" name="model.4.m.0.cv2.conv.bias_DequantizeLinear" type="Multiply" version="opset1">
			<data auto_broadcast="numpy" />
			<input>
				<port id="0" precision="FP32">
					<dim>32</dim>
				</port>
				<port id="1" precision="FP32">
					<dim>1</dim>
				</port>
			</input>
			<output>
				<port id="2" precision="FP32" names="model.4.m.0.cv2.conv.bias">
					<dim>32</dim>
				</port>
			</output>
		</layer>
		<layer id="315" name="Concat_2003" type="Const" version="opset1">
			<data element_type="i64" shape="4" offset="72508" size="32" />
			<output>
				<port id="0" precision="I64">
					<dim>4</dim>
				</port>
			</output>
		</layer>
		<layer id="316" name="Reshape_2004" type="Reshape" version="opset1">
			<data special_zero="false" />
			<input>
				<port id="0" precision="FP32">
					<dim>32</dim>
				</port>
				<port id="1" precision="I64">
					<dim>4</dim>
				</port>
			</input>
			<output>
				<port id="2" precision="FP32">
					<dim>1</dim>
					<dim>32</dim>
					<dim>1</dim>
					<dim>1</dim>
				</port>
			</output>
		</layer>
		<layer id="317" name="/model.4/m.0/cv2/conv/Conv" type="Add" version="opset1">
			<data auto_broadcast="numpy" />
			<input>
				<port id="0" precision="FP32">
					<dim>1</dim>
					<dim>32</dim>
					<dim>80</dim>
					<dim>80</dim>
				</port>
				<port id="1" precision="FP32">
					<dim>1</dim>
					<dim>32</dim>
					<dim>1</dim>
					<dim>1</dim>
				</port>
			</input>
			<output>
				<port id="2" precision="FP32" names="/model.4/m.0/cv2/conv/Conv_output_0">
					<dim>1</dim>
					<dim>32</dim>
					<dim>80</dim>
					<dim>80</dim>
				</port>
			</output>
		</layer>
		<layer id="318" name="Constant_20546" type="Const" version="opset1">
			<data element_type="f32" shape="1, 1, 1, 1" offset="122108" size="4" />
			<output>
				<port id="0" precision="FP32">
					<dim>1</dim>
					<dim>1</dim>
					<dim>1</dim>
					<dim>1</dim>
				</port>
			</output>
		</layer>
		<layer id="319" name="Constant_20547" type="Const" version="opset1">
			<data element_type="f32" shape="1, 1, 1, 1" offset="122112" size="4" />
			<output>
				<port id="0" precision="FP32">
					<dim>1</dim>
					<dim>1</dim>
					<dim>1</dim>
					<dim>1</dim>
				</port>
			</output>
		</layer>
		<layer id="320" name="Constant_20548" type="Const" version="opset1">
			<data element_type="f32" shape="1, 1, 1, 1" offset="122108" size="4" />
			<output>
				<port id="0" precision="FP32">
					<dim>1</dim>
					<dim>1</dim>
					<dim>1</dim>
					<dim>1</dim>
				</port>
			</output>
		</layer>
		<layer id="321" name="Constant_20549" type="Const" version="opset1">
			<data element_type="f32" shape="1, 1, 1, 1" offset="122112" size="4" />
			<output>
				<port id="0" precision="FP32">
					<dim>1</dim>
					<dim>1</dim>
					<dim>1</dim>
					<dim>1</dim>
				</port>
			</output>
		</layer>
		<layer id="322" name="/model.4/m.0/cv2/conv/Conv_output_0_DequantizeLinear" type="FakeQuantize" version="opset1">
			<data levels="256" auto_broadcast="numpy" />
			<input>
				<port id="0" precision="FP32">
					<dim>1</dim>
					<dim>32</dim>
					<dim>80</dim>
					<dim>80</dim>
				</port>
				<port id="1" precision="FP32">
					<dim>1</dim>
					<dim>1</dim>
					<dim>1</dim>
					<dim>1</dim>
				</port>
				<port id="2" precision="FP32">
					<dim>1</dim>
					<dim>1</dim>
					<dim>1</dim>
					<dim>1</dim>
				</port>
				<port id="3" precision="FP32">
					<dim>1</dim>
					<dim>1</dim>
					<dim>1</dim>
					<dim>1</dim>
				</port>
				<port id="4" precision="FP32">
					<dim>1</dim>
					<dim>1</dim>
					<dim>1</dim>
					<dim>1</dim>
				</port>
			</input>
			<output>
				<port id="5" precision="FP32" names="/model.4/m.0/cv2/conv/Conv_output_0_DequantizeLinear_Output">
					<dim>1</dim>
					<dim>32</dim>
					<dim>80</dim>
					<dim>80</dim>
				</port>
			</output>
		</layer>
		<layer id="323" name="/model.4/m.0/cv2/act/Sigmoid" type="Sigmoid" version="opset1">
			<input>
				<port id="0" precision="FP32">
					<dim>1</dim>
					<dim>32</dim>
					<dim>80</dim>
					<dim>80</dim>
				</port>
			</input>
			<output>
				<port id="1" precision="FP32" names="/model.4/m.0/cv2/act/Sigmoid_output_0">
					<dim>1</dim>
					<dim>32</dim>
					<dim>80</dim>
					<dim>80</dim>
				</port>
			</output>
		</layer>
		<layer id="324" name="Constant_20550" type="Const" version="opset1">
			<data element_type="f32" shape="1, 1, 1, 1" offset="67200" size="4" />
			<output>
				<port id="0" precision="FP32">
					<dim>1</dim>
					<dim>1</dim>
					<dim>1</dim>
					<dim>1</dim>
				</port>
			</output>
		</layer>
		<layer id="325" name="Constant_20551" type="Const" version="opset1">
			<data element_type="f32" shape="1, 1, 1, 1" offset="122116" size="4" />
			<output>
				<port id="0" precision="FP32">
					<dim>1</dim>
					<dim>1</dim>
					<dim>1</dim>
					<dim>1</dim>
				</port>
			</output>
		</layer>
		<layer id="326" name="Constant_20552" type="Const" version="opset1">
			<data element_type="f32" shape="1, 1, 1, 1" offset="67200" size="4" />
			<output>
				<port id="0" precision="FP32">
					<dim>1</dim>
					<dim>1</dim>
					<dim>1</dim>
					<dim>1</dim>
				</port>
			</output>
		</layer>
		<layer id="327" name="Constant_20553" type="Const" version="opset1">
			<data element_type="f32" shape="1, 1, 1, 1" offset="122116" size="4" />
			<output>
				<port id="0" precision="FP32">
					<dim>1</dim>
					<dim>1</dim>
					<dim>1</dim>
					<dim>1</dim>
				</port>
			</output>
		</layer>
		<layer id="328" name="/model.4/m.0/cv2/act/Sigmoid_output_0_DequantizeLinear" type="FakeQuantize" version="opset1">
			<data levels="256" auto_broadcast="numpy" />
			<input>
				<port id="0" precision="FP32">
					<dim>1</dim>
					<dim>32</dim>
					<dim>80</dim>
					<dim>80</dim>
				</port>
				<port id="1" precision="FP32">
					<dim>1</dim>
					<dim>1</dim>
					<dim>1</dim>
					<dim>1</dim>
				</port>
				<port id="2" precision="FP32">
					<dim>1</dim>
					<dim>1</dim>
					<dim>1</dim>
					<dim>1</dim>
				</port>
				<port id="3" precision="FP32">
					<dim>1</dim>
					<dim>1</dim>
					<dim>1</dim>
					<dim>1</dim>
				</port>
				<port id="4" precision="FP32">
					<dim>1</dim>
					<dim>1</dim>
					<dim>1</dim>
					<dim>1</dim>
				</port>
			</input>
			<output>
				<port id="5" precision="FP32" names="/model.4/m.0/cv2/act/Sigmoid_output_0_DequantizeLinear_Output">
					<dim>1</dim>
					<dim>32</dim>
					<dim>80</dim>
					<dim>80</dim>
				</port>
			</output>
		</layer>
		<layer id="329" name="/model.4/m.0/cv2/act/Mul" type="Multiply" version="opset1">
			<data auto_broadcast="numpy" />
			<input>
				<port id="0" precision="FP32">
					<dim>1</dim>
					<dim>32</dim>
					<dim>80</dim>
					<dim>80</dim>
				</port>
				<port id="1" precision="FP32">
					<dim>1</dim>
					<dim>32</dim>
					<dim>80</dim>
					<dim>80</dim>
				</port>
			</input>
			<output>
				<port id="2" precision="FP32" names="/model.4/m.0/cv2/act/Mul_output_0">
					<dim>1</dim>
					<dim>32</dim>
					<dim>80</dim>
					<dim>80</dim>
				</port>
			</output>
		</layer>
		<layer id="330" name="Constant_20554" type="Const" version="opset1">
			<data element_type="f32" shape="1, 1, 1, 1" offset="122120" size="4" />
			<output>
				<port id="0" precision="FP32">
					<dim>1</dim>
					<dim>1</dim>
					<dim>1</dim>
					<dim>1</dim>
				</port>
			</output>
		</layer>
		<layer id="331" name="Constant_20555" type="Const" version="opset1">
			<data element_type="f32" shape="1, 1, 1, 1" offset="122124" size="4" />
			<output>
				<port id="0" precision="FP32">
					<dim>1</dim>
					<dim>1</dim>
					<dim>1</dim>
					<dim>1</dim>
				</port>
			</output>
		</layer>
		<layer id="332" name="Constant_20556" type="Const" version="opset1">
			<data element_type="f32" shape="1, 1, 1, 1" offset="122120" size="4" />
			<output>
				<port id="0" precision="FP32">
					<dim>1</dim>
					<dim>1</dim>
					<dim>1</dim>
					<dim>1</dim>
				</port>
			</output>
		</layer>
		<layer id="333" name="Constant_20557" type="Const" version="opset1">
			<data element_type="f32" shape="1, 1, 1, 1" offset="122124" size="4" />
			<output>
				<port id="0" precision="FP32">
					<dim>1</dim>
					<dim>1</dim>
					<dim>1</dim>
					<dim>1</dim>
				</port>
			</output>
		</layer>
		<layer id="334" name="/model.4/m.0/cv2/act/Mul_output_0_DequantizeLinear" type="FakeQuantize" version="opset1">
			<data levels="256" auto_broadcast="numpy" />
			<input>
				<port id="0" precision="FP32">
					<dim>1</dim>
					<dim>32</dim>
					<dim>80</dim>
					<dim>80</dim>
				</port>
				<port id="1" precision="FP32">
					<dim>1</dim>
					<dim>1</dim>
					<dim>1</dim>
					<dim>1</dim>
				</port>
				<port id="2" precision="FP32">
					<dim>1</dim>
					<dim>1</dim>
					<dim>1</dim>
					<dim>1</dim>
				</port>
				<port id="3" precision="FP32">
					<dim>1</dim>
					<dim>1</dim>
					<dim>1</dim>
					<dim>1</dim>
				</port>
				<port id="4" precision="FP32">
					<dim>1</dim>
					<dim>1</dim>
					<dim>1</dim>
					<dim>1</dim>
				</port>
			</input>
			<output>
				<port id="5" precision="FP32" names="/model.4/m.0/cv2/act/Mul_output_0_DequantizeLinear_Output">
					<dim>1</dim>
					<dim>32</dim>
					<dim>80</dim>
					<dim>80</dim>
				</port>
			</output>
		</layer>
		<layer id="335" name="/model.4/m.0/Add" type="Add" version="opset1">
			<data auto_broadcast="numpy" />
			<input>
				<port id="0" precision="FP32">
					<dim>1</dim>
					<dim>32</dim>
					<dim>80</dim>
					<dim>80</dim>
				</port>
				<port id="1" precision="FP32">
					<dim>1</dim>
					<dim>32</dim>
					<dim>80</dim>
					<dim>80</dim>
				</port>
			</input>
			<output>
				<port id="2" precision="FP32" names="/model.4/m.0/Add_output_0">
					<dim>1</dim>
					<dim>32</dim>
					<dim>80</dim>
					<dim>80</dim>
				</port>
			</output>
		</layer>
		<layer id="336" name="Constant_20558" type="Const" version="opset1">
			<data element_type="f32" shape="1, 1, 1, 1" offset="122128" size="4" />
			<output>
				<port id="0" precision="FP32">
					<dim>1</dim>
					<dim>1</dim>
					<dim>1</dim>
					<dim>1</dim>
				</port>
			</output>
		</layer>
		<layer id="337" name="Constant_20559" type="Const" version="opset1">
			<data element_type="f32" shape="1, 1, 1, 1" offset="122132" size="4" />
			<output>
				<port id="0" precision="FP32">
					<dim>1</dim>
					<dim>1</dim>
					<dim>1</dim>
					<dim>1</dim>
				</port>
			</output>
		</layer>
		<layer id="338" name="Constant_20560" type="Const" version="opset1">
			<data element_type="f32" shape="1, 1, 1, 1" offset="122128" size="4" />
			<output>
				<port id="0" precision="FP32">
					<dim>1</dim>
					<dim>1</dim>
					<dim>1</dim>
					<dim>1</dim>
				</port>
			</output>
		</layer>
		<layer id="339" name="Constant_20561" type="Const" version="opset1">
			<data element_type="f32" shape="1, 1, 1, 1" offset="122132" size="4" />
			<output>
				<port id="0" precision="FP32">
					<dim>1</dim>
					<dim>1</dim>
					<dim>1</dim>
					<dim>1</dim>
				</port>
			</output>
		</layer>
		<layer id="340" name="/model.4/m.0/Add_output_0_DequantizeLinear" type="FakeQuantize" version="opset1">
			<data levels="256" auto_broadcast="numpy" />
			<input>
				<port id="0" precision="FP32">
					<dim>1</dim>
					<dim>32</dim>
					<dim>80</dim>
					<dim>80</dim>
				</port>
				<port id="1" precision="FP32">
					<dim>1</dim>
					<dim>1</dim>
					<dim>1</dim>
					<dim>1</dim>
				</port>
				<port id="2" precision="FP32">
					<dim>1</dim>
					<dim>1</dim>
					<dim>1</dim>
					<dim>1</dim>
				</port>
				<port id="3" precision="FP32">
					<dim>1</dim>
					<dim>1</dim>
					<dim>1</dim>
					<dim>1</dim>
				</port>
				<port id="4" precision="FP32">
					<dim>1</dim>
					<dim>1</dim>
					<dim>1</dim>
					<dim>1</dim>
				</port>
			</input>
			<output>
				<port id="5" precision="FP32" names="/model.4/m.0/Add_output_0_DequantizeLinear_Output">
					<dim>1</dim>
					<dim>32</dim>
					<dim>80</dim>
					<dim>80</dim>
				</port>
			</output>
		</layer>
		<layer id="341" name="model.4.m.1.cv1.conv.weight_quantized" type="Const" version="opset1">
			<data element_type="i8" shape="32, 32, 3, 3" offset="122136" size="9216" />
			<output>
				<port id="0" precision="I8" names="model.4.m.1.cv1.conv.weight_quantized">
					<dim>32</dim>
					<dim>32</dim>
					<dim>3</dim>
					<dim>3</dim>
				</port>
			</output>
		</layer>
		<layer id="342" name="Convert_1228" type="Convert" version="opset1">
			<data destination_type="f32" />
			<input>
				<port id="0" precision="I8">
					<dim>32</dim>
					<dim>32</dim>
					<dim>3</dim>
					<dim>3</dim>
				</port>
			</input>
			<output>
				<port id="1" precision="FP32">
					<dim>32</dim>
					<dim>32</dim>
					<dim>3</dim>
					<dim>3</dim>
				</port>
			</output>
		</layer>
		<layer id="343" name="Constant_20562" type="Const" version="opset1">
			<data element_type="f32" shape="1, 1, 1, 1" offset="131352" size="4" />
			<output>
				<port id="0" precision="FP32">
					<dim>1</dim>
					<dim>1</dim>
					<dim>1</dim>
					<dim>1</dim>
				</port>
			</output>
		</layer>
		<layer id="344" name="model.4.m.1.cv1.conv.weight_DequantizeLinear" type="Multiply" version="opset1">
			<data auto_broadcast="numpy" />
			<input>
				<port id="0" precision="FP32">
					<dim>32</dim>
					<dim>32</dim>
					<dim>3</dim>
					<dim>3</dim>
				</port>
				<port id="1" precision="FP32">
					<dim>1</dim>
					<dim>1</dim>
					<dim>1</dim>
					<dim>1</dim>
				</port>
			</input>
			<output>
				<port id="2" precision="FP32" names="model.4.m.1.cv1.conv.weight_DequantizeLinear_Output">
					<dim>32</dim>
					<dim>32</dim>
					<dim>3</dim>
					<dim>3</dim>
				</port>
			</output>
		</layer>
		<layer id="345" name="/model.4/m.1/cv1/conv/Conv/WithoutBiases" type="Convolution" version="opset1">
			<data strides="1, 1" dilations="1, 1" pads_begin="1, 1" pads_end="1, 1" auto_pad="explicit" />
			<input>
				<port id="0" precision="FP32">
					<dim>1</dim>
					<dim>32</dim>
					<dim>80</dim>
					<dim>80</dim>
				</port>
				<port id="1" precision="FP32">
					<dim>32</dim>
					<dim>32</dim>
					<dim>3</dim>
					<dim>3</dim>
				</port>
			</input>
			<output>
				<port id="2" precision="FP32">
					<dim>1</dim>
					<dim>32</dim>
					<dim>80</dim>
					<dim>80</dim>
				</port>
			</output>
		</layer>
		<layer id="346" name="model.4.m.1.cv1.conv.bias_quantized" type="Const" version="opset1">
			<data element_type="i32" shape="32" offset="131356" size="128" />
			<output>
				<port id="0" precision="I32" names="model.4.m.1.cv1.conv.bias_quantized">
					<dim>32</dim>
				</port>
			</output>
		</layer>
		<layer id="347" name="Convert_1224" type="Convert" version="opset1">
			<data destination_type="f32" />
			<input>
				<port id="0" precision="I32">
					<dim>32</dim>
				</port>
			</input>
			<output>
				<port id="1" precision="FP32">
					<dim>32</dim>
				</port>
			</output>
		</layer>
…
		<edge from-layer="1544" from-port="0" to-layer="1547" to-port="2" />
		<edge from-layer="1545" from-port="0" to-layer="1547" to-port="3" />
		<edge from-layer="1546" from-port="0" to-layer="1547" to-port="4" />
		<edge from-layer="1547" from-port="5" to-layer="1548" to-port="1" />
		<edge from-layer="1548" from-port="2" to-layer="1553" to-port="0" />
		<edge from-layer="1549" from-port="0" to-layer="1553" to-port="1" />
		<edge from-layer="1550" from-port="0" to-layer="1553" to-port="2" />
		<edge from-layer="1551" from-port="0" to-layer="1553" to-port="3" />
		<edge from-layer="1552" from-port="0" to-layer="1553" to-port="4" />
		<edge from-layer="1553" from-port="5" to-layer="1558" to-port="0" />
		<edge from-layer="1553" from-port="5" to-layer="1720" to-port="0" />
		<edge from-layer="1553" from-port="5" to-layer="1633" to-port="0" />
		<edge from-layer="1554" from-port="0" to-layer="1555" to-port="0" />
		<edge from-layer="1555" from-port="1" to-layer="1557" to-port="0" />
		<edge from-layer="1556" from-port="0" to-layer="1557" to-port="1" />
		<edge from-layer="1557" from-port="2" to-layer="1558" to-port="1" />
		<edge from-layer="1558" from-port="2" to-layer="1565" to-port="0" />
		<edge from-layer="1559" from-port="0" to-layer="1560" to-port="0" />
		<edge from-layer="1560" from-port="1" to-layer="1562" to-port="0" />
		<edge from-layer="1561" from-port="0" to-layer="1562" to-port="1" />
		<edge from-layer="1562" from-port="2" to-layer="1564" to-port="0" />
		<edge from-layer="1563" from-port="0" to-layer="1564" to-port="1" />
		<edge from-layer="1564" from-port="2" to-layer="1565" to-port="1" />
		<edge from-layer="1565" from-port="2" to-layer="1570" to-port="0" />
		<edge from-layer="1566" from-port="0" to-layer="1570" to-port="1" />
		<edge from-layer="1567" from-port="0" to-layer="1570" to-port="2" />
		<edge from-layer="1568" from-port="0" to-layer="1570" to-port="3" />
		<edge from-layer="1569" from-port="0" to-layer="1570" to-port="4" />
		<edge from-layer="1570" from-port="5" to-layer="1571" to-port="0" />
		<edge from-layer="1570" from-port="5" to-layer="1577" to-port="0" />
		<edge from-layer="1571" from-port="1" to-layer="1576" to-port="0" />
		<edge from-layer="1572" from-port="0" to-layer="1576" to-port="1" />
		<edge from-layer="1573" from-port="0" to-layer="1576" to-port="2" />
		<edge from-layer="1574" from-port="0" to-layer="1576" to-port="3" />
		<edge from-layer="1575" from-port="0" to-layer="1576" to-port="4" />
		<edge from-layer="1576" from-port="5" to-layer="1577" to-port="1" />
		<edge from-layer="1577" from-port="2" to-layer="1582" to-port="0" />
		<edge from-layer="1578" from-port="0" to-layer="1582" to-port="1" />
		<edge from-layer="1579" from-port="0" to-layer="1582" to-port="2" />
		<edge from-layer="1580" from-port="0" to-layer="1582" to-port="3" />
		<edge from-layer="1581" from-port="0" to-layer="1582" to-port="4" />
		<edge from-layer="1582" from-port="5" to-layer="1587" to-port="0" />
		<edge from-layer="1583" from-port="0" to-layer="1584" to-port="0" />
		<edge from-layer="1584" from-port="1" to-layer="1586" to-port="0" />
		<edge from-layer="1585" from-port="0" to-layer="1586" to-port="1" />
		<edge from-layer="1586" from-port="2" to-layer="1587" to-port="1" />
		<edge from-layer="1587" from-port="2" to-layer="1594" to-port="0" />
		<edge from-layer="1588" from-port="0" to-layer="1589" to-port="0" />
		<edge from-layer="1589" from-port="1" to-layer="1591" to-port="0" />
		<edge from-layer="1590" from-port="0" to-layer="1591" to-port="1" />
		<edge from-layer="1591" from-port="2" to-layer="1593" to-port="0" />
		<edge from-layer="1592" from-port="0" to-layer="1593" to-port="1" />
		<edge from-layer="1593" from-port="2" to-layer="1594" to-port="1" />
		<edge from-layer="1594" from-port="2" to-layer="1599" to-port="0" />
		<edge from-layer="1595" from-port="0" to-layer="1599" to-port="1" />
		<edge from-layer="1596" from-port="0" to-layer="1599" to-port="2" />
		<edge from-layer="1597" from-port="0" to-layer="1599" to-port="3" />
		<edge from-layer="1598" from-port="0" to-layer="1599" to-port="4" />
		<edge from-layer="1599" from-port="5" to-layer="1606" to-port="0" />
		<edge from-layer="1599" from-port="5" to-layer="1600" to-port="0" />
		<edge from-layer="1600" from-port="1" to-layer="1605" to-port="0" />
		<edge from-layer="1601" from-port="0" to-layer="1605" to-port="1" />
		<edge from-layer="1602" from-port="0" to-layer="1605" to-port="2" />
		<edge from-layer="1603" from-port="0" to-layer="1605" to-port="3" />
		<edge from-layer="1604" from-port="0" to-layer="1605" to-port="4" />
		<edge from-layer="1605" from-port="5" to-layer="1606" to-port="1" />
		<edge from-layer="1606" from-port="2" to-layer="1611" to-port="0" />
		<edge from-layer="1607" from-port="0" to-layer="1611" to-port="1" />
		<edge from-layer="1608" from-port="0" to-layer="1611" to-port="2" />
		<edge from-layer="1609" from-port="0" to-layer="1611" to-port="3" />
		<edge from-layer="1610" from-port="0" to-layer="1611" to-port="4" />
		<edge from-layer="1611" from-port="5" to-layer="1616" to-port="0" />
		<edge from-layer="1612" from-port="0" to-layer="1613" to-port="0" />
		<edge from-layer="1613" from-port="1" to-layer="1615" to-port="0" />
		<edge from-layer="1614" from-port="0" to-layer="1615" to-port="1" />
		<edge from-layer="1615" from-port="2" to-layer="1616" to-port="1" />
		<edge from-layer="1616" from-port="2" to-layer="1623" to-port="0" />
		<edge from-layer="1617" from-port="0" to-layer="1618" to-port="0" />
		<edge from-layer="1618" from-port="1" to-layer="1620" to-port="0" />
		<edge from-layer="1619" from-port="0" to-layer="1620" to-port="1" />
		<edge from-layer="1620" from-port="2" to-layer="1622" to-port="0" />
		<edge from-layer="1621" from-port="0" to-layer="1622" to-port="1" />
		<edge from-layer="1622" from-port="2" to-layer="1623" to-port="1" />
		<edge from-layer="1623" from-port="2" to-layer="1628" to-port="0" />
		<edge from-layer="1624" from-port="0" to-layer="1628" to-port="1" />
		<edge from-layer="1625" from-port="0" to-layer="1628" to-port="2" />
		<edge from-layer="1626" from-port="0" to-layer="1628" to-port="3" />
		<edge from-layer="1627" from-port="0" to-layer="1628" to-port="4" />
		<edge from-layer="1628" from-port="5" to-layer="1704" to-port="0" />
		<edge from-layer="1629" from-port="0" to-layer="1630" to-port="0" />
		<edge from-layer="1630" from-port="1" to-layer="1632" to-port="0" />
		<edge from-layer="1631" from-port="0" to-layer="1632" to-port="1" />
		<edge from-layer="1632" from-port="2" to-layer="1633" to-port="1" />
		<edge from-layer="1633" from-port="2" to-layer="1640" to-port="0" />
		<edge from-layer="1634" from-port="0" to-layer="1635" to-port="0" />
		<edge from-layer="1635" from-port="1" to-layer="1637" to-port="0" />
		<edge from-layer="1636" from-port="0" to-layer="1637" to-port="1" />
		<edge from-layer="1637" from-port="2" to-layer="1639" to-port="0" />
		<edge from-layer="1638" from-port="0" to-layer="1639" to-port="1" />
		<edge from-layer="1639" from-port="2" to-layer="1640" to-port="1" />
		<edge from-layer="1640" from-port="2" to-layer="1645" to-port="0" />
		<edge from-layer="1641" from-port="0" to-layer="1645" to-port="1" />
		<edge from-layer="1642" from-port="0" to-layer="1645" to-port="2" />
		<edge from-layer="1643" from-port="0" to-layer="1645" to-port="3" />
		<edge from-layer="1644" from-port="0" to-layer="1645" to-port="4" />
		<edge from-layer="1645" from-port="5" to-layer="1646" to-port="0" />
		<edge from-layer="1645" from-port="5" to-layer="1652" to-port="0" />
		<edge from-layer="1646" from-port="1" to-layer="1651" to-port="0" />
		<edge from-layer="1647" from-port="0" to-layer="1651" to-port="1" />
		<edge from-layer="1648" from-port="0" to-layer="1651" to-port="2" />
		<edge from-layer="1649" from-port="0" to-layer="1651" to-port="3" />
		<edge from-layer="1650" from-port="0" to-layer="1651" to-port="4" />
		<edge from-layer="1651" from-port="5" to-layer="1652" to-port="1" />
		<edge from-layer="1652" from-port="2" to-layer="1657" to-port="0" />
		<edge from-layer="1653" from-port="0" to-layer="1657" to-port="1" />
		<edge from-layer="1654" from-port="0" to-layer="1657" to-port="2" />
		<edge from-layer="1655" from-port="0" to-layer="1657" to-port="3" />
		<edge from-layer="1656" from-port="0" to-layer="1657" to-port="4" />
		<edge from-layer="1657" from-port="5" to-layer="1662" to-port="0" />
		<edge from-layer="1658" from-port="0" to-layer="1659" to-port="0" />
		<edge from-layer="1659" from-port="1" to-layer="1661" to-port="0" />
		<edge from-layer="1660" from-port="0" to-layer="1661" to-port="1" />
		<edge from-layer="1661" from-port="2" to-layer="1662" to-port="1" />
		<edge from-layer="1662" from-port="2" to-layer="1669" to-port="0" />
		<edge from-layer="1663" from-port="0" to-layer="1664" to-port="0" />
		<edge from-layer="1664" from-port="1" to-layer="1666" to-port="0" />
		<edge from-layer="1665" from-port="0" to-layer="1666" to-port="1" />
		<edge from-layer="1666" from-port="2" to-layer="1668" to-port="0" />
		<edge from-layer="1667" from-port="0" to-layer="1668" to-port="1" />
		<edge from-layer="1668" from-port="2" to-layer="1669" to-port="1" />
		<edge from-layer="1669" from-port="2" to-layer="1674" to-port="0" />
		<edge from-layer="1670" from-port="0" to-layer="1674" to-port="1" />
		<edge from-layer="1671" from-port="0" to-layer="1674" to-port="2" />
		<edge from-layer="1672" from-port="0" to-layer="1674" to-port="3" />
		<edge from-layer="1673" from-port="0" to-layer="1674" to-port="4" />
		<edge from-layer="1674" from-port="5" to-layer="1675" to-port="0" />
		<edge from-layer="1674" from-port="5" to-layer="1681" to-port="0" />
		<edge from-layer="1675" from-port="1" to-layer="1680" to-port="0" />
		<edge from-layer="1676" from-port="0" to-layer="1680" to-port="1" />
		<edge from-layer="1677" from-port="0" to-layer="1680" to-port="2" />
		<edge from-layer="1678" from-port="0" to-layer="1680" to-port="3" />
		<edge from-layer="1679" from-port="0" to-layer="1680" to-port="4" />
		<edge from-layer="1680" from-port="5" to-layer="1681" to-port="1" />
		<edge from-layer="1681" from-port="2" to-layer="1686" to-port="0" />
		<edge from-layer="1682" from-port="0" to-layer="1686" to-port="1" />
		<edge from-layer="1683" from-port="0" to-layer="1686" to-port="2" />
		<edge from-layer="1684" from-port="0" to-layer="1686" to-port="3" />
		<edge from-layer="1685" from-port="0" to-layer="1686" to-port="4" />
		<edge from-layer="1686" from-port="5" to-layer="1691" to-port="0" />
		<edge from-layer="1687" from-port="0" to-layer="1688" to-port="0" />
		<edge from-layer="1688" from-port="1" to-layer="1690" to-port="0" />
		<edge from-layer="1689" from-port="0" to-layer="1690" to-port="1" />
		<edge from-layer="1690" from-port="2" to-layer="1691" to-port="1" />
		<edge from-layer="1691" from-port="2" to-layer="1698" to-port="0" />
		<edge from-layer="1692" from-port="0" to-layer="1693" to-port="0" />
		<edge from-layer="1693" from-port="1" to-layer="1695" to-port="0" />
		<edge from-layer="1694" from-port="0" to-layer="1695" to-port="1" />
		<edge from-layer="1695" from-port="2" to-layer="1697" to-port="0" />
		<edge from-layer="1696" from-port="0" to-layer="1697" to-port="1" />
		<edge from-layer="1697" from-port="2" to-layer="1698" to-port="1" />
		<edge from-layer="1698" from-port="2" to-layer="1703" to-port="0" />
		<edge from-layer="1699" from-port="0" to-layer="1703" to-port="1" />
		<edge from-layer="1700" from-port="0" to-layer="1703" to-port="2" />
		<edge from-layer="1701" from-port="0" to-layer="1703" to-port="3" />
		<edge from-layer="1702" from-port="0" to-layer="1703" to-port="4" />
		<edge from-layer="1703" from-port="5" to-layer="1704" to-port="1" />
		<edge from-layer="1704" from-port="2" to-layer="1709" to-port="0" />
		<edge from-layer="1705" from-port="0" to-layer="1709" to-port="1" />
		<edge from-layer="1706" from-port="0" to-layer="1709" to-port="2" />
		<edge from-layer="1707" from-port="0" to-layer="1709" to-port="3" />
		<edge from-layer="1708" from-port="0" to-layer="1709" to-port="4" />
		<edge from-layer="1709" from-port="5" to-layer="1710" to-port="0" />
		<edge from-layer="1710" from-port="2" to-layer="1715" to-port="0" />
		<edge from-layer="1711" from-port="0" to-layer="1715" to-port="1" />
		<edge from-layer="1712" from-port="0" to-layer="1715" to-port="2" />
		<edge from-layer="1713" from-port="0" to-layer="1715" to-port="3" />
		<edge from-layer="1714" from-port="0" to-layer="1715" to-port="4" />
		<edge from-layer="1715" from-port="5" to-layer="2048" to-port="1" />
		<edge from-layer="1716" from-port="0" to-layer="1717" to-port="0" />
		<edge from-layer="1717" from-port="1" to-layer="1719" to-port="0" />
		<edge from-layer="1718" from-port="0" to-layer="1719" to-port="1" />
		<edge from-layer="1719" from-port="2" to-layer="1720" to-port="1" />
		<edge from-layer="1720" from-port="2" to-layer="1727" to-port="0" />
		<edge from-layer="1721" from-port="0" to-layer="1722" to-port="0" />
		<edge from-layer="1722" from-port="1" to-layer="1724" to-port="0" />
		<edge from-layer="1723" from-port="0" to-layer="1724" to-port="1" />
		<edge from-layer="1724" from-port="2" to-layer="1726" to-port="0" />
		<edge from-layer="1725" from-port="0" to-layer="1726" to-port="1" />
		<edge from-layer="1726" from-port="2" to-layer="1727" to-port="1" />
		<edge from-layer="1727" from-port="2" to-layer="1732" to-port="0" />
		<edge from-layer="1728" from-port="0" to-layer="1732" to-port="1" />
		<edge from-layer="1729" from-port="0" to-layer="1732" to-port="2" />
		<edge from-layer="1730" from-port="0" to-layer="1732" to-port="3" />
		<edge from-layer="1731" from-port="0" to-layer="1732" to-port="4" />
		<edge from-layer="1732" from-port="5" to-layer="1739" to-port="0" />
		<edge from-layer="1732" from-port="5" to-layer="1733" to-port="0" />
		<edge from-layer="1733" from-port="1" to-layer="1738" to-port="0" />
		<edge from-layer="1734" from-port="0" to-layer="1738" to-port="1" />
		<edge from-layer="1735" from-port="0" to-layer="1738" to-port="2" />
		<edge from-layer="1736" from-port="0" to-layer="1738" to-port="3" />
		<edge from-layer="1737" from-port="0" to-layer="1738" to-port="4" />
		<edge from-layer="1738" from-port="5" to-layer="1739" to-port="1" />
		<edge from-layer="1739" from-port="2" to-layer="1744" to-port="0" />
		<edge from-layer="1740" from-port="0" to-layer="1744" to-port="1" />
		<edge from-layer="1741" from-port="0" to-layer="1744" to-port="2" />
		<edge from-layer="1742" from-port="0" to-layer="1744" to-port="3" />
		<edge from-layer="1743" from-port="0" to-layer="1744" to-port="4" />
		<edge from-layer="1744" from-port="5" to-layer="1745" to-port="0" />
		<edge from-layer="1745" from-port="2" to-layer="1750" to-port="0" />
		<edge from-layer="1746" from-port="0" to-layer="1750" to-port="1" />
		<edge from-layer="1747" from-port="0" to-layer="1750" to-port="2" />
		<edge from-layer="1748" from-port="0" to-layer="1750" to-port="3" />
		<edge from-layer="1749" from-port="0" to-layer="1750" to-port="4" />
		<edge from-layer="1750" from-port="5" to-layer="1755" to-port="0" />
		<edge from-layer="1751" from-port="0" to-layer="1752" to-port="0" />
		<edge from-layer="1752" from-port="1" to-layer="1754" to-port="0" />
		<edge from-layer="1753" from-port="0" to-layer="1754" to-port="1" />
		<edge from-layer="1754" from-port="2" to-layer="1755" to-port="1" />
		<edge from-layer="1755" from-port="2" to-layer="1762" to-port="0" />
		<edge from-layer="1756" from-port="0" to-layer="1757" to-port="0" />
		<edge from-layer="1757" from-port="1" to-layer="1759" to-port="0" />
		<edge from-layer="1758" from-port="0" to-layer="1759" to-port="1" />
		<edge from-layer="1759" from-port="2" to-layer="1761" to-port="0" />
		<edge from-layer="1760" from-port="0" to-layer="1761" to-port="1" />
		<edge from-layer="1761" from-port="2" to-layer="1762" to-port="1" />
		<edge from-layer="1762" from-port="2" to-layer="1767" to-port="0" />
		<edge from-layer="1763" from-port="0" to-layer="1767" to-port="1" />
		<edge from-layer="1764" from-port="0" to-layer="1767" to-port="2" />
		<edge from-layer="1765" from-port="0" to-layer="1767" to-port="3" />
		<edge from-layer="1766" from-port="0" to-layer="1767" to-port="4" />
		<edge from-layer="1767" from-port="5" to-layer="1768" to-port="0" />
		<edge from-layer="1767" from-port="5" to-layer="1774" to-port="0" />
		<edge from-layer="1768" from-port="1" to-layer="1773" to-port="0" />
		<edge from-layer="1769" from-port="0" to-layer="1773" to-port="1" />
		<edge from-layer="1770" from-port="0" to-layer="1773" to-port="2" />
		<edge from-layer="1771" from-port="0" to-layer="1773" to-port="3" />
		<edge from-layer="1772" from-port="0" to-layer="1773" to-port="4" />
		<edge from-layer="1773" from-port="5" to-layer="1774" to-port="1" />
		<edge from-layer="1774" from-port="2" to-layer="1779" to-port="0" />
		<edge from-layer="1775" from-port="0" to-layer="1779" to-port="1" />
		<edge from-layer="1776" from-port="0" to-layer="1779" to-port="2" />
		<edge from-layer="1777" from-port="0" to-layer="1779" to-port="3" />
		<edge from-layer="1778" from-port="0" to-layer="1779" to-port="4" />
		<edge from-layer="1779" from-port="5" to-layer="1782" to-port="0" />
		<edge from-layer="1780" from-port="0" to-layer="1782" to-port="1" />
		<edge from-layer="1781" from-port="0" to-layer="1782" to-port="2" />
		<edge from-layer="1782" from-port="4" to-layer="1792" to-port="0" />
		<edge from-layer="1782" from-port="3" to-layer="1787" to-port="0" />
		<edge from-layer="1783" from-port="0" to-layer="1787" to-port="1" />
		<edge from-layer="1784" from-port="0" to-layer="1787" to-port="2" />
		<edge from-layer="1785" from-port="0" to-layer="1787" to-port="3" />
		<edge from-layer="1786" from-port="0" to-layer="1787" to-port="4" />
		<edge from-layer="1787" from-port="5" to-layer="1851" to-port="0" />
		<edge from-layer="1788" from-port="0" to-layer="1792" to-port="1" />
		<edge from-layer="1789" from-port="0" to-layer="1792" to-port="2" />
		<edge from-layer="1790" from-port="0" to-layer="1792" to-port="3" />
		<edge from-layer="1791" from-port="0" to-layer="1792" to-port="4" />
		<edge from-layer="1792" from-port="5" to-layer="1797" to-port="0" />
		<edge from-layer="1792" from-port="5" to-layer="1851" to-port="1" />
		<edge from-layer="1793" from-port="0" to-layer="1794" to-port="0" />
		<edge from-layer="1794" from-port="1" to-layer="1796" to-port="0" />
		<edge from-layer="1795" from-port="0" to-layer="1796" to-port="1" />
		<edge from-layer="1796" from-port="2" to-layer="1797" to-port="1" />
		<edge from-layer="1797" from-port="2" to-layer="1804" to-port="0" />
		<edge from-layer="1798" from-port="0" to-layer="1799" to-port="0" />
		<edge from-layer="1799" from-port="1" to-layer="1801" to-port="0" />
		<edge from-layer="1800" from-port="0" to-layer="1801" to-port="1" />
		<edge from-layer="1801" from-port="2" to-layer="1803" to-port="0" />
		<edge from-layer="1802" from-port="0" to-layer="1803" to-port="1" />
		<edge from-layer="1803" from-port="2" to-layer="1804" to-port="1" />
		<edge from-layer="1804" from-port="2" to-layer="1809" to-port="0" />
		<edge from-layer="1805" from-port="0" to-layer="1809" to-port="1" />
		<edge from-layer="1806" from-port="0" to-layer="1809" to-port="2" />
		<edge from-layer="1807" from-port="0" to-layer="1809" to-port="3" />
		<edge from-layer="1808" from-port="0" to-layer="1809" to-port="4" />
		<edge from-layer="1809" from-port="5" to-layer="1810" to-port="0" />
		<edge from-layer="1809" from-port="5" to-layer="1816" to-port="0" />
		<edge from-layer="1810" from-port="1" to-layer="1815" to-port="0" />
		<edge from-layer="1811" from-port="0" to-layer="1815" to-port="1" />
		<edge from-layer="1812" from-port="0" to-layer="1815" to-port="2" />
		<edge from-layer="1813" from-port="0" to-layer="1815" to-port="3" />
		<edge from-layer="1814" from-port="0" to-layer="1815" to-port="4" />
		<edge from-layer="1815" from-port="5" to-layer="1816" to-port="1" />
		<edge from-layer="1816" from-port="2" to-layer="1821" to-port="0" />
		<edge from-layer="1817" from-port="0" to-layer="1821" to-port="1" />
		<edge from-layer="1818" from-port="0" to-layer="1821" to-port="2" />
		<edge from-layer="1819" from-port="0" to-layer="1821" to-port="3" />
		<edge from-layer="1820" from-port="0" to-layer="1821" to-port="4" />
		<edge from-layer="1821" from-port="5" to-layer="1826" to-port="0" />
		<edge from-layer="1822" from-port="0" to-layer="1823" to-port="0" />
		<edge from-layer="1823" from-port="1" to-layer="1825" to-port="0" />
		<edge from-layer="1824" from-port="0" to-layer="1825" to-port="1" />
		<edge from-layer="1825" from-port="2" to-layer="1826" to-port="1" />
		<edge from-layer="1826" from-port="2" to-layer="1833" to-port="0" />
		<edge from-layer="1827" from-port="0" to-layer="1828" to-port="0" />
		<edge from-layer="1828" from-port="1" to-layer="1830" to-port="0" />
		<edge from-layer="1829" from-port="0" to-layer="1830" to-port="1" />
		<edge from-layer="1830" from-port="2" to-layer="1832" to-port="0" />
		<edge from-layer="1831" from-port="0" to-layer="1832" to-port="1" />
		<edge from-layer="1832" from-port="2" to-layer="1833" to-port="1" />
		<edge from-layer="1833" from-port="2" to-layer="1838" to-port="0" />
		<edge from-layer="1834" from-port="0" to-layer="1838" to-port="1" />
		<edge from-layer="1835" from-port="0" to-layer="1838" to-port="2" />
		<edge from-layer="1836" from-port="0" to-layer="1838" to-port="3" />
		<edge from-layer="1837" from-port="0" to-layer="1838" to-port="4" />
		<edge from-layer="1838" from-port="5" to-layer="1839" to-port="0" />
		<edge from-layer="1838" from-port="5" to-layer="1845" to-port="0" />
		<edge from-layer="1839" from-port="1" to-layer="1844" to-port="0" />
		<edge from-layer="1840" from-port="0" to-layer="1844" to-port="1" />
		<edge from-layer="1841" from-port="0" to-layer="1844" to-port="2" />
		<edge from-layer="1842" from-port="0" to-layer="1844" to-port="3" />
		<edge from-layer="1843" from-port="0" to-layer="1844" to-port="4" />
		<edge from-layer="1844" from-port="5" to-layer="1845" to-port="1" />
		<edge from-layer="1845" from-port="2" to-layer="1850" to-port="0" />
		<edge from-layer="1846" from-port="0" to-layer="1850" to-port="1" />
		<edge from-layer="1847" from-port="0" to-layer="1850" to-port="2" />
		<edge from-layer="1848" from-port="0" to-layer="1850" to-port="3" />
		<edge from-layer="1849" from-port="0" to-layer="1850" to-port="4" />
		<edge from-layer="1850" from-port="5" to-layer="1851" to-port="2" />
		<edge from-layer="1851" from-port="3" to-layer="1856" to-port="0" />
		<edge from-layer="1852" from-port="0" to-layer="1856" to-port="1" />
		<edge from-layer="1853" from-port="0" to-layer="1856" to-port="2" />
		<edge from-layer="1854" from-port="0" to-layer="1856" to-port="3" />
		<edge from-layer="1855" from-port="0" to-layer="1856" to-port="4" />
		<edge from-layer="1856" from-port="5" to-layer="1861" to-port="0" />
		<edge from-layer="1857" from-port="0" to-layer="1858" to-port="0" />
		<edge from-layer="1858" from-port="1" to-layer="1860" to-port="0" />
		<edge from-layer="1859" from-port="0" to-layer="1860" to-port="1" />
		<edge from-layer="1860" from-port="2" to-layer="1861" to-port="1" />
		<edge from-layer="1861" from-port="2" to-layer="1868" to-port="0" />
		<edge from-layer="1862" from-port="0" to-layer="1863" to-port="0" />
		<edge from-layer="1863" from-port="1" to-layer="1865" to-port="0" />
		<edge from-layer="1864" from-port="0" to-layer="1865" to-port="1" />
		<edge from-layer="1865" from-port="2" to-layer="1867" to-port="0" />
		<edge from-layer="1866" from-port="0" to-layer="1867" to-port="1" />
		<edge from-layer="1867" from-port="2" to-layer="1868" to-port="1" />
		<edge from-layer="1868" from-port="2" to-layer="1873" to-port="0" />
		<edge from-layer="1869" from-port="0" to-layer="1873" to-port="1" />
		<edge from-layer="1870" from-port="0" to-layer="1873" to-port="2" />
		<edge from-layer="1871" from-port="0" to-layer="1873" to-port="3" />
		<edge from-layer="1872" from-port="0" to-layer="1873" to-port="4" />
		<edge from-layer="1873" from-port="5" to-layer="1874" to-port="0" />
		<edge from-layer="1873" from-port="5" to-layer="1880" to-port="0" />
		<edge from-layer="1874" from-port="1" to-layer="1879" to-port="0" />
		<edge from-layer="1875" from-port="0" to-layer="1879" to-port="1" />
		<edge from-layer="1876" from-port="0" to-layer="1879" to-port="2" />
		<edge from-layer="1877" from-port="0" to-layer="1879" to-port="3" />
		<edge from-layer="1878" from-port="0" to-layer="1879" to-port="4" />
		<edge from-layer="1879" from-port="5" to-layer="1880" to-port="1" />
		<edge from-layer="1880" from-port="2" to-layer="1885" to-port="0" />
		<edge from-layer="1881" from-port="0" to-layer="1885" to-port="1" />
		<edge from-layer="1882" from-port="0" to-layer="1885" to-port="2" />
		<edge from-layer="1883" from-port="0" to-layer="1885" to-port="3" />
		<edge from-layer="1884" from-port="0" to-layer="1885" to-port="4" />
		<edge from-layer="1885" from-port="5" to-layer="1965" to-port="0" />
		<edge from-layer="1885" from-port="5" to-layer="1890" to-port="0" />
		<edge from-layer="1886" from-port="0" to-layer="1887" to-port="0" />
		<edge from-layer="1887" from-port="1" to-layer="1889" to-port="0" />
		<edge from-layer="1888" from-port="0" to-layer="1889" to-port="1" />
		<edge from-layer="1889" from-port="2" to-layer="1890" to-port="1" />
		<edge from-layer="1890" from-port="2" to-layer="1897" to-port="0" />
		<edge from-layer="1891" from-port="0" to-layer="1892" to-port="0" />
		<edge from-layer="1892" from-port="1" to-layer="1894" to-port="0" />
		<edge from-layer="1893" from-port="0" to-layer="1894" to-port="1" />
		<edge from-layer="1894" from-port="2" to-layer="1896" to-port="0" />
		<edge from-layer="1895" from-port="0" to-layer="1896" to-port="1" />
		<edge from-layer="1896" from-port="2" to-layer="1897" to-port="1" />
		<edge from-layer="1897" from-port="2" to-layer="1902" to-port="0" />
		<edge from-layer="1898" from-port="0" to-layer="1902" to-port="1" />
		<edge from-layer="1899" from-port="0" to-layer="1902" to-port="2" />
		<edge from-layer="1900" from-port="0" to-layer="1902" to-port="3" />
		<edge from-layer="1901" from-port="0" to-layer="1902" to-port="4" />
		<edge from-layer="1902" from-port="5" to-layer="1909" to-port="0" />
		<edge from-layer="1902" from-port="5" to-layer="1903" to-port="0" />
		<edge from-layer="1903" from-port="1" to-layer="1908" to-port="0" />
		<edge from-layer="1904" from-port="0" to-layer="1908" to-port="1" />
		<edge from-layer="1905" from-port="0" to-layer="1908" to-port="2" />
		<edge from-layer="1906" from-port="0" to-layer="1908" to-port="3" />
		<edge from-layer="1907" from-port="0" to-layer="1908" to-port="4" />
		<edge from-layer="1908" from-port="5" to-layer="1909" to-port="1" />
		<edge from-layer="1909" from-port="2" to-layer="1914" to-port="0" />
		<edge from-layer="1910" from-port="0" to-layer="1914" to-port="1" />
		<edge from-layer="1911" from-port="0" to-layer="1914" to-port="2" />
		<edge from-layer="1912" from-port="0" to-layer="1914" to-port="3" />
		<edge from-layer="1913" from-port="0" to-layer="1914" to-port="4" />
		<edge from-layer="1914" from-port="5" to-layer="1919" to-port="0" />
		<edge from-layer="1915" from-port="0" to-layer="1916" to-port="0" />
		<edge from-layer="1916" from-port="1" to-layer="1918" to-port="0" />
		<edge from-layer="1917" from-port="0" to-layer="1918" to-port="1" />
		<edge from-layer="1918" from-port="2" to-layer="1919" to-port="1" />
		<edge from-layer="1919" from-port="2" to-layer="1926" to-port="0" />
		<edge from-layer="1920" from-port="0" to-layer="1921" to-port="0" />
		<edge from-layer="1921" from-port="1" to-layer="1923" to-port="0" />
		<edge from-layer="1922" from-port="0" to-layer="1923" to-port="1" />
		<edge from-layer="1923" from-port="2" to-layer="1925" to-port="0" />
		<edge from-layer="1924" from-port="0" to-layer="1925" to-port="1" />
		<edge from-layer="1925" from-port="2" to-layer="1926" to-port="1" />
		<edge from-layer="1926" from-port="2" to-layer="1931" to-port="0" />
		<edge from-layer="1927" from-port="0" to-layer="1931" to-port="1" />
		<edge from-layer="1928" from-port="0" to-layer="1931" to-port="2" />
		<edge from-layer="1929" from-port="0" to-layer="1931" to-port="3" />
		<edge from-layer="1930" from-port="0" to-layer="1931" to-port="4" />
		<edge from-layer="1931" from-port="5" to-layer="1938" to-port="0" />
		<edge from-layer="1931" from-port="5" to-layer="1932" to-port="0" />
		<edge from-layer="1932" from-port="1" to-layer="1937" to-port="0" />
		<edge from-layer="1933" from-port="0" to-layer="1937" to-port="1" />
		<edge from-layer="1934" from-port="0" to-layer="1937" to-port="2" />
		<edge from-layer="1935" from-port="0" to-layer="1937" to-port="3" />
		<edge from-layer="1936" from-port="0" to-layer="1937" to-port="4" />
		<edge from-layer="1937" from-port="5" to-layer="1938" to-port="1" />
		<edge from-layer="1938" from-port="2" to-layer="1943" to-port="0" />
		<edge from-layer="1939" from-port="0" to-layer="1943" to-port="1" />
		<edge from-layer="1940" from-port="0" to-layer="1943" to-port="2" />
		<edge from-layer="1941" from-port="0" to-layer="1943" to-port="3" />
		<edge from-layer="1942" from-port="0" to-layer="1943" to-port="4" />
		<edge from-layer="1943" from-port="5" to-layer="1948" to-port="0" />
		<edge from-layer="1944" from-port="0" to-layer="1945" to-port="0" />
		<edge from-layer="1945" from-port="1" to-layer="1947" to-port="0" />
		<edge from-layer="1946" from-port="0" to-layer="1947" to-port="1" />
		<edge from-layer="1947" from-port="2" to-layer="1948" to-port="1" />
		<edge from-layer="1948" from-port="2" to-layer="1955" to-port="0" />
		<edge from-layer="1949" from-port="0" to-layer="1950" to-port="0" />
		<edge from-layer="1950" from-port="1" to-layer="1952" to-port="0" />
		<edge from-layer="1951" from-port="0" to-layer="1952" to-port="1" />
		<edge from-layer="1952" from-port="2" to-layer="1954" to-port="0" />
		<edge from-layer="1953" from-port="0" to-layer="1954" to-port="1" />
		<edge from-layer="1954" from-port="2" to-layer="1955" to-port="1" />
		<edge from-layer="1955" from-port="2" to-layer="1960" to-port="0" />
		<edge from-layer="1956" from-port="0" to-layer="1960" to-port="1" />
		<edge from-layer="1957" from-port="0" to-layer="1960" to-port="2" />
		<edge from-layer="1958" from-port="0" to-layer="1960" to-port="3" />
		<edge from-layer="1959" from-port="0" to-layer="1960" to-port="4" />
		<edge from-layer="1960" from-port="5" to-layer="2036" to-port="0" />
		<edge from-layer="1961" from-port="0" to-layer="1962" to-port="0" />
		<edge from-layer="1962" from-port="1" to-layer="1964" to-port="0" />
		<edge from-layer="1963" from-port="0" to-layer="1964" to-port="1" />
		<edge from-layer="1964" from-port="2" to-layer="1965" to-port="1" />
		<edge from-layer="1965" from-port="2" to-layer="1972" to-port="0" />
		<edge from-layer="1966" from-port="0" to-layer="1967" to-port="0" />
		<edge from-layer="1967" from-port="1" to-layer="1969" to-port="0" />
		<edge from-layer="1968" from-port="0" to-layer="1969" to-port="1" />
		<edge from-layer="1969" from-port="2" to-layer="1971" to-port="0" />
		<edge from-layer="1970" from-port="0" to-layer="1971" to-port="1" />
		<edge from-layer="1971" from-port="2" to-layer="1972" to-port="1" />
		<edge from-layer="1972" from-port="2" to-layer="1977" to-port="0" />
		<edge from-layer="1973" from-port="0" to-layer="1977" to-port="1" />
		<edge from-layer="1974" from-port="0" to-layer="1977" to-port="2" />
		<edge from-layer="1975" from-port="0" to-layer="1977" to-port="3" />
		<edge from-layer="1976" from-port="0" to-layer="1977" to-port="4" />
		<edge from-layer="1977" from-port="5" to-layer="1978" to-port="0" />
		<edge from-layer="1977" from-port="5" to-layer="1984" to-port="0" />
		<edge from-layer="1978" from-port="1" to-layer="1983" to-port="0" />
		<edge from-layer="1979" from-port="0" to-layer="1983" to-port="1" />
		<edge from-layer="1980" from-port="0" to-layer="1983" to-port="2" />
		<edge from-layer="1981" from-port="0" to-layer="1983" to-port="3" />
		<edge from-layer="1982" from-port="0" to-layer="1983" to-port="4" />
		<edge from-layer="1983" from-port="5" to-layer="1984" to-port="1" />
		<edge from-layer="1984" from-port="2" to-layer="1989" to-port="0" />
		<edge from-layer="1985" from-port="0" to-layer="1989" to-port="1" />
		<edge from-layer="1986" from-port="0" to-layer="1989" to-port="2" />
		<edge from-layer="1987" from-port="0" to-layer="1989" to-port="3" />
		<edge from-layer="1988" from-port="0" to-layer="1989" to-port="4" />
		<edge from-layer="1989" from-port="5" to-layer="1994" to-port="0" />
		<edge from-layer="1990" from-port="0" to-layer="1991" to-port="0" />
		<edge from-layer="1991" from-port="1" to-layer="1993" to-port="0" />
		<edge from-layer="1992" from-port="0" to-layer="1993" to-port="1" />
		<edge from-layer="1993" from-port="2" to-layer="1994" to-port="1" />
		<edge from-layer="1994" from-port="2" to-layer="2001" to-port="0" />
		<edge from-layer="1995" from-port="0" to-layer="1996" to-port="0" />
		<edge from-layer="1996" from-port="1" to-layer="1998" to-port="0" />
		<edge from-layer="1997" from-port="0" to-layer="1998" to-port="1" />
		<edge from-layer="1998" from-port="2" to-layer="2000" to-port="0" />
		<edge from-layer="1999" from-port="0" to-layer="2000" to-port="1" />
		<edge from-layer="2000" from-port="2" to-layer="2001" to-port="1" />
		<edge from-layer="2001" from-port="2" to-layer="2006" to-port="0" />
		<edge from-layer="2002" from-port="0" to-layer="2006" to-port="1" />
		<edge from-layer="2003" from-port="0" to-layer="2006" to-port="2" />
		<edge from-layer="2004" from-port="0" to-layer="2006" to-port="3" />
		<edge from-layer="2005" from-port="0" to-layer="2006" to-port="4" />
		<edge from-layer="2006" from-port="5" to-layer="2013" to-port="0" />
		<edge from-layer="2006" from-port="5" to-layer="2007" to-port="0" />
		<edge from-layer="2007" from-port="1" to-layer="2012" to-port="0" />
		<edge from-layer="2008" from-port="0" to-layer="2012" to-port="1" />
		<edge from-layer="2009" from-port="0" to-layer="2012" to-port="2" />
		<edge from-layer="2010" from-port="0" to-layer="2012" to-port="3" />
		<edge from-layer="2011" from-port="0" to-layer="2012" to-port="4" />
		<edge from-layer="2012" from-port="5" to-layer="2013" to-port="1" />
		<edge from-layer="2013" from-port="2" to-layer="2018" to-port="0" />
		<edge from-layer="2014" from-port="0" to-layer="2018" to-port="1" />
		<edge from-layer="2015" from-port="0" to-layer="2018" to-port="2" />
		<edge from-layer="2016" from-port="0" to-layer="2018" to-port="3" />
		<edge from-layer="2017" from-port="0" to-layer="2018" to-port="4" />
		<edge from-layer="2018" from-port="5" to-layer="2023" to-port="0" />
		<edge from-layer="2019" from-port="0" to-layer="2020" to-port="0" />
		<edge from-layer="2020" from-port="1" to-layer="2022" to-port="0" />
		<edge from-layer="2021" from-port="0" to-layer="2022" to-port="1" />
		<edge from-layer="2022" from-port="2" to-layer="2023" to-port="1" />
		<edge from-layer="2023" from-port="2" to-layer="2030" to-port="0" />
		<edge from-layer="2024" from-port="0" to-layer="2025" to-port="0" />
		<edge from-layer="2025" from-port="1" to-layer="2027" to-port="0" />
		<edge from-layer="2026" from-port="0" to-layer="2027" to-port="1" />
		<edge from-layer="2027" from-port="2" to-layer="2029" to-port="0" />
		<edge from-layer="2028" from-port="0" to-layer="2029" to-port="1" />
		<edge from-layer="2029" from-port="2" to-layer="2030" to-port="1" />
		<edge from-layer="2030" from-port="2" to-layer="2035" to-port="0" />
		<edge from-layer="2031" from-port="0" to-layer="2035" to-port="1" />
		<edge from-layer="2032" from-port="0" to-layer="2035" to-port="2" />
		<edge from-layer="2033" from-port="0" to-layer="2035" to-port="3" />
		<edge from-layer="2034" from-port="0" to-layer="2035" to-port="4" />
		<edge from-layer="2035" from-port="5" to-layer="2036" to-port="1" />
		<edge from-layer="2036" from-port="2" to-layer="2041" to-port="0" />
		<edge from-layer="2037" from-port="0" to-layer="2041" to-port="1" />
		<edge from-layer="2038" from-port="0" to-layer="2041" to-port="2" />
		<edge from-layer="2039" from-port="0" to-layer="2041" to-port="3" />
		<edge from-layer="2040" from-port="0" to-layer="2041" to-port="4" />
		<edge from-layer="2041" from-port="5" to-layer="2042" to-port="0" />
		<edge from-layer="2042" from-port="2" to-layer="2047" to-port="0" />
		<edge from-layer="2043" from-port="0" to-layer="2047" to-port="1" />
		<edge from-layer="2044" from-port="0" to-layer="2047" to-port="2" />
		<edge from-layer="2045" from-port="0" to-layer="2047" to-port="3" />
		<edge from-layer="2046" from-port="0" to-layer="2047" to-port="4" />
		<edge from-layer="2047" from-port="5" to-layer="2048" to-port="2" />
		<edge from-layer="2048" from-port="3" to-layer="2053" to-port="0" />
		<edge from-layer="2049" from-port="0" to-layer="2053" to-port="1" />
		<edge from-layer="2050" from-port="0" to-layer="2053" to-port="2" />
		<edge from-layer="2051" from-port="0" to-layer="2053" to-port="3" />
		<edge from-layer="2052" from-port="0" to-layer="2053" to-port="4" />
		<edge from-layer="2053" from-port="5" to-layer="2056" to-port="0" />
		<edge from-layer="2054" from-port="0" to-layer="2056" to-port="1" />
		<edge from-layer="2055" from-port="0" to-layer="2056" to-port="2" />
		<edge from-layer="2056" from-port="3" to-layer="2061" to-port="0" />
		<edge from-layer="2056" from-port="4" to-layer="2183" to-port="0" />
		<edge from-layer="2057" from-port="0" to-layer="2061" to-port="1" />
		<edge from-layer="2058" from-port="0" to-layer="2061" to-port="2" />
		<edge from-layer="2059" from-port="0" to-layer="2061" to-port="3" />
		<edge from-layer="2060" from-port="0" to-layer="2061" to-port="4" />
		<edge from-layer="2061" from-port="5" to-layer="2063" to-port="0" />
		<edge from-layer="2062" from-port="0" to-layer="2063" to-port="1" />
		<edge from-layer="2063" from-port="2" to-layer="2068" to-port="0" />
		<edge from-layer="2064" from-port="0" to-layer="2068" to-port="1" />
		<edge from-layer="2065" from-port="0" to-layer="2068" to-port="2" />
		<edge from-layer="2066" from-port="0" to-layer="2068" to-port="3" />
		<edge from-layer="2067" from-port="0" to-layer="2068" to-port="4" />
		<edge from-layer="2068" from-port="5" to-layer="2070" to-port="0" />
		<edge from-layer="2069" from-port="0" to-layer="2070" to-port="1" />
		<edge from-layer="2070" from-port="2" to-layer="2075" to-port="0" />
		<edge from-layer="2071" from-port="0" to-layer="2075" to-port="1" />
		<edge from-layer="2072" from-port="0" to-layer="2075" to-port="2" />
		<edge from-layer="2073" from-port="0" to-layer="2075" to-port="3" />
		<edge from-layer="2074" from-port="0" to-layer="2075" to-port="4" />
		<edge from-layer="2075" from-port="5" to-layer="2076" to-port="0" />
		<edge from-layer="2076" from-port="1" to-layer="2081" to-port="0" />
		<edge from-layer="2077" from-port="0" to-layer="2081" to-port="1" />
		<edge from-layer="2078" from-port="0" to-layer="2081" to-port="2" />
		<edge from-layer="2079" from-port="0" to-layer="2081" to-port="3" />
		<edge from-layer="2080" from-port="0" to-layer="2081" to-port="4" />
		<edge from-layer="2081" from-port="5" to-layer="2083" to-port="0" />
		<edge from-layer="2082" from-port="0" to-layer="2083" to-port="1" />
		<edge from-layer="2083" from-port="2" to-layer="2088" to-port="0" />
		<edge from-layer="2084" from-port="0" to-layer="2088" to-port="1" />
		<edge from-layer="2085" from-port="0" to-layer="2088" to-port="2" />
		<edge from-layer="2086" from-port="0" to-layer="2088" to-port="3" />
		<edge from-layer="2087" from-port="0" to-layer="2088" to-port="4" />
		<edge from-layer="2088" from-port="5" to-layer="2093" to-port="0" />
		<edge from-layer="2089" from-port="0" to-layer="2090" to-port="0" />
		<edge from-layer="2090" from-port="1" to-layer="2092" to-port="0" />
		<edge from-layer="2091" from-port="0" to-layer="2092" to-port="1" />
		<edge from-layer="2092" from-port="2" to-layer="2093" to-port="1" />
		<edge from-layer="2093" from-port="2" to-layer="2098" to-port="0" />
		<edge from-layer="2094" from-port="0" to-layer="2098" to-port="1" />
		<edge from-layer="2095" from-port="0" to-layer="2098" to-port="2" />
		<edge from-layer="2096" from-port="0" to-layer="2098" to-port="3" />
		<edge from-layer="2097" from-port="0" to-layer="2098" to-port="4" />
		<edge from-layer="2098" from-port="5" to-layer="2100" to-port="0" />
		<edge from-layer="2099" from-port="0" to-layer="2100" to-port="1" />
		<edge from-layer="2100" from-port="2" to-layer="2105" to-port="0" />
		<edge from-layer="2101" from-port="0" to-layer="2105" to-port="1" />
		<edge from-layer="2102" from-port="0" to-layer="2105" to-port="2" />
		<edge from-layer="2103" from-port="0" to-layer="2105" to-port="3" />
		<edge from-layer="2104" from-port="0" to-layer="2105" to-port="4" />
		<edge from-layer="2105" from-port="5" to-layer="2131" to-port="0" />
		<edge from-layer="2105" from-port="5" to-layer="2110" to-port="0" />
		<edge from-layer="2106" from-port="0" to-layer="2110" to-port="1" />
		<edge from-layer="2107" from-port="0" to-layer="2110" to-port="2" />
		<edge from-layer="2107" from-port="0" to-layer="2131" to-port="1" />
		<edge from-layer="2108" from-port="0" to-layer="2110" to-port="3" />
		<edge from-layer="2109" from-port="0" to-layer="2110" to-port="4" />
		<edge from-layer="2109" from-port="0" to-layer="2131" to-port="4" />
		<edge from-layer="2110" from-port="5" to-layer="2115" to-port="0" />
		<edge from-layer="2111" from-port="0" to-layer="2115" to-port="1" />
		<edge from-layer="2112" from-port="0" to-layer="2115" to-port="2" />
		<edge from-layer="2113" from-port="0" to-layer="2115" to-port="3" />
		<edge from-layer="2114" from-port="0" to-layer="2115" to-port="4" />
		<edge from-layer="2115" from-port="5" to-layer="2116" to-port="1" />
		<edge from-layer="2116" from-port="2" to-layer="2121" to-port="0" />
		<edge from-layer="2117" from-port="0" to-layer="2121" to-port="1" />
		<edge from-layer="2118" from-port="0" to-layer="2121" to-port="2" />
		<edge from-layer="2119" from-port="0" to-layer="2121" to-port="3" />
		<edge from-layer="2120" from-port="0" to-layer="2121" to-port="4" />
		<edge from-layer="2121" from-port="5" to-layer="2154" to-port="1" />
		<edge from-layer="2121" from-port="5" to-layer="2143" to-port="0" />
		<edge from-layer="2122" from-port="0" to-layer="2123" to-port="0" />
		<edge from-layer="2123" from-port="1" to-layer="2126" to-port="0" />
		<edge from-layer="2124" from-port="0" to-layer="2125" to-port="0" />
		<edge from-layer="2125" from-port="1" to-layer="2126" to-port="1" />
		<edge from-layer="2126" from-port="2" to-layer="2128" to-port="0" />
		<edge from-layer="2127" from-port="0" to-layer="2128" to-port="1" />
		<edge from-layer="2128" from-port="2" to-layer="2137" to-port="0" />
		<edge from-layer="2129" from-port="0" to-layer="2131" to-port="2" />
		<edge from-layer="2130" from-port="0" to-layer="2131" to-port="3" />
		<edge from-layer="2131" from-port="5" to-layer="2136" to-port="0" />
		<edge from-layer="2132" from-port="0" to-layer="2136" to-port="1" />
		<edge from-layer="2133" from-port="0" to-layer="2136" to-port="2" />
		<edge from-layer="2134" from-port="0" to-layer="2136" to-port="3" />
		<edge from-layer="2135" from-port="0" to-layer="2136" to-port="4" />
		<edge from-layer="2136" from-port="5" to-layer="2137" to-port="1" />
		<edge from-layer="2137" from-port="2" to-layer="2142" to-port="0" />
		<edge from-layer="2138" from-port="0" to-layer="2142" to-port="1" />
		<edge from-layer="2139" from-port="0" to-layer="2142" to-port="2" />
		<edge from-layer="2140" from-port="0" to-layer="2142" to-port="3" />
		<edge from-layer="2141" from-port="0" to-layer="2142" to-port="4" />
		<edge from-layer="2142" from-port="5" to-layer="2154" to-port="0" />
		<edge from-layer="2142" from-port="5" to-layer="2143" to-port="1" />
		<edge from-layer="2143" from-port="2" to-layer="2148" to-port="0" />
		<edge from-layer="2144" from-port="0" to-layer="2148" to-port="1" />
		<edge from-layer="2145" from-port="0" to-layer="2148" to-port="2" />
		<edge from-layer="2146" from-port="0" to-layer="2148" to-port="3" />
		<edge from-layer="2147" from-port="0" to-layer="2148" to-port="4" />
		<edge from-layer="2148" from-port="5" to-layer="2153" to-port="0" />
		<edge from-layer="2149" from-port="0" to-layer="2153" to-port="1" />
		<edge from-layer="2150" from-port="0" to-layer="2153" to-port="2" />
		<edge from-layer="2151" from-port="0" to-layer="2153" to-port="3" />
		<edge from-layer="2152" from-port="0" to-layer="2153" to-port="4" />
		<edge from-layer="2153" from-port="5" to-layer="2160" to-port="0" />
		<edge from-layer="2154" from-port="2" to-layer="2159" to-port="0" />
		<edge from-layer="2155" from-port="0" to-layer="2159" to-port="1" />
		<edge from-layer="2156" from-port="0" to-layer="2159" to-port="2" />
		<edge from-layer="2157" from-port="0" to-layer="2159" to-port="3" />
		<edge from-layer="2158" from-port="0" to-layer="2159" to-port="4" />
		<edge from-layer="2159" from-port="5" to-layer="2160" to-port="1" />
		<edge from-layer="2160" from-port="2" to-layer="2165" to-port="0" />
		<edge from-layer="2161" from-port="0" to-layer="2165" to-port="1" />
		<edge from-layer="2162" from-port="0" to-layer="2165" to-port="2" />
		<edge from-layer="2163" from-port="0" to-layer="2165" to-port="3" />
		<edge from-layer="2164" from-port="0" to-layer="2165" to-port="4" />
		<edge from-layer="2165" from-port="5" to-layer="2173" to-port="0" />
		<edge from-layer="2166" from-port="0" to-layer="2167" to-port="0" />
		<edge from-layer="2167" from-port="1" to-layer="2170" to-port="0" />
		<edge from-layer="2168" from-port="0" to-layer="2169" to-port="0" />
		<edge from-layer="2169" from-port="1" to-layer="2170" to-port="1" />
		<edge from-layer="2170" from-port="2" to-layer="2172" to-port="0" />
		<edge from-layer="2171" from-port="0" to-layer="2172" to-port="1" />
		<edge from-layer="2172" from-port="2" to-layer="2173" to-port="1" />
		<edge from-layer="2173" from-port="2" to-layer="2178" to-port="0" />
		<edge from-layer="2174" from-port="0" to-layer="2178" to-port="1" />
		<edge from-layer="2175" from-port="0" to-layer="2178" to-port="2" />
		<edge from-layer="2176" from-port="0" to-layer="2178" to-port="3" />
		<edge from-layer="2177" from-port="0" to-layer="2178" to-port="4" />
		<edge from-layer="2178" from-port="5" to-layer="2190" to-port="0" />
		<edge from-layer="2179" from-port="0" to-layer="2183" to-port="1" />
		<edge from-layer="2180" from-port="0" to-layer="2183" to-port="2" />
		<edge from-layer="2181" from-port="0" to-layer="2183" to-port="3" />
		<edge from-layer="2182" from-port="0" to-layer="2183" to-port="4" />
		<edge from-layer="2183" from-port="5" to-layer="2184" to-port="0" />
		<edge from-layer="2184" from-port="1" to-layer="2189" to-port="0" />
		<edge from-layer="2185" from-port="0" to-layer="2189" to-port="1" />
		<edge from-layer="2186" from-port="0" to-layer="2189" to-port="2" />
		<edge from-layer="2187" from-port="0" to-layer="2189" to-port="3" />
		<edge from-layer="2188" from-port="0" to-layer="2189" to-port="4" />
		<edge from-layer="2189" from-port="5" to-layer="2190" to-port="1" />
		<edge from-layer="2190" from-port="2" to-layer="2195" to-port="0" />
		<edge from-layer="2191" from-port="0" to-layer="2195" to-port="1" />
		<edge from-layer="2192" from-port="0" to-layer="2195" to-port="2" />
		<edge from-layer="2193" from-port="0" to-layer="2195" to-port="3" />
		<edge from-layer="2194" from-port="0" to-layer="2195" to-port="4" />
		<edge from-layer="2195" from-port="5" to-layer="2196" to-port="0" />
	</edges>
	<rt_info>
		<Runtime_version value="2025.4.0-19881-0a49c3257ff" />
		<conversion_parameters>
			<input_model value="DIR/yolov8n_int8.onnx" />
			<is_python_object value="False" />
		</conversion_parameters>
		<framework>
			<args value="{'batch': 1, 'half': False, 'dynamic': False, 'simplify': True, 'opset': 12, 'nms': False}" />
			<author value="Ultralytics" />
			<batch value="1" />
			<channels value="3" />
			<date value="2025-08-05T10:22:41.906688" />
			<description value="Ultralytics YOLOv8n model trained on coco.yaml" />
			<docs value="https://docs.ultralytics.com" />
			<imgsz value="[640, 640]" />
			<license value="AGPL-3.0 License (https://ultralytics.com/license)" />
			<names value="{0: 'person', 1: 'bicycle', 2: 'car', 3: 'motorcycle', 4: 'airplane', 5: 'bus', 6: 'train', 7: 'truck', 8: 'boat', 9: 'traffic light', 10: 'fire hydrant', 11: 'stop sign', 12: 'parking meter', 13: 'bench', 14: 'bird', 15: 'cat', 16: 'dog', 17: 'horse', 18: 'sheep', 19: 'cow', 20: 'elephant', 21: 'bear', 22: 'zebra', 23: 'giraffe', 24: 'backpack', 25: 'umbrella', 26: 'handbag', 27: 'tie', 28: 'suitcase', 29: 'frisbee', 30: 'skis', 31: 'snowboard', 32: 'sports ball', 33: 'kite', 34: 'baseball bat', 35: 'baseball glove', 36: 'skateboard', 37: 'surfboard', 38: 'tennis racket', 39: 'bottle', 40: 'wine glass', 41: 'cup', 42: 'fork', 43: 'knife', 44: 'spoon', 45: 'bowl', 46: 'banana', 47: 'apple', 48: 'sandwich', 49: 'orange', 50: 'broccoli', 51: 'carrot', 52: 'hot dog', 53: 'pizza', 54: 'donut', 55: 'cake', 56: 'chair', 57: 'couch', 58: 'potted plant', 59: 'bed', 60: 'dining table', 61: 'toilet', 62: 'tv', 63: 'laptop', 64: 'mouse', 65: 'remote', 66: 'keyboard', 67: 'cell phone', 68: 'microwave', 69: 'oven', 70: 'toaster', 71: 'sink', 72: 'refrigerator', 73: 'book', 74: 'clock', 75: 'vase', 76: 'scissors', 77: 'teddy bear', 78: 'hair drier', 79: 'toothbrush'}" />
			<onnx.infer value="onnxruntime.quant" />
			<stride value="32" />
			<task value="detect" />
			<version value="8.3.174" />
		</framework>
	</rt_info>
</net>
