<?xml version="1.0"?>
<net name="main_graph" version="11">
	<layers>
		<layer id="0" name="images" type="Parameter" version="opset1">
			<data shape="1,3,640,640" element_type="f32" />
			<output>
				<port id="0" precision="FP32" names="images">
					<dim>1</dim>
					<dim>3</dim>
					<dim>640</dim>
					<dim>640</dim>
				</port>
			</output>
		</layer>
		<layer id="1" name="/model.22/Constant_9_output_0" type="Const" version="opset1">
			<data element_type="f32" shape="1, 2, 8400" offset="0" size="67200" />
			<output>
				<port id="0" precision="FP32" names="/model.22/Constant_9_output_0">
					<dim>1</dim>
					<dim>2</dim>
					<dim>8400</dim>
				</port>
			</output>
		</layer>
		<layer id="2" name="Constant_19618" type="Const" version="opset1">
			<data element_type="f32" shape="1, 1, 1, 1" offset="67200" size="4" />
			<output>
				<port id="0" precision="FP32">
					<dim>1</dim>
					<dim>1</dim>
					<dim>1</dim>
					<dim>1</dim>
				</port>
			</output>
		</layer>
		<layer id="3" name="Constant_19619" type="Const" version="opset1">
			<data element_type="f32" shape="1, 1, 1, 1" offset="67204" size="4" />
			<output>
				<port id="0" precision="FP32">
					<dim>1</dim>
					<dim>1</dim>
					<dim>1</dim>
					<dim>1</dim>
				</port>
			</output>
		</layer>
		<layer id="4" name="Constant_19620" type="Const" version="opset1">
			<data element_type="f32" shape="1, 1, 1, 1" offset="67208" size="4" />
			<output>
				<port id="0" precision="FP32">
					<dim>1</dim>
					<dim>1</dim>
					<dim>1</dim>
					<dim>1</dim>
				</port>
			</output>
		</layer>
		<layer id="5" name="Constant_19621" type="Const" version="opset1">
			<data element_type="f32" shape="1, 1, 1, 1" offset="67212" size="4" />
			<output>
				<port id="0" precision="FP32">
					<dim>1</dim>
					<dim>1</dim>
					<dim>1</dim>
					<dim>1</dim>
				</port>
			</output>
		</layer>
		<layer id="6" name="FakeQuantize_843" type="FakeQuantize" version="opset1">
			<data levels="16" auto_broadcast="numpy" />
			<input>
				<port id="0" precision="FP32">
					<dim>1</dim>
					<dim>3</dim>
					<dim>640</dim>
					<dim>640</dim>
				</port>
				<port id="1" precision="FP32">
					<dim>1</dim>
					<dim>1</dim>
					<dim>1</dim>
					<dim>1</dim>
				</port>
				<port id="2" precision="FP32">
					<dim>1</dim>
					<dim>1</dim>
					<dim>1</dim>
					<dim>1</dim>
				</port>
				<port id="3" precision="FP32">
					<dim>1</dim>
					<dim>1</dim>
					<dim>1</dim>
					<dim>1</dim>
				</port>
				<port id="4" precision="FP32">
					<dim>1</dim>
					<dim>1</dim>
					<dim>1</dim>
					<dim>1</dim>
				</port>
			</input>
			<output>
				<port id="5" precision="FP32">
					<dim>1</dim>
					<dim>3</dim>
					<dim>640</dim>
					<dim>640</dim>
				</port>
			</output>
		</layer>
		<layer id="7" name="images_QuantizeLinear" type="Convert" version="opset1">
			<data destination_type="i4" />
			<input>
				<port id="0" precision="FP32">
					<dim>1</dim>
					<dim>3</dim>
					<dim>640</dim>
					<dim>640</dim>
				</port>
			</input>
			<output>
				<port id="1" precision="I4" names="images_QuantizeLinear_Output">
					<dim>1</dim>
					<dim>3</dim>
					<dim>640</dim>
					<dim>640</dim>
				</port>
			</output>
		</layer>
		<layer id="8" name="Convert_1482" type="Convert" version="opset1">
			<data destination_type="f32" />
			<input>
				<port id="0" precision="I4">
					<dim>1</dim>
					<dim>3</dim>
					<dim>640</dim>
					<dim>640</dim>
				</port>
			</input>
			<output>
				<port id="1" precision="FP32">
					<dim>1</dim>
					<dim>3</dim>
					<dim>640</dim>
					<dim>640</dim>
				</port>
			</output>
		</layer>
		<layer id="9" name="images_zero_point" type="Const" version="opset1">
			<data element_type="i4" shape="" offset="67216" size="1" />
			<output>
				<port id="0" precision="I4" names="images_zero_point" />
			</output>
		</layer>
		<layer id="10" name="Convert_1481" type="Convert" version="opset1">
			<data destination_type="f32" />
			<input>
				<port id="0" precision="I4" />
			</input>
			<output>
				<port id="1" precision="FP32" />
			</output>
		</layer>
		<layer id="11" name="Subtract_1483" type="Subtract" version="opset1">
			<data auto_broadcast="numpy" />
			<input>
				<port id="0" precision="FP32">
					<dim>1</dim>
					<dim>3</dim>
					<dim>640</dim>
					<dim>640</dim>
				</port>
				<port id="1" precision="FP32" />
			</input>
			<output>
				<port id="2" precision="FP32">
					<dim>1</dim>
					<dim>3</dim>
					<dim>640</dim>
					<dim>640</dim>
				</port>
			</output>
		</layer>
		<layer id="12" name="Constant_19622" type="Const" version="opset1">
			<data element_type="f32" shape="1, 1, 1, 1" offset="67217" size="4" />
			<output>
				<port id="0" precision="FP32">
					<dim>1</dim>
					<dim>1</dim>
					<dim>1</dim>
					<dim>1</dim>
				</port>
			</output>
		</layer>
		<layer id="13" name="images_DequantizeLinear" type="Multiply" version="opset1">
			<data auto_broadcast="numpy" />
			<input>
				<port id="0" precision="FP32">
					<dim>1</dim>
					<dim>3</dim>
					<dim>640</dim>
					<dim>640</dim>
				</port>
				<port id="1" precision="FP32">
					<dim>1</dim>
					<dim>1</dim>
					<dim>1</dim>
					<dim>1</dim>
				</port>
			</input>
			<output>
				<port id="2" precision="FP32" names="images_DequantizeLinear_Output">
					<dim>1</dim>
					<dim>3</dim>
					<dim>640</dim>
					<dim>640</dim>
				</port>
			</output>
		</layer>
		<layer id="14" name="model.0.conv.weight_quantized" type="Const" version="opset1">
			<data element_type="i4" shape="16, 3, 3, 3" offset="67221" size="216" />
			<output>
				<port id="0" precision="I4" names="model.0.conv.weight_quantized">
					<dim>16</dim>
					<dim>3</dim>
					<dim>3</dim>
					<dim>3</dim>
				</port>
			</output>
		</layer>
		<layer id="15" name="Convert_852" type="Convert" version="opset1">
			<data destination_type="f32" />
			<input>
				<port id="0" precision="I4">
					<dim>16</dim>
					<dim>3</dim>
					<dim>3</dim>
					<dim>3</dim>
				</port>
			</input>
			<output>
				<port id="1" precision="FP32">
					<dim>16</dim>
					<dim>3</dim>
					<dim>3</dim>
					<dim>3</dim>
				</port>
			</output>
		</layer>
		<layer id="16" name="model.0.conv.weight_zero_point" type="Const" version="opset1">
			<data element_type="i4" shape="" offset="67437" size="1" />
			<output>
				<port id="0" precision="I4" names="model.0.conv.weight_zero_point" />
			</output>
		</layer>
		<layer id="17" name="Convert_851" type="Convert" version="opset1">
			<data destination_type="f32" />
			<input>
				<port id="0" precision="I4" />
			</input>
			<output>
				<port id="1" precision="FP32" />
			</output>
		</layer>
		<layer id="18" name="Subtract_853" type="Subtract" version="opset1">
			<data auto_broadcast="numpy" />
			<input>
				<port id="0" precision="FP32">
					<dim>16</dim>
					<dim>3</dim>
					<dim>3</dim>
					<dim>3</dim>
				</port>
				<port id="1" precision="FP32" />
			</input>
			<output>
				<port id="2" precision="FP32">
					<dim>16</dim>
					<dim>3</dim>
					<dim>3</dim>
					<dim>3</dim>
				</port>
			</output>
		</layer>
		<layer id="19" name="Constant_19623" type="Const" version="opset1">
			<data element_type="f32" shape="1, 1, 1, 1" offset="67438" size="4" />
			<output>
				<port id="0" precision="FP32">
					<dim>1</dim>
					<dim>1</dim>
					<dim>1</dim>
					<dim>1</dim>
				</port>
			</output>
		</layer>
		<layer id="20" name="model.0.conv.weight_DequantizeLinear" type="Multiply" version="opset1">
			<data auto_broadcast="numpy" />
			<input>
				<port id="0" precision="FP32">
					<dim>16</dim>
					<dim>3</dim>
					<dim>3</dim>
					<dim>3</dim>
				</port>
				<port id="1" precision="FP32">
					<dim>1</dim>
					<dim>1</dim>
					<dim>1</dim>
					<dim>1</dim>
				</port>
			</input>
			<output>
				<port id="2" precision="FP32" names="model.0.conv.weight_DequantizeLinear_Output">
					<dim>16</dim>
					<dim>3</dim>
					<dim>3</dim>
					<dim>3</dim>
				</port>
			</output>
		</layer>
		<layer id="21" name="/model.0/conv/Conv/WithoutBiases" type="Convolution" version="opset1">
			<data strides="2, 2" dilations="1, 1" pads_begin="1, 1" pads_end="1, 1" auto_pad="explicit" />
			<input>
				<port id="0" precision="FP32">
					<dim>1</dim>
					<dim>3</dim>
					<dim>640</dim>
					<dim>640</dim>
				</port>
				<port id="1" precision="FP32">
					<dim>16</dim>
					<dim>3</dim>
					<dim>3</dim>
					<dim>3</dim>
				</port>
			</input>
			<output>
				<port id="2" precision="FP32">
					<dim>1</dim>
					<dim>16</dim>
					<dim>320</dim>
					<dim>320</dim>
				</port>
			</output>
		</layer>
		<layer id="22" name="model.0.conv.bias_quantized" type="Const" version="opset1">
			<data element_type="i32" shape="16" offset="67442" size="64" />
			<output>
				<port id="0" precision="I32" names="model.0.conv.bias_quantized">
					<dim>16</dim>
				</port>
			</output>
		</layer>
		<layer id="23" name="Convert_847" type="Convert" version="opset1">
			<data destination_type="f32" />
			<input>
				<port id="0" precision="I32">
					<dim>16</dim>
				</port>
			</input>
			<output>
				<port id="1" precision="FP32">
					<dim>16</dim>
				</port>
			</output>
		</layer>
		<layer id="24" name="model.0.conv.bias_quantized_scale" type="Const" version="opset1">
			<data element_type="f32" shape="1" offset="67506" size="4" />
			<output>
				<port id="0" precision="FP32" names="model.0.conv.bias_quantized_scale">
					<dim>1</dim>
				</port>
			</output>
		</layer>
		<layer id="25" name="model.0.conv.bias_DequantizeLinear" type="Multiply" version="opset1">
			<data auto_broadcast="numpy" />
			<input>
				<port id="0" precision="FP32">
					<dim>16</dim>
				</port>
				<port id="1" precision="FP32">
					<dim>1</dim>
				</port>
			</input>
			<output>
				<port id="2" precision="FP32" names="model.0.conv.bias">
					<dim>16</dim>
				</port>
			</output>
		</layer>
		<layer id="26" name="Concat_1495" type="Const" version="opset1">
			<data element_type="i64" shape="4" offset="67510" size="32" />
			<output>
				<port id="0" precision="I64">
					<dim>4</dim>
				</port>
			</output>
		</layer>
		<layer id="27" name="Reshape_1496" type="Reshape" version="opset1">
			<data special_zero="false" />
			<input>
				<port id="0" precision="FP32">
					<dim>16</dim>
				</port>
				<port id="1" precision="I64">
					<dim>4</dim>
				</port>
			</input>
			<output>
				<port id="2" precision="FP32">
					<dim>1</dim>
					<dim>16</dim>
					<dim>1</dim>
					<dim>1</dim>
				</port>
			</output>
		</layer>
		<layer id="28" name="/model.0/conv/Conv" type="Add" version="opset1">
			<data auto_broadcast="numpy" />
			<input>
				<port id="0" precision="FP32">
					<dim>1</dim>
					<dim>16</dim>
					<dim>320</dim>
					<dim>320</dim>
				</port>
				<port id="1" precision="FP32">
					<dim>1</dim>
					<dim>16</dim>
					<dim>1</dim>
					<dim>1</dim>
				</port>
			</input>
			<output>
				<port id="2" precision="FP32" names="/model.0/conv/Conv_output_0">
					<dim>1</dim>
					<dim>16</dim>
					<dim>320</dim>
					<dim>320</dim>
				</port>
			</output>
		</layer>
		<layer id="29" name="Constant_19624" type="Const" version="opset1">
			<data element_type="f32" shape="1, 1, 1, 1" offset="67542" size="4" />
			<output>
				<port id="0" precision="FP32">
					<dim>1</dim>
					<dim>1</dim>
					<dim>1</dim>
					<dim>1</dim>
				</port>
			</output>
		</layer>
		<layer id="30" name="Constant_19625" type="Const" version="opset1">
			<data element_type="f32" shape="1, 1, 1, 1" offset="67546" size="4" />
			<output>
				<port id="0" precision="FP32">
					<dim>1</dim>
					<dim>1</dim>
					<dim>1</dim>
					<dim>1</dim>
				</port>
			</output>
		</layer>
		<layer id="31" name="Constant_19626" type="Const" version="opset1">
			<data element_type="f32" shape="1, 1, 1, 1" offset="67208" size="4" />
			<output>
				<port id="0" precision="FP32">
					<dim>1</dim>
					<dim>1</dim>
					<dim>1</dim>
					<dim>1</dim>
				</port>
			</output>
		</layer>
		<layer id="32" name="Constant_19627" type="Const" version="opset1">
			<data element_type="f32" shape="1, 1, 1, 1" offset="67212" size="4" />
			<output>
				<port id="0" precision="FP32">
					<dim>1</dim>
					<dim>1</dim>
					<dim>1</dim>
					<dim>1</dim>
				</port>
			</output>
		</layer>
		<layer id="33" name="FakeQuantize_1507" type="FakeQuantize" version="opset1">
			<data levels="16" auto_broadcast="numpy" />
			<input>
				<port id="0" precision="FP32">
					<dim>1</dim>
					<dim>16</dim>
					<dim>320</dim>
					<dim>320</dim>
				</port>
				<port id="1" precision="FP32">
					<dim>1</dim>
					<dim>1</dim>
					<dim>1</dim>
					<dim>1</dim>
				</port>
				<port id="2" precision="FP32">
					<dim>1</dim>
					<dim>1</dim>
					<dim>1</dim>
					<dim>1</dim>
				</port>
				<port id="3" precision="FP32">
					<dim>1</dim>
					<dim>1</dim>
					<dim>1</dim>
					<dim>1</dim>
				</port>
				<port id="4" precision="FP32">
					<dim>1</dim>
					<dim>1</dim>
					<dim>1</dim>
					<dim>1</dim>
				</port>
			</input>
			<output>
				<port id="5" precision="FP32">
					<dim>1</dim>
					<dim>16</dim>
					<dim>320</dim>
					<dim>320</dim>
				</port>
			</output>
		</layer>
		<layer id="34" name="/model.0/conv/Conv_output_0_QuantizeLinear" type="Convert" version="opset1">
			<data destination_type="i4" />
			<input>
				<port id="0" precision="FP32">
					<dim>1</dim>
					<dim>16</dim>
					<dim>320</dim>
					<dim>320</dim>
				</port>
			</input>
			<output>
				<port id="1" precision="I4" names="/model.0/conv/Conv_output_0_QuantizeLinear_Output">
					<dim>1</dim>
					<dim>16</dim>
					<dim>320</dim>
					<dim>320</dim>
				</port>
			</output>
		</layer>
		<layer id="35" name="Convert_1511" type="Convert" version="opset1">
			<data destination_type="f32" />
			<input>
				<port id="0" precision="I4">
					<dim>1</dim>
					<dim>16</dim>
					<dim>320</dim>
					<dim>320</dim>
				</port>
			</input>
			<output>
				<port id="1" precision="FP32">
					<dim>1</dim>
					<dim>16</dim>
					<dim>320</dim>
					<dim>320</dim>
				</port>
			</output>
		</layer>
		<layer id="36" name="/model.0/conv/Conv_output_0_zero_point" type="Const" version="opset1">
			<data element_type="i4" shape="" offset="67216" size="1" />
			<output>
				<port id="0" precision="I4" names="/model.0/conv/Conv_output_0_zero_point" />
			</output>
		</layer>
		<layer id="37" name="Convert_1510" type="Convert" version="opset1">
			<data destination_type="f32" />
			<input>
				<port id="0" precision="I4" />
			</input>
			<output>
				<port id="1" precision="FP32" />
			</output>
		</layer>
		<layer id="38" name="Subtract_1512" type="Subtract" version="opset1">
			<data auto_broadcast="numpy" />
			<input>
				<port id="0" precision="FP32">
					<dim>1</dim>
					<dim>16</dim>
					<dim>320</dim>
					<dim>320</dim>
				</port>
				<port id="1" precision="FP32" />
			</input>
			<output>
				<port id="2" precision="FP32">
					<dim>1</dim>
					<dim>16</dim>
					<dim>320</dim>
					<dim>320</dim>
				</port>
			</output>
		</layer>
		<layer id="39" name="Constant_19628" type="Const" version="opset1">
			<data element_type="f32" shape="1, 1, 1, 1" offset="67550" size="4" />
			<output>
				<port id="0" precision="FP32">
					<dim>1</dim>
					<dim>1</dim>
					<dim>1</dim>
					<dim>1</dim>
				</port>
			</output>
		</layer>
		<layer id="40" name="/model.0/conv/Conv_output_0_DequantizeLinear" type="Multiply" version="opset1">
			<data auto_broadcast="numpy" />
			<input>
				<port id="0" precision="FP32">
					<dim>1</dim>
					<dim>16</dim>
					<dim>320</dim>
					<dim>320</dim>
				</port>
				<port id="1" precision="FP32">
					<dim>1</dim>
					<dim>1</dim>
					<dim>1</dim>
					<dim>1</dim>
				</port>
			</input>
			<output>
				<port id="2" precision="FP32" names="/model.0/conv/Conv_output_0_DequantizeLinear_Output">
					<dim>1</dim>
					<dim>16</dim>
					<dim>320</dim>
					<dim>320</dim>
				</port>
			</output>
		</layer>
		<layer id="41" name="/model.0/act/Sigmoid" type="Sigmoid" version="opset1">
			<input>
				<port id="0" precision="FP32">
					<dim>1</dim>
					<dim>16</dim>
					<dim>320</dim>
					<dim>320</dim>
				</port>
			</input>
			<output>
				<port id="1" precision="FP32" names="/model.0/act/Sigmoid_output_0">
					<dim>1</dim>
					<dim>16</dim>
					<dim>320</dim>
					<dim>320</dim>
				</port>
			</output>
		</layer>
		<layer id="42" name="Constant_19629" type="Const" version="opset1">
			<data element_type="f32" shape="1, 1, 1, 1" offset="67554" size="4" />
			<output>
				<port id="0" precision="FP32">
					<dim>1</dim>
					<dim>1</dim>
					<dim>1</dim>
					<dim>1</dim>
				</port>
			</output>
		</layer>
		<layer id="43" name="Constant_19630" type="Const" version="opset1">
			<data element_type="f32" shape="1, 1, 1, 1" offset="67558" size="4" />
			<output>
				<port id="0" precision="FP32">
					<dim>1</dim>
					<dim>1</dim>
					<dim>1</dim>
					<dim>1</dim>
				</port>
			</output>
		</layer>
		<layer id="44" name="Constant_19631" type="Const" version="opset1">
			<data element_type="f32" shape="1, 1, 1, 1" offset="67208" size="4" />
			<output>
				<port id="0" precision="FP32">
					<dim>1</dim>
					<dim>1</dim>
					<dim>1</dim>
					<dim>1</dim>
				</port>
			</output>
		</layer>
		<layer id="45" name="Constant_19632" type="Const" version="opset1">
			<data element_type="f32" shape="1, 1, 1, 1" offset="67212" size="4" />
			<output>
				<port id="0" precision="FP32">
					<dim>1</dim>
					<dim>1</dim>
					<dim>1</dim>
					<dim>1</dim>
				</port>
			</output>
		</layer>
		<layer id="46" name="FakeQuantize_1524" type="FakeQuantize" version="opset1">
			<data levels="16" auto_broadcast="numpy" />
			<input>
				<port id="0" precision="FP32">
					<dim>1</dim>
					<dim>16</dim>
					<dim>320</dim>
					<dim>320</dim>
				</port>
				<port id="1" precision="FP32">
					<dim>1</dim>
					<dim>1</dim>
					<dim>1</dim>
					<dim>1</dim>
				</port>
				<port id="2" precision="FP32">
					<dim>1</dim>
					<dim>1</dim>
					<dim>1</dim>
					<dim>1</dim>
				</port>
				<port id="3" precision="FP32">
					<dim>1</dim>
					<dim>1</dim>
					<dim>1</dim>
					<dim>1</dim>
				</port>
				<port id="4" precision="FP32">
					<dim>1</dim>
					<dim>1</dim>
					<dim>1</dim>
					<dim>1</dim>
				</port>
			</input>
			<output>
				<port id="5" precision="FP32">
					<dim>1</dim>
					<dim>16</dim>
					<dim>320</dim>
					<dim>320</dim>
				</port>
			</output>
		</layer>
		<layer id="47" name="/model.0/act/Sigmoid_output_0_QuantizeLinear" type="Convert" version="opset1">
			<data destination_type="i4" />
			<input>
				<port id="0" precision="FP32">
					<dim>1</dim>
					<dim>16</dim>
					<dim>320</dim>
					<dim>320</dim>
				</port>
			</input>
			<output>
				<port id="1" precision="I4" names="/model.0/act/Sigmoid_output_0_QuantizeLinear_Output">
					<dim>1</dim>
					<dim>16</dim>
					<dim>320</dim>
					<dim>320</dim>
				</port>
			</output>
		</layer>
		<layer id="48" name="Convert_1528" type="Convert" version="opset1">
			<data destination_type="f32" />
			<input>
				<port id="0" precision="I4">
					<dim>1</dim>
					<dim>16</dim>
					<dim>320</dim>
					<dim>320</dim>
				</port>
			</input>
			<output>
				<port id="1" precision="FP32">
					<dim>1</dim>
					<dim>16</dim>
					<dim>320</dim>
					<dim>320</dim>
				</port>
			</output>
		</layer>
		<layer id="49" name="/model.0/act/Sigmoid_output_0_zero_point" type="Const" version="opset1">
			<data element_type="i4" shape="" offset="67562" size="1" />
			<output>
				<port id="0" precision="I4" names="/model.0/act/Sigmoid_output_0_zero_point" />
			</output>
		</layer>
		<layer id="50" name="Convert_1527" type="Convert" version="opset1">
			<data destination_type="f32" />
			<input>
				<port id="0" precision="I4" />
			</input>
			<output>
				<port id="1" precision="FP32" />
			</output>
		</layer>
		<layer id="51" name="Subtract_1529" type="Subtract" version="opset1">
			<data auto_broadcast="numpy" />
			<input>
				<port id="0" precision="FP32">
					<dim>1</dim>
					<dim>16</dim>
					<dim>320</dim>
					<dim>320</dim>
				</port>
				<port id="1" precision="FP32" />
			</input>
			<output>
				<port id="2" precision="FP32">
					<dim>1</dim>
					<dim>16</dim>
					<dim>320</dim>
					<dim>320</dim>
				</port>
			</output>
		</layer>
		<layer id="52" name="Constant_19633" type="Const" version="opset1">
			<data element_type="f32" shape="1, 1, 1, 1" offset="67563" size="4" />
			<output>
				<port id="0" precision="FP32">
					<dim>1</dim>
					<dim>1</dim>
					<dim>1</dim>
					<dim>1</dim>
				</port>
			</output>
		</layer>
		<layer id="53" name="/model.0/act/Sigmoid_output_0_DequantizeLinear" type="Multiply" version="opset1">
			<data auto_broadcast="numpy" />
			<input>
				<port id="0" precision="FP32">
					<dim>1</dim>
					<dim>16</dim>
					<dim>320</dim>
					<dim>320</dim>
				</port>
				<port id="1" precision="FP32">
					<dim>1</dim>
					<dim>1</dim>
					<dim>1</dim>
					<dim>1</dim>
				</port>
			</input>
			<output>
				<port id="2" precision="FP32" names="/model.0/act/Sigmoid_output_0_DequantizeLinear_Output">
					<dim>1</dim>
					<dim>16</dim>
					<dim>320</dim>
					<dim>320</dim>
				</port>
			</output>
		</layer>
		<layer id="54" name="/model.0/act/Mul" type="Multiply" version="opset1">
			<data auto_broadcast="numpy" />
			<input>
				<port id="0" precision="FP32">
					<dim>1</dim>
					<dim>16</dim>
					<dim>320</dim>
					<dim>320</dim>
				</port>
				<port id="1" precision="FP32">
					<dim>1</dim>
					<dim>16</dim>
					<dim>320</dim>
					<dim>320</dim>
				</port>
			</input>
			<output>
				<port id="2" precision="FP32" names="/model.0/act/Mul_output_0">
					<dim>1</dim>
					<dim>16</dim>
					<dim>320</dim>
					<dim>320</dim>
				</port>
			</output>
		</layer>
		<layer id="55" name="Constant_19634" type="Const" version="opset1">
			<data element_type="f32" shape="1, 1, 1, 1" offset="67554" size="4" />
			<output>
				<port id="0" precision="FP32">
					<dim>1</dim>
					<dim>1</dim>
					<dim>1</dim>
					<dim>1</dim>
				</port>
			</output>
		</layer>
		<layer id="56" name="Constant_19635" type="Const" version="opset1">
			<data element_type="f32" shape="1, 1, 1, 1" offset="67567" size="4" />
			<output>
				<port id="0" precision="FP32">
					<dim>1</dim>
					<dim>1</dim>
					<dim>1</dim>
					<dim>1</dim>
				</port>
			</output>
		</layer>
		<layer id="57" name="Constant_19636" type="Const" version="opset1">
			<data element_type="f32" shape="1, 1, 1, 1" offset="67208" size="4" />
			<output>
				<port id="0" precision="FP32">
					<dim>1</dim>
					<dim>1</dim>
					<dim>1</dim>
					<dim>1</dim>
				</port>
			</output>
		</layer>
		<layer id="58" name="Constant_19637" type="Const" version="opset1">
			<data element_type="f32" shape="1, 1, 1, 1" offset="67212" size="4" />
			<output>
				<port id="0" precision="FP32">
					<dim>1</dim>
					<dim>1</dim>
					<dim>1</dim>
					<dim>1</dim>
				</port>
			</output>
		</layer>
		<layer id="59" name="FakeQuantize_1541" type="FakeQuantize" version="opset1">
			<data levels="16" auto_broadcast="numpy" />
			<input>
				<port id="0" precision="FP32">
					<dim>1</dim>
					<dim>16</dim>
					<dim>320</dim>
					<dim>320</dim>
				</port>
				<port id="1" precision="FP32">
					<dim>1</dim>
					<dim>1</dim>
					<dim>1</dim>
					<dim>1</dim>
				</port>
				<port id="2" precision="FP32">
					<dim>1</dim>
					<dim>1</dim>
					<dim>1</dim>
					<dim>1</dim>
				</port>
				<port id="3" precision="FP32">
					<dim>1</dim>
					<dim>1</dim>
					<dim>1</dim>
					<dim>1</dim>
				</port>
				<port id="4" precision="FP32">
					<dim>1</dim>
					<dim>1</dim>
					<dim>1</dim>
					<dim>1</dim>
				</port>
			</input>
			<output>
				<port id="5" precision="FP32">
					<dim>1</dim>
					<dim>16</dim>
					<dim>320</dim>
					<dim>320</dim>
				</port>
			</output>
		</layer>
		<layer id="60" name="/model.0/act/Mul_output_0_QuantizeLinear" type="Convert" version="opset1">
			<data destination_type="i4" />
			<input>
				<port id="0" precision="FP32">
					<dim>1</dim>
					<dim>16</dim>
					<dim>320</dim>
					<dim>320</dim>
				</port>
			</input>
			<output>
				<port id="1" precision="I4" names="/model.0/act/Mul_output_0_QuantizeLinear_Output">
					<dim>1</dim>
					<dim>16</dim>
					<dim>320</dim>
					<dim>320</dim>
				</port>
			</output>
		</layer>
		<layer id="61" name="Convert_1545" type="Convert" version="opset1">
			<data destination_type="f32" />
			<input>
				<port id="0" precision="I4">
					<dim>1</dim>
					<dim>16</dim>
					<dim>320</dim>
					<dim>320</dim>
				</port>
			</input>
			<output>
				<port id="1" precision="FP32">
					<dim>1</dim>
					<dim>16</dim>
					<dim>320</dim>
					<dim>320</dim>
				</port>
			</output>
		</layer>
		<layer id="62" name="/model.0/act/Mul_output_0_zero_point" type="Const" version="opset1">
			<data element_type="i4" shape="" offset="67562" size="1" />
			<output>
				<port id="0" precision="I4" names="/model.0/act/Mul_output_0_zero_point" />
			</output>
		</layer>
		<layer id="63" name="Convert_1544" type="Convert" version="opset1">
			<data destination_type="f32" />
			<input>
				<port id="0" precision="I4" />
			</input>
			<output>
				<port id="1" precision="FP32" />
			</output>
		</layer>
		<layer id="64" name="Subtract_1546" type="Subtract" version="opset1">
			<data auto_broadcast="numpy" />
			<input>
				<port id="0" precision="FP32">
					<dim>1</dim>
					<dim>16</dim>
					<dim>320</dim>
					<dim>320</dim>
				</port>
				<port id="1" precision="FP32" />
			</input>
			<output>
				<port id="2" precision="FP32">
					<dim>1</dim>
					<dim>16</dim>
					<dim>320</dim>
					<dim>320</dim>
				</port>
			</output>
		</layer>
		<layer id="65" name="Constant_19638" type="Const" version="opset1">
			<data element_type="f32" shape="1, 1, 1, 1" offset="67571" size="4" />
			<output>
				<port id="0" precision="FP32">
					<dim>1</dim>
					<dim>1</dim>
					<dim>1</dim>
					<dim>1</dim>
				</port>
			</output>
		</layer>
		<layer id="66" name="/model.0/act/Mul_output_0_DequantizeLinear" type="Multiply" version="opset1">
			<data auto_broadcast="numpy" />
			<input>
				<port id="0" precision="FP32">
					<dim>1</dim>
					<dim>16</dim>
					<dim>320</dim>
					<dim>320</dim>
				</port>
				<port id="1" precision="FP32">
					<dim>1</dim>
					<dim>1</dim>
					<dim>1</dim>
					<dim>1</dim>
				</port>
			</input>
			<output>
				<port id="2" precision="FP32" names="/model.0/act/Mul_output_0_DequantizeLinear_Output">
					<dim>1</dim>
					<dim>16</dim>
					<dim>320</dim>
					<dim>320</dim>
				</port>
			</output>
		</layer>
		<layer id="67" name="model.1.conv.weight_quantized" type="Const" version="opset1">
			<data element_type="i4" shape="32, 16, 3, 3" offset="67575" size="2304" />
			<output>
				<port id="0" precision="I4" names="model.1.conv.weight_quantized">
					<dim>32</dim>
					<dim>16</dim>
					<dim>3</dim>
					<dim>3</dim>
				</port>
			</output>
		</layer>
		<layer id="68" name="Convert_862" type="Convert" version="opset1">
			<data destination_type="f32" />
			<input>
				<port id="0" precision="I4">
					<dim>32</dim>
					<dim>16</dim>
					<dim>3</dim>
					<dim>3</dim>
				</port>
			</input>
			<output>
				<port id="1" precision="FP32">
					<dim>32</dim>
					<dim>16</dim>
					<dim>3</dim>
					<dim>3</dim>
				</port>
			</output>
		</layer>
		<layer id="69" name="model.1.conv.weight_zero_point" type="Const" version="opset1">
			<data element_type="i4" shape="" offset="67437" size="1" />
			<output>
				<port id="0" precision="I4" names="model.1.conv.weight_zero_point" />
			</output>
		</layer>
		<layer id="70" name="Convert_861" type="Convert" version="opset1">
			<data destination_type="f32" />
			<input>
				<port id="0" precision="I4" />
			</input>
			<output>
				<port id="1" precision="FP32" />
			</output>
		</layer>
		<layer id="71" name="Subtract_863" type="Subtract" version="opset1">
			<data auto_broadcast="numpy" />
			<input>
				<port id="0" precision="FP32">
					<dim>32</dim>
					<dim>16</dim>
					<dim>3</dim>
					<dim>3</dim>
				</port>
				<port id="1" precision="FP32" />
			</input>
			<output>
				<port id="2" precision="FP32">
					<dim>32</dim>
					<dim>16</dim>
					<dim>3</dim>
					<dim>3</dim>
				</port>
			</output>
		</layer>
		<layer id="72" name="Constant_19639" type="Const" version="opset1">
			<data element_type="f32" shape="1, 1, 1, 1" offset="69879" size="4" />
			<output>
				<port id="0" precision="FP32">
					<dim>1</dim>
					<dim>1</dim>
					<dim>1</dim>
					<dim>1</dim>
				</port>
			</output>
		</layer>
		<layer id="73" name="model.1.conv.weight_DequantizeLinear" type="Multiply" version="opset1">
			<data auto_broadcast="numpy" />
			<input>
				<port id="0" precision="FP32">
					<dim>32</dim>
					<dim>16</dim>
					<dim>3</dim>
					<dim>3</dim>
				</port>
				<port id="1" precision="FP32">
					<dim>1</dim>
					<dim>1</dim>
					<dim>1</dim>
					<dim>1</dim>
				</port>
			</input>
			<output>
				<port id="2" precision="FP32" names="model.1.conv.weight_DequantizeLinear_Output">
					<dim>32</dim>
					<dim>16</dim>
					<dim>3</dim>
					<dim>3</dim>
				</port>
			</output>
		</layer>
		<layer id="74" name="/model.1/conv/Conv/WithoutBiases" type="Convolution" version="opset1">
			<data strides="2, 2" dilations="1, 1" pads_begin="1, 1" pads_end="1, 1" auto_pad="explicit" />
			<input>
				<port id="0" precision="FP32">
					<dim>1</dim>
					<dim>16</dim>
					<dim>320</dim>
					<dim>320</dim>
				</port>
				<port id="1" precision="FP32">
					<dim>32</dim>
					<dim>16</dim>
					<dim>3</dim>
					<dim>3</dim>
				</port>
			</input>
			<output>
				<port id="2" precision="FP32">
					<dim>1</dim>
					<dim>32</dim>
					<dim>160</dim>
					<dim>160</dim>
				</port>
			</output>
		</layer>
		<layer id="75" name="model.1.conv.bias_quantized" type="Const" version="opset1">
			<data element_type="i32" shape="32" offset="69883" size="128" />
			<output>
				<port id="0" precision="I32" names="model.1.conv.bias_quantized">
					<dim>32</dim>
				</port>
			</output>
		</layer>
		<layer id="76" name="Convert_857" type="Convert" version="opset1">
			<data destination_type="f32" />
			<input>
				<port id="0" precision="I32">
					<dim>32</dim>
				</port>
			</input>
			<output>
				<port id="1" precision="FP32">
					<dim>32</dim>
				</port>
			</output>
		</layer>
		<layer id="77" name="model.1.conv.bias_quantized_scale" type="Const" version="opset1">
			<data element_type="f32" shape="1" offset="70011" size="4" />
			<output>
				<port id="0" precision="FP32" names="model.1.conv.bias_quantized_scale">
					<dim>1</dim>
				</port>
			</output>
		</layer>
		<layer id="78" name="model.1.conv.bias_DequantizeLinear" type="Multiply" version="opset1">
			<data auto_broadcast="numpy" />
			<input>
				<port id="0" precision="FP32">
					<dim>32</dim>
				</port>
				<port id="1" precision="FP32">
					<dim>1</dim>
				</port>
			</input>
			<output>
				<port id="2" precision="FP32" names="model.1.conv.bias">
					<dim>32</dim>
				</port>
			</output>
		</layer>
		<layer id="79" name="Concat_1558" type="Const" version="opset1">
			<data element_type="i64" shape="4" offset="70015" size="32" />
			<output>
				<port id="0" precision="I64">
					<dim>4</dim>
				</port>
			</output>
		</layer>
		<layer id="80" name="Reshape_1559" type="Reshape" version="opset1">
			<data special_zero="false" />
			<input>
				<port id="0" precision="FP32">
					<dim>32</dim>
				</port>
				<port id="1" precision="I64">
					<dim>4</dim>
				</port>
			</input>
			<output>
				<port id="2" precision="FP32">
					<dim>1</dim>
					<dim>32</dim>
					<dim>1</dim>
					<dim>1</dim>
				</port>
			</output>
		</layer>
		<layer id="81" name="/model.1/conv/Conv" type="Add" version="opset1">
			<data auto_broadcast="numpy" />
			<input>
				<port id="0" precision="FP32">
					<dim>1</dim>
					<dim>32</dim>
					<dim>160</dim>
					<dim>160</dim>
				</port>
				<port id="1" precision="FP32">
					<dim>1</dim>
					<dim>32</dim>
					<dim>1</dim>
					<dim>1</dim>
				</port>
			</input>
			<output>
				<port id="2" precision="FP32" names="/model.1/conv/Conv_output_0">
					<dim>1</dim>
					<dim>32</dim>
					<dim>160</dim>
					<dim>160</dim>
				</port>
			</output>
		</layer>
		<layer id="82" name="Constant_19640" type="Const" version="opset1">
			<data element_type="f32" shape="1, 1, 1, 1" offset="70047" size="4" />
			<output>
				<port id="0" precision="FP32">
					<dim>1</dim>
					<dim>1</dim>
					<dim>1</dim>
					<dim>1</dim>
				</port>
			</output>
		</layer>
		<layer id="83" name="Constant_19641" type="Const" version="opset1">
			<data element_type="f32" shape="1, 1, 1, 1" offset="70051" size="4" />
			<output>
				<port id="0" precision="FP32">
					<dim>1</dim>
					<dim>1</dim>
					<dim>1</dim>
					<dim>1</dim>
				</port>
			</output>
		</layer>
		<layer id="84" name="Constant_19642" type="Const" version="opset1">
			<data element_type="f32" shape="1, 1, 1, 1" offset="67208" size="4" />
			<output>
				<port id="0" precision="FP32">
					<dim>1</dim>
					<dim>1</dim>
					<dim>1</dim>
					<dim>1</dim>
				</port>
			</output>
		</layer>
		<layer id="85" name="Constant_19643" type="Const" version="opset1">
			<data element_type="f32" shape="1, 1, 1, 1" offset="67212" size="4" />
			<output>
				<port id="0" precision="FP32">
					<dim>1</dim>
					<dim>1</dim>
					<dim>1</dim>
					<dim>1</dim>
				</port>
			</output>
		</layer>
		<layer id="86" name="FakeQuantize_1570" type="FakeQuantize" version="opset1">
			<data levels="16" auto_broadcast="numpy" />
			<input>
				<port id="0" precision="FP32">
					<dim>1</dim>
					<dim>32</dim>
					<dim>160</dim>
					<dim>160</dim>
				</port>
				<port id="1" precision="FP32">
					<dim>1</dim>
					<dim>1</dim>
					<dim>1</dim>
					<dim>1</dim>
				</port>
				<port id="2" precision="FP32">
					<dim>1</dim>
					<dim>1</dim>
					<dim>1</dim>
					<dim>1</dim>
				</port>
				<port id="3" precision="FP32">
					<dim>1</dim>
					<dim>1</dim>
					<dim>1</dim>
					<dim>1</dim>
				</port>
				<port id="4" precision="FP32">
					<dim>1</dim>
					<dim>1</dim>
					<dim>1</dim>
					<dim>1</dim>
				</port>
			</input>
			<output>
				<port id="5" precision="FP32">
					<dim>1</dim>
					<dim>32</dim>
					<dim>160</dim>
					<dim>160</dim>
				</port>
			</output>
		</layer>
		<layer id="87" name="/model.1/conv/Conv_output_0_QuantizeLinear" type="Convert" version="opset1">
			<data destination_type="i4" />
			<input>
				<port id="0" precision="FP32">
					<dim>1</dim>
					<dim>32</dim>
					<dim>160</dim>
					<dim>160</dim>
				</port>
			</input>
			<output>
				<port id="1" precision="I4" names="/model.1/conv/Conv_output_0_QuantizeLinear_Output">
					<dim>1</dim>
					<dim>32</dim>
					<dim>160</dim>
					<dim>160</dim>
				</port>
			</output>
		</layer>
		<layer id="88" name="Convert_1574" type="Convert" version="opset1">
			<data destination_type="f32" />
			<input>
				<port id="0" precision="I4">
					<dim>1</dim>
					<dim>32</dim>
					<dim>160</dim>
					<dim>160</dim>
				</port>
			</input>
			<output>
				<port id="1" precision="FP32">
					<dim>1</dim>
					<dim>32</dim>
					<dim>160</dim>
					<dim>160</dim>
				</port>
			</output>
		</layer>
		<layer id="89" name="/model.1/conv/Conv_output_0_zero_point" type="Const" version="opset1">
			<data element_type="i4" shape="" offset="67437" size="1" />
			<output>
				<port id="0" precision="I4" names="/model.1/conv/Conv_output_0_zero_point" />
			</output>
		</layer>
		<layer id="90" name="Convert_1573" type="Convert" version="opset1">
			<data destination_type="f32" />
			<input>
				<port id="0" precision="I4" />
			</input>
			<output>
				<port id="1" precision="FP32" />
			</output>
		</layer>
		<layer id="91" name="Subtract_1575" type="Subtract" version="opset1">
			<data auto_broadcast="numpy" />
			<input>
				<port id="0" precision="FP32">
					<dim>1</dim>
					<dim>32</dim>
					<dim>160</dim>
					<dim>160</dim>
				</port>
				<port id="1" precision="FP32" />
			</input>
			<output>
				<port id="2" precision="FP32">
					<dim>1</dim>
					<dim>32</dim>
					<dim>160</dim>
					<dim>160</dim>
				</port>
			</output>
		</layer>
		<layer id="92" name="Constant_19644" type="Const" version="opset1">
			<data element_type="f32" shape="1, 1, 1, 1" offset="70055" size="4" />
			<output>
				<port id="0" precision="FP32">
					<dim>1</dim>
					<dim>1</dim>
					<dim>1</dim>
					<dim>1</dim>
				</port>
			</output>
		</layer>
		<layer id="93" name="/model.1/conv/Conv_output_0_DequantizeLinear" type="Multiply" version="opset1">
			<data auto_broadcast="numpy" />
			<input>
				<port id="0" precision="FP32">
					<dim>1</dim>
					<dim>32</dim>
					<dim>160</dim>
					<dim>160</dim>
				</port>
				<port id="1" precision="FP32">
					<dim>1</dim>
					<dim>1</dim>
					<dim>1</dim>
					<dim>1</dim>
				</port>
			</input>
			<output>
				<port id="2" precision="FP32" names="/model.1/conv/Conv_output_0_DequantizeLinear_Output">
					<dim>1</dim>
					<dim>32</dim>
					<dim>160</dim>
					<dim>160</dim>
				</port>
			</output>
		</layer>
		<layer id="94" name="/model.1/act/Sigmoid" type="Sigmoid" version="opset1">
			<input>
				<port id="0" precision="FP32">
					<dim>1</dim>
					<dim>32</dim>
					<dim>160</dim>
					<dim>160</dim>
				</port>
			</input>
			<output>
				<port id="1" precision="FP32" names="/model.1/act/Sigmoid_output_0">
					<dim>1</dim>
					<dim>32</dim>
					<dim>160</dim>
					<dim>160</dim>
				</port>
			</output>
		</layer>
		<layer id="95" name="Constant_19645" type="Const" version="opset1">
			<data element_type="f32" shape="1, 1, 1, 1" offset="67554" size="4" />
			<output>
				<port id="0" precision="FP32">
					<dim>1</dim>
					<dim>1</dim>
					<dim>1</dim>
					<dim>1</dim>
				</port>
			</output>
		</layer>
		<layer id="96" name="Constant_19646" type="Const" version="opset1">
			<data element_type="f32" shape="1, 1, 1, 1" offset="67558" size="4" />
			<output>
				<port id="0" precision="FP32">
					<dim>1</dim>
					<dim>1</dim>
					<dim>1</dim>
					<dim>1</dim>
				</port>
			</output>
		</layer>
		<layer id="97" name="Constant_19647" type="Const" version="opset1">
			<data element_type="f32" shape="1, 1, 1, 1" offset="67208" size="4" />
			<output>
				<port id="0" precision="FP32">
					<dim>1</dim>
					<dim>1</dim>
					<dim>1</dim>
					<dim>1</dim>
				</port>
			</output>
		</layer>
		<layer id="98" name="Constant_19648" type="Const" version="opset1">
			<data element_type="f32" shape="1, 1, 1, 1" offset="67212" size="4" />
			<output>
				<port id="0" precision="FP32">
					<dim>1</dim>
					<dim>1</dim>
					<dim>1</dim>
					<dim>1</dim>
				</port>
			</output>
		</layer>
		<layer id="99" name="FakeQuantize_1587" type="FakeQuantize" version="opset1">
			<data levels="16" auto_broadcast="numpy" />
			<input>
				<port id="0" precision="FP32">
					<dim>1</dim>
					<dim>32</dim>
					<dim>160</dim>
					<dim>160</dim>
				</port>
				<port id="1" precision="FP32">
					<dim>1</dim>
					<dim>1</dim>
					<dim>1</dim>
					<dim>1</dim>
				</port>
				<port id="2" precision="FP32">
					<dim>1</dim>
					<dim>1</dim>
					<dim>1</dim>
					<dim>1</dim>
				</port>
				<port id="3" precision="FP32">
					<dim>1</dim>
					<dim>1</dim>
					<dim>1</dim>
					<dim>1</dim>
				</port>
				<port id="4" precision="FP32">
					<dim>1</dim>
					<dim>1</dim>
					<dim>1</dim>
					<dim>1</dim>
				</port>
			</input>
			<output>
				<port id="5" precision="FP32">
					<dim>1</dim>
					<dim>32</dim>
					<dim>160</dim>
					<dim>160</dim>
				</port>
			</output>
		</layer>
		<layer id="100" name="/model.1/act/Sigmoid_output_0_QuantizeLinear" type="Convert" version="opset1">
			<data destination_type="i4" />
			<input>
				<port id="0" precision="FP32">
					<dim>1</dim>
					<dim>32</dim>
					<dim>160</dim>
					<dim>160</dim>
				</port>
			</input>
			<output>
				<port id="1" precision="I4" names="/model.1/act/Sigmoid_output_0_QuantizeLinear_Output">
					<dim>1</dim>
					<dim>32</dim>
					<dim>160</dim>
					<dim>160</dim>
				</port>
			</output>
		</layer>
		<layer id="101" name="Convert_1591" type="Convert" version="opset1">
			<data destination_type="f32" />
			<input>
				<port id="0" precision="I4">
					<dim>1</dim>
					<dim>32</dim>
					<dim>160</dim>
					<dim>160</dim>
				</port>
			</input>
			<output>
				<port id="1" precision="FP32">
					<dim>1</dim>
					<dim>32</dim>
					<dim>160</dim>
					<dim>160</dim>
				</port>
			</output>
		</layer>
		<layer id="102" name="/model.1/act/Sigmoid_output_0_zero_point" type="Const" version="opset1">
			<data element_type="i4" shape="" offset="67562" size="1" />
			<output>
				<port id="0" precision="I4" names="/model.1/act/Sigmoid_output_0_zero_point" />
			</output>
		</layer>
		<layer id="103" name="Convert_1590" type="Convert" version="opset1">
			<data destination_type="f32" />
			<input>
				<port id="0" precision="I4" />
			</input>
			<output>
				<port id="1" precision="FP32" />
			</output>
		</layer>
		<layer id="104" name="Subtract_1592" type="Subtract" version="opset1">
			<data auto_broadcast="numpy" />
			<input>
				<port id="0" precision="FP32">
					<dim>1</dim>
					<dim>32</dim>
					<dim>160</dim>
					<dim>160</dim>
				</port>
				<port id="1" precision="FP32" />
			</input>
			<output>
				<port id="2" precision="FP32">
					<dim>1</dim>
					<dim>32</dim>
					<dim>160</dim>
					<dim>160</dim>
				</port>
			</output>
		</layer>
		<layer id="105" name="Constant_19649" type="Const" version="opset1">
			<data element_type="f32" shape="1, 1, 1, 1" offset="67563" size="4" />
			<output>
				<port id="0" precision="FP32">
					<dim>1</dim>
					<dim>1</dim>
					<dim>1</dim>
					<dim>1</dim>
				</port>
			</output>
		</layer>
		<layer id="106" name="/model.1/act/Sigmoid_output_0_DequantizeLinear" type="Multiply" version="opset1">
			<data auto_broadcast="numpy" />
			<input>
				<port id="0" precision="FP32">
					<dim>1</dim>
					<dim>32</dim>
					<dim>160</dim>
					<dim>160</dim>
				</port>
				<port id="1" precision="FP32">
					<dim>1</dim>
					<dim>1</dim>
					<dim>1</dim>
					<dim>1</dim>
				</port>
			</input>
			<output>
				<port id="2" precision="FP32" names="/model.1/act/Sigmoid_output_0_DequantizeLinear_Output">
					<dim>1</dim>
					<dim>32</dim>
					<dim>160</dim>
					<dim>160</dim>
				</port>
			</output>
		</layer>
		<layer id="107" name="/model.1/act/Mul" type="Multiply" version="opset1">
			<data auto_broadcast="numpy" />
			<input>
				<port id="0" precision="FP32">
					<dim>1</dim>
					<dim>32</dim>
					<dim>160</dim>
					<dim>160</dim>
				</port>
				<port id="1" precision="FP32">
					<dim>1</dim>
					<dim>32</dim>
					<dim>160</dim>
					<dim>160</dim>
				</port>
			</input>
			<output>
				<port id="2" precision="FP32" names="/model.1/act/Mul_output_0">
					<dim>1</dim>
					<dim>32</dim>
					<dim>160</dim>
					<dim>160</dim>
				</port>
			</output>
		</layer>
		<layer id="108" name="Constant_19650" type="Const" version="opset1">
			<data element_type="f32" shape="1, 1, 1, 1" offset="67554" size="4" />
			<output>
				<port id="0" precision="FP32">
					<dim>1</dim>
					<dim>1</dim>
					<dim>1</dim>
					<dim>1</dim>
				</port>
			</output>
		</layer>
		<layer id="109" name="Constant_19651" type="Const" version="opset1">
			<data element_type="f32" shape="1, 1, 1, 1" offset="70059" size="4" />
			<output>
				<port id="0" precision="FP32">
					<dim>1</dim>
					<dim>1</dim>
					<dim>1</dim>
					<dim>1</dim>
				</port>
			</output>
		</layer>
		<layer id="110" name="Constant_19652" type="Const" version="opset1">
			<data element_type="f32" shape="1, 1, 1, 1" offset="67208" size="4" />
			<output>
				<port id="0" precision="FP32">
					<dim>1</dim>
					<dim>1</dim>
					<dim>1</dim>
					<dim>1</dim>
				</port>
			</output>
		</layer>
		<layer id="111" name="Constant_19653" type="Const" version="opset1">
			<data element_type="f32" shape="1, 1, 1, 1" offset="67212" size="4" />
			<output>
				<port id="0" precision="FP32">
					<dim>1</dim>
					<dim>1</dim>
					<dim>1</dim>
					<dim>1</dim>
				</port>
			</output>
		</layer>
		<layer id="112" name="FakeQuantize_1604" type="FakeQuantize" version="opset1">
			<data levels="16" auto_broadcast="numpy" />
			<input>
				<port id="0" precision="FP32">
					<dim>1</dim>
					<dim>32</dim>
					<dim>160</dim>
					<dim>160</dim>
				</port>
				<port id="1" precision="FP32">
					<dim>1</dim>
					<dim>1</dim>
					<dim>1</dim>
					<dim>1</dim>
				</port>
				<port id="2" precision="FP32">
					<dim>1</dim>
					<dim>1</dim>
					<dim>1</dim>
					<dim>1</dim>
				</port>
				<port id="3" precision="FP32">
					<dim>1</dim>
					<dim>1</dim>
					<dim>1</dim>
					<dim>1</dim>
				</port>
				<port id="4" precision="FP32">
					<dim>1</dim>
					<dim>1</dim>
					<dim>1</dim>
					<dim>1</dim>
				</port>
			</input>
			<output>
				<port id="5" precision="FP32">
					<dim>1</dim>
					<dim>32</dim>
					<dim>160</dim>
					<dim>160</dim>
				</port>
			</output>
		</layer>
		<layer id="113" name="/model.1/act/Mul_output_0_QuantizeLinear" type="Convert" version="opset1">
			<data destination_type="i4" />
			<input>
				<port id="0" precision="FP32">
					<dim>1</dim>
					<dim>32</dim>
					<dim>160</dim>
					<dim>160</dim>
				</port>
			</input>
			<output>
				<port id="1" precision="I4" names="/model.1/act/Mul_output_0_QuantizeLinear_Output">
					<dim>1</dim>
					<dim>32</dim>
					<dim>160</dim>
					<dim>160</dim>
				</port>
			</output>
		</layer>
		<layer id="114" name="Convert_1608" type="Convert" version="opset1">
			<data destination_type="f32" />
			<input>
				<port id="0" precision="I4">
					<dim>1</dim>
					<dim>32</dim>
					<dim>160</dim>
					<dim>160</dim>
				</port>
			</input>
			<output>
				<port id="1" precision="FP32">
					<dim>1</dim>
					<dim>32</dim>
					<dim>160</dim>
					<dim>160</dim>
				</port>
			</output>
		</layer>
		<layer id="115" name="/model.1/act/Mul_output_0_zero_point" type="Const" version="opset1">
			<data element_type="i4" shape="" offset="67562" size="1" />
			<output>
				<port id="0" precision="I4" names="/model.1/act/Mul_output_0_zero_point" />
			</output>
		</layer>
		<layer id="116" name="Convert_1607" type="Convert" version="opset1">
			<data destination_type="f32" />
			<input>
				<port id="0" precision="I4" />
			</input>
			<output>
				<port id="1" precision="FP32" />
			</output>
		</layer>
		<layer id="117" name="Subtract_1609" type="Subtract" version="opset1">
			<data auto_broadcast="numpy" />
			<input>
				<port id="0" precision="FP32">
					<dim>1</dim>
					<dim>32</dim>
					<dim>160</dim>
					<dim>160</dim>
				</port>
				<port id="1" precision="FP32" />
			</input>
			<output>
				<port id="2" precision="FP32">
					<dim>1</dim>
					<dim>32</dim>
					<dim>160</dim>
					<dim>160</dim>
				</port>
			</output>
		</layer>
		<layer id="118" name="Constant_19654" type="Const" version="opset1">
			<data element_type="f32" shape="1, 1, 1, 1" offset="70063" size="4" />
			<output>
				<port id="0" precision="FP32">
					<dim>1</dim>
					<dim>1</dim>
					<dim>1</dim>
					<dim>1</dim>
				</port>
			</output>
		</layer>
		<layer id="119" name="/model.1/act/Mul_output_0_DequantizeLinear" type="Multiply" version="opset1">
			<data auto_broadcast="numpy" />
			<input>
				<port id="0" precision="FP32">
					<dim>1</dim>
					<dim>32</dim>
					<dim>160</dim>
					<dim>160</dim>
				</port>
				<port id="1" precision="FP32">
					<dim>1</dim>
					<dim>1</dim>
					<dim>1</dim>
					<dim>1</dim>
				</port>
			</input>
			<output>
				<port id="2" precision="FP32" names="/model.1/act/Mul_output_0_DequantizeLinear_Output">
					<dim>1</dim>
					<dim>32</dim>
					<dim>160</dim>
					<dim>160</dim>
				</port>
			</output>
		</layer>
		<layer id="120" name="model.2.cv1.conv.weight_quantized" type="Const" version="opset1">
			<data element_type="i4" shape="32, 32, 1, 1" offset="70067" size="512" />
			<output>
				<port id="0" precision="I4" names="model.2.cv1.conv.weight_quantized">
					<dim>32</dim>
					<dim>32</dim>
					<dim>1</dim>
					<dim>1</dim>
				</port>
			</output>
		</layer>
		<layer id="121" name="Convert_1012" type="Convert" version="opset1">
			<data destination_type="f32" />
			<input>
				<port id="0" precision="I4">
					<dim>32</dim>
					<dim>32</dim>
					<dim>1</dim>
					<dim>1</dim>
				</port>
			</input>
			<output>
				<port id="1" precision="FP32">
					<dim>32</dim>
					<dim>32</dim>
					<dim>1</dim>
					<dim>1</dim>
				</port>
			</output>
		</layer>
		<layer id="122" name="model.2.cv1.conv.weight_zero_point" type="Const" version="opset1">
			<data element_type="i4" shape="" offset="67437" size="1" />
			<output>
				<port id="0" precision="I4" names="model.2.cv1.conv.weight_zero_point" />
			</output>
		</layer>
		<layer id="123" name="Convert_1011" type="Convert" version="opset1">
			<data destination_type="f32" />
			<input>
				<port id="0" precision="I4" />
			</input>
			<output>
				<port id="1" precision="FP32" />
			</output>
		</layer>
		<layer id="124" name="Subtract_1013" type="Subtract" version="opset1">
			<data auto_broadcast="numpy" />
			<input>
				<port id="0" precision="FP32">
					<dim>32</dim>
					<dim>32</dim>
					<dim>1</dim>
					<dim>1</dim>
				</port>
				<port id="1" precision="FP32" />
			</input>
			<output>
				<port id="2" precision="FP32">
					<dim>32</dim>
					<dim>32</dim>
					<dim>1</dim>
					<dim>1</dim>
				</port>
			</output>
		</layer>
		<layer id="125" name="Constant_19655" type="Const" version="opset1">
			<data element_type="f32" shape="1, 1, 1, 1" offset="70579" size="4" />
			<output>
				<port id="0" precision="FP32">
					<dim>1</dim>
					<dim>1</dim>
					<dim>1</dim>
					<dim>1</dim>
				</port>
			</output>
		</layer>
		<layer id="126" name="model.2.cv1.conv.weight_DequantizeLinear" type="Multiply" version="opset1">
			<data auto_broadcast="numpy" />
			<input>
				<port id="0" precision="FP32">
					<dim>32</dim>
					<dim>32</dim>
					<dim>1</dim>
					<dim>1</dim>
				</port>
				<port id="1" precision="FP32">
					<dim>1</dim>
					<dim>1</dim>
					<dim>1</dim>
					<dim>1</dim>
				</port>
			</input>
			<output>
				<port id="2" precision="FP32" names="model.2.cv1.conv.weight_DequantizeLinear_Output">
					<dim>32</dim>
					<dim>32</dim>
					<dim>1</dim>
					<dim>1</dim>
				</port>
			</output>
		</layer>
		<layer id="127" name="/model.2/cv1/conv/Conv/WithoutBiases" type="Convolution" version="opset1">
			<data strides="1, 1" dilations="1, 1" pads_begin="0, 0" pads_end="0, 0" auto_pad="explicit" />
			<input>
				<port id="0" precision="FP32">
					<dim>1</dim>
					<dim>32</dim>
					<dim>160</dim>
					<dim>160</dim>
				</port>
				<port id="1" precision="FP32">
					<dim>32</dim>
					<dim>32</dim>
					<dim>1</dim>
					<dim>1</dim>
				</port>
			</input>
			<output>
				<port id="2" precision="FP32">
					<dim>1</dim>
					<dim>32</dim>
					<dim>160</dim>
					<dim>160</dim>
				</port>
			</output>
		</layer>
		<layer id="128" name="model.2.cv1.conv.bias_quantized" type="Const" version="opset1">
			<data element_type="i32" shape="32" offset="70583" size="128" />
			<output>
				<port id="0" precision="I32" names="model.2.cv1.conv.bias_quantized">
					<dim>32</dim>
				</port>
			</output>
		</layer>
		<layer id="129" name="Convert_1007" type="Convert" version="opset1">
			<data destination_type="f32" />
			<input>
				<port id="0" precision="I32">
					<dim>32</dim>
				</port>
			</input>
			<output>
				<port id="1" precision="FP32">
					<dim>32</dim>
				</port>
			</output>
		</layer>
		<layer id="130" name="model.2.cv1.conv.bias_quantized_scale" type="Const" version="opset1">
			<data element_type="f32" shape="1" offset="70711" size="4" />
			<output>
				<port id="0" precision="FP32" names="model.2.cv1.conv.bias_quantized_scale">
					<dim>1</dim>
				</port>
			</output>
		</layer>
		<layer id="131" name="model.2.cv1.conv.bias_DequantizeLinear" type="Multiply" version="opset1">
			<data auto_broadcast="numpy" />
			<input>
				<port id="0" precision="FP32">
					<dim>32</dim>
				</port>
				<port id="1" precision="FP32">
					<dim>1</dim>
				</port>
			</input>
			<output>
				<port id="2" precision="FP32" names="model.2.cv1.conv.bias">
					<dim>32</dim>
				</port>
			</output>
		</layer>
		<layer id="132" name="Concat_1621" type="Const" version="opset1">
			<data element_type="i64" shape="4" offset="70015" size="32" />
			<output>
				<port id="0" precision="I64">
					<dim>4</dim>
				</port>
			</output>
		</layer>
		<layer id="133" name="Reshape_1622" type="Reshape" version="opset1">
			<data special_zero="false" />
			<input>
				<port id="0" precision="FP32">
					<dim>32</dim>
				</port>
				<port id="1" precision="I64">
					<dim>4</dim>
				</port>
			</input>
			<output>
				<port id="2" precision="FP32">
					<dim>1</dim>
					<dim>32</dim>
					<dim>1</dim>
					<dim>1</dim>
				</port>
			</output>
		</layer>
		<layer id="134" name="/model.2/cv1/conv/Conv" type="Add" version="opset1">
			<data auto_broadcast="numpy" />
			<input>
				<port id="0" precision="FP32">
					<dim>1</dim>
					<dim>32</dim>
					<dim>160</dim>
					<dim>160</dim>
				</port>
				<port id="1" precision="FP32">
					<dim>1</dim>
					<dim>32</dim>
					<dim>1</dim>
					<dim>1</dim>
				</port>
			</input>
			<output>
				<port id="2" precision="FP32" names="/model.2/cv1/conv/Conv_output_0">
					<dim>1</dim>
					<dim>32</dim>
					<dim>160</dim>
					<dim>160</dim>
				</port>
			</output>
		</layer>
		<layer id="135" name="Constant_19656" type="Const" version="opset1">
			<data element_type="f32" shape="1, 1, 1, 1" offset="70715" size="4" />
			<output>
				<port id="0" precision="FP32">
					<dim>1</dim>
					<dim>1</dim>
					<dim>1</dim>
					<dim>1</dim>
				</port>
			</output>
		</layer>
		<layer id="136" name="Constant_19657" type="Const" version="opset1">
			<data element_type="f32" shape="1, 1, 1, 1" offset="70719" size="4" />
			<output>
				<port id="0" precision="FP32">
					<dim>1</dim>
					<dim>1</dim>
					<dim>1</dim>
					<dim>1</dim>
				</port>
			</output>
		</layer>
		<layer id="137" name="Constant_19658" type="Const" version="opset1">
			<data element_type="f32" shape="1, 1, 1, 1" offset="67208" size="4" />
			<output>
				<port id="0" precision="FP32">
					<dim>1</dim>
					<dim>1</dim>
					<dim>1</dim>
					<dim>1</dim>
				</port>
			</output>
		</layer>
		<layer id="138" name="Constant_19659" type="Const" version="opset1">
			<data element_type="f32" shape="1, 1, 1, 1" offset="67212" size="4" />
			<output>
				<port id="0" precision="FP32">
					<dim>1</dim>
					<dim>1</dim>
					<dim>1</dim>
					<dim>1</dim>
				</port>
			</output>
		</layer>
		<layer id="139" name="FakeQuantize_1633" type="FakeQuantize" version="opset1">
			<data levels="16" auto_broadcast="numpy" />
			<input>
				<port id="0" precision="FP32">
					<dim>1</dim>
					<dim>32</dim>
					<dim>160</dim>
					<dim>160</dim>
				</port>
				<port id="1" precision="FP32">
					<dim>1</dim>
					<dim>1</dim>
					<dim>1</dim>
					<dim>1</dim>
				</port>
				<port id="2" precision="FP32">
					<dim>1</dim>
					<dim>1</dim>
					<dim>1</dim>
					<dim>1</dim>
				</port>
				<port id="3" precision="FP32">
					<dim>1</dim>
					<dim>1</dim>
					<dim>1</dim>
					<dim>1</dim>
				</port>
				<port id="4" precision="FP32">
					<dim>1</dim>
					<dim>1</dim>
					<dim>1</dim>
					<dim>1</dim>
				</port>
			</input>
			<output>
				<port id="5" precision="FP32">
					<dim>1</dim>
					<dim>32</dim>
					<dim>160</dim>
					<dim>160</dim>
				</port>
			</output>
		</layer>
		<layer id="140" name="/model.2/cv1/conv/Conv_output_0_QuantizeLinear" type="Convert" version="opset1">
			<data destination_type="i4" />
			<input>
				<port id="0" precision="FP32">
					<dim>1</dim>
					<dim>32</dim>
					<dim>160</dim>
					<dim>160</dim>
				</port>
			</input>
			<output>
				<port id="1" precision="I4" names="/model.2/cv1/conv/Conv_output_0_QuantizeLinear_Output">
					<dim>1</dim>
					<dim>32</dim>
					<dim>160</dim>
					<dim>160</dim>
				</port>
			</output>
		</layer>
		<layer id="141" name="Convert_1637" type="Convert" version="opset1">
			<data destination_type="f32" />
			<input>
				<port id="0" precision="I4">
					<dim>1</dim>
					<dim>32</dim>
					<dim>160</dim>
					<dim>160</dim>
				</port>
			</input>
			<output>
				<port id="1" precision="FP32">
					<dim>1</dim>
					<dim>32</dim>
					<dim>160</dim>
					<dim>160</dim>
				</port>
			</output>
		</layer>
		<layer id="142" name="/model.2/cv1/conv/Conv_output_0_zero_point" type="Const" version="opset1">
			<data element_type="i4" shape="" offset="70723" size="1" />
			<output>
				<port id="0" precision="I4" names="/model.2/cv1/conv/Conv_output_0_zero_point" />
			</output>
		</layer>
		<layer id="143" name="Convert_1636" type="Convert" version="opset1">
			<data destination_type="f32" />
			<input>
				<port id="0" precision="I4" />
			</input>
			<output>
				<port id="1" precision="FP32" />
			</output>
		</layer>
		<layer id="144" name="Subtract_1638" type="Subtract" version="opset1">
			<data auto_broadcast="numpy" />
			<input>
				<port id="0" precision="FP32">
					<dim>1</dim>
					<dim>32</dim>
					<dim>160</dim>
					<dim>160</dim>
				</port>
				<port id="1" precision="FP32" />
			</input>
			<output>
				<port id="2" precision="FP32">
					<dim>1</dim>
					<dim>32</dim>
					<dim>160</dim>
					<dim>160</dim>
				</port>
			</output>
		</layer>
		<layer id="145" name="Constant_19660" type="Const" version="opset1">
			<data element_type="f32" shape="1, 1, 1, 1" offset="70724" size="4" />
			<output>
				<port id="0" precision="FP32">
					<dim>1</dim>
					<dim>1</dim>
					<dim>1</dim>
					<dim>1</dim>
				</port>
			</output>
		</layer>
		<layer id="146" name="/model.2/cv1/conv/Conv_output_0_DequantizeLinear" type="Multiply" version="opset1">
			<data auto_broadcast="numpy" />
			<input>
				<port id="0" precision="FP32">
					<dim>1</dim>
					<dim>32</dim>
					<dim>160</dim>
					<dim>160</dim>
				</port>
				<port id="1" precision="FP32">
					<dim>1</dim>
					<dim>1</dim>
					<dim>1</dim>
					<dim>1</dim>
				</port>
			</input>
			<output>
				<port id="2" precision="FP32" names="/model.2/cv1/conv/Conv_output_0_DequantizeLinear_Output">
					<dim>1</dim>
					<dim>32</dim>
					<dim>160</dim>
					<dim>160</dim>
				</port>
			</output>
		</layer>
		<layer id="147" name="/model.2/cv1/act/Sigmoid" type="Sigmoid" version="opset1">
			<input>
				<port id="0" precision="FP32">
					<dim>1</dim>
					<dim>32</dim>
					<dim>160</dim>
					<dim>160</dim>
				</port>
			</input>
			<output>
				<port id="1" precision="FP32" names="/model.2/cv1/act/Sigmoid_output_0">
					<dim>1</dim>
					<dim>32</dim>
					<dim>160</dim>
					<dim>160</dim>
				</port>
			</output>
		</layer>
		<layer id="148" name="Constant_19661" type="Const" version="opset1">
			<data element_type="f32" shape="1, 1, 1, 1" offset="67554" size="4" />
			<output>
				<port id="0" precision="FP32">
					<dim>1</dim>
					<dim>1</dim>
					<dim>1</dim>
					<dim>1</dim>
				</port>
			</output>
		</layer>
		<layer id="149" name="Constant_19662" type="Const" version="opset1">
			<data element_type="f32" shape="1, 1, 1, 1" offset="67558" size="4" />
			<output>
				<port id="0" precision="FP32">
					<dim>1</dim>
					<dim>1</dim>
					<dim>1</dim>
					<dim>1</dim>
				</port>
			</output>
		</layer>
		<layer id="150" name="Constant_19663" type="Const" version="opset1">
			<data element_type="f32" shape="1, 1, 1, 1" offset="67208" size="4" />
			<output>
				<port id="0" precision="FP32">
					<dim>1</dim>
					<dim>1</dim>
					<dim>1</dim>
					<dim>1</dim>
				</port>
			</output>
		</layer>
		<layer id="151" name="Constant_19664" type="Const" version="opset1">
			<data element_type="f32" shape="1, 1, 1, 1" offset="67212" size="4" />
			<output>
				<port id="0" precision="FP32">
					<dim>1</dim>
					<dim>1</dim>
					<dim>1</dim>
					<dim>1</dim>
				</port>
			</output>
		</layer>
		<layer id="152" name="FakeQuantize_1650" type="FakeQuantize" version="opset1">
			<data levels="16" auto_broadcast="numpy" />
			<input>
				<port id="0" precision="FP32">
					<dim>1</dim>
					<dim>32</dim>
					<dim>160</dim>
					<dim>160</dim>
				</port>
				<port id="1" precision="FP32">
					<dim>1</dim>
					<dim>1</dim>
					<dim>1</dim>
					<dim>1</dim>
				</port>
				<port id="2" precision="FP32">
					<dim>1</dim>
					<dim>1</dim>
					<dim>1</dim>
					<dim>1</dim>
				</port>
				<port id="3" precision="FP32">
					<dim>1</dim>
					<dim>1</dim>
					<dim>1</dim>
					<dim>1</dim>
				</port>
				<port id="4" precision="FP32">
					<dim>1</dim>
					<dim>1</dim>
					<dim>1</dim>
					<dim>1</dim>
				</port>
			</input>
			<output>
				<port id="5" precision="FP32">
					<dim>1</dim>
					<dim>32</dim>
					<dim>160</dim>
					<dim>160</dim>
				</port>
			</output>
		</layer>
		<layer id="153" name="/model.2/cv1/act/Sigmoid_output_0_QuantizeLinear" type="Convert" version="opset1">
			<data destination_type="i4" />
			<input>
				<port id="0" precision="FP32">
					<dim>1</dim>
					<dim>32</dim>
					<dim>160</dim>
					<dim>160</dim>
				</port>
			</input>
			<output>
				<port id="1" precision="I4" names="/model.2/cv1/act/Sigmoid_output_0_QuantizeLinear_Output">
					<dim>1</dim>
					<dim>32</dim>
					<dim>160</dim>
					<dim>160</dim>
				</port>
			</output>
		</layer>
		<layer id="154" name="Convert_1654" type="Convert" version="opset1">
			<data destination_type="f32" />
			<input>
				<port id="0" precision="I4">
					<dim>1</dim>
					<dim>32</dim>
					<dim>160</dim>
					<dim>160</dim>
				</port>
			</input>
			<output>
				<port id="1" precision="FP32">
					<dim>1</dim>
					<dim>32</dim>
					<dim>160</dim>
					<dim>160</dim>
				</port>
			</output>
		</layer>
		<layer id="155" name="/model.2/cv1/act/Sigmoid_output_0_zero_point" type="Const" version="opset1">
			<data element_type="i4" shape="" offset="67562" size="1" />
			<output>
				<port id="0" precision="I4" names="/model.2/cv1/act/Sigmoid_output_0_zero_point" />
			</output>
		</layer>
		<layer id="156" name="Convert_1653" type="Convert" version="opset1">
			<data destination_type="f32" />
			<input>
				<port id="0" precision="I4" />
			</input>
			<output>
				<port id="1" precision="FP32" />
			</output>
		</layer>
		<layer id="157" name="Subtract_1655" type="Subtract" version="opset1">
			<data auto_broadcast="numpy" />
			<input>
				<port id="0" precision="FP32">
					<dim>1</dim>
					<dim>32</dim>
					<dim>160</dim>
					<dim>160</dim>
				</port>
				<port id="1" precision="FP32" />
			</input>
			<output>
				<port id="2" precision="FP32">
					<dim>1</dim>
					<dim>32</dim>
					<dim>160</dim>
					<dim>160</dim>
				</port>
			</output>
		</layer>
		<layer id="158" name="Constant_19665" type="Const" version="opset1">
			<data element_type="f32" shape="1, 1, 1, 1" offset="67563" size="4" />
			<output>
				<port id="0" precision="FP32">
					<dim>1</dim>
					<dim>1</dim>
					<dim>1</dim>
					<dim>1</dim>
				</port>
			</output>
		</layer>
		<layer id="159" name="/model.2/cv1/act/Sigmoid_output_0_DequantizeLinear" type="Multiply" version="opset1">
			<data auto_broadcast="numpy" />
			<input>
				<port id="0" precision="FP32">
					<dim>1</dim>
					<dim>32</dim>
					<dim>160</dim>
					<dim>160</dim>
				</port>
				<port id="1" precision="FP32">
					<dim>1</dim>
					<dim>1</dim>
					<dim>1</dim>
					<dim>1</dim>
				</port>
			</input>
			<output>
				<port id="2" precision="FP32" names="/model.2/cv1/act/Sigmoid_output_0_DequantizeLinear_Output">
					<dim>1</dim>
					<dim>32</dim>
					<dim>160</dim>
					<dim>160</dim>
				</port>
			</output>
		</layer>
		<layer id="160" name="/model.2/cv1/act/Mul" type="Multiply" version="opset1">
			<data auto_broadcast="numpy" />
			<input>
				<port id="0" precision="FP32">
					<dim>1</dim>
					<dim>32</dim>
					<dim>160</dim>
					<dim>160</dim>
				</port>
				<port id="1" precision="FP32">
					<dim>1</dim>
					<dim>32</dim>
					<dim>160</dim>
					<dim>160</dim>
				</port>
			</input>
			<output>
				<port id="2" precision="FP32" names="/model.2/cv1/act/Mul_output_0">
					<dim>1</dim>
					<dim>32</dim>
					<dim>160</dim>
					<dim>160</dim>
				</port>
			</output>
		</layer>
		<layer id="161" name="Constant_19666" type="Const" version="opset1">
			<data element_type="f32" shape="1, 1, 1, 1" offset="67554" size="4" />
			<output>
				<port id="0" precision="FP32">
					<dim>1</dim>
					<dim>1</dim>
					<dim>1</dim>
					<dim>1</dim>
				</port>
			</output>
		</layer>
		<layer id="162" name="Constant_19667" type="Const" version="opset1">
			<data element_type="f32" shape="1, 1, 1, 1" offset="70728" size="4" />
			<output>
				<port id="0" precision="FP32">
					<dim>1</dim>
					<dim>1</dim>
					<dim>1</dim>
					<dim>1</dim>
				</port>
			</output>
		</layer>
		<layer id="163" name="Constant_19668" type="Const" version="opset1">
			<data element_type="f32" shape="1, 1, 1, 1" offset="67208" size="4" />
			<output>
				<port id="0" precision="FP32">
					<dim>1</dim>
					<dim>1</dim>
					<dim>1</dim>
					<dim>1</dim>
				</port>
			</output>
		</layer>
		<layer id="164" name="Constant_19669" type="Const" version="opset1">
			<data element_type="f32" shape="1, 1, 1, 1" offset="67212" size="4" />
			<output>
				<port id="0" precision="FP32">
					<dim>1</dim>
					<dim>1</dim>
					<dim>1</dim>
					<dim>1</dim>
				</port>
			</output>
		</layer>
		<layer id="165" name="FakeQuantize_1667" type="FakeQuantize" version="opset1">
			<data levels="16" auto_broadcast="numpy" />
			<input>
				<port id="0" precision="FP32">
					<dim>1</dim>
					<dim>32</dim>
					<dim>160</dim>
					<dim>160</dim>
				</port>
				<port id="1" precision="FP32">
					<dim>1</dim>
					<dim>1</dim>
					<dim>1</dim>
					<dim>1</dim>
				</port>
				<port id="2" precision="FP32">
					<dim>1</dim>
					<dim>1</dim>
					<dim>1</dim>
					<dim>1</dim>
				</port>
				<port id="3" precision="FP32">
					<dim>1</dim>
					<dim>1</dim>
					<dim>1</dim>
					<dim>1</dim>
				</port>
				<port id="4" precision="FP32">
					<dim>1</dim>
					<dim>1</dim>
					<dim>1</dim>
					<dim>1</dim>
				</port>
			</input>
			<output>
				<port id="5" precision="FP32">
					<dim>1</dim>
					<dim>32</dim>
					<dim>160</dim>
					<dim>160</dim>
				</port>
			</output>
		</layer>
		<layer id="166" name="/model.2/cv1/act/Mul_output_0_QuantizeLinear" type="Convert" version="opset1">
			<data destination_type="i4" />
			<input>
				<port id="0" precision="FP32">
					<dim>1</dim>
					<dim>32</dim>
					<dim>160</dim>
					<dim>160</dim>
				</port>
			</input>
			<output>
				<port id="1" precision="I4" names="/model.2/cv1/act/Mul_output_0_QuantizeLinear_Output">
					<dim>1</dim>
					<dim>32</dim>
					<dim>160</dim>
					<dim>160</dim>
				</port>
			</output>
		</layer>
		<layer id="167" name="Convert_1671" type="Convert" version="opset1">
			<data destination_type="f32" />
			<input>
				<port id="0" precision="I4">
					<dim>1</dim>
					<dim>32</dim>
					<dim>160</dim>
					<dim>160</dim>
				</port>
			</input>
			<output>
				<port id="1" precision="FP32">
					<dim>1</dim>
					<dim>32</dim>
					<dim>160</dim>
					<dim>160</dim>
				</port>
			</output>
		</layer>
		<layer id="168" name="/model.2/cv1/act/Mul_output_0_zero_point" type="Const" version="opset1">
			<data element_type="i4" shape="" offset="67562" size="1" />
			<output>
				<port id="0" precision="I4" names="/model.2/cv1/act/Mul_output_0_zero_point" />
			</output>
		</layer>
		<layer id="169" name="Convert_1670" type="Convert" version="opset1">
			<data destination_type="f32" />
			<input>
				<port id="0" precision="I4" />
			</input>
			<output>
				<port id="1" precision="FP32" />
			</output>
		</layer>
		<layer id="170" name="Subtract_1672" type="Subtract" version="opset1">
			<data auto_broadcast="numpy" />
			<input>
				<port id="0" precision="FP32">
					<dim>1</dim>
					<dim>32</dim>
					<dim>160</dim>
					<dim>160</dim>
				</port>
				<port id="1" precision="FP32" />
			</input>
			<output>
				<port id="2" precision="FP32">
					<dim>1</dim>
					<dim>32</dim>
					<dim>160</dim>
					<dim>160</dim>
				</port>
			</output>
		</layer>
		<layer id="171" name="Constant_19670" type="Const" version="opset1">
			<data element_type="f32" shape="1, 1, 1, 1" offset="70732" size="4" />
			<output>
				<port id="0" precision="FP32">
					<dim>1</dim>
					<dim>1</dim>
					<dim>1</dim>
					<dim>1</dim>
				</port>
			</output>
		</layer>
		<layer id="172" name="/model.2/cv1/act/Mul_output_0_DequantizeLinear" type="Multiply" version="opset1">
			<data auto_broadcast="numpy" />
			<input>
				<port id="0" precision="FP32">
					<dim>1</dim>
					<dim>32</dim>
					<dim>160</dim>
					<dim>160</dim>
				</port>
				<port id="1" precision="FP32">
					<dim>1</dim>
					<dim>1</dim>
					<dim>1</dim>
					<dim>1</dim>
				</port>
			</input>
			<output>
				<port id="2" precision="FP32" names="/model.2/cv1/act/Mul_output_0_DequantizeLinear_Output">
					<dim>1</dim>
					<dim>32</dim>
					<dim>160</dim>
					<dim>160</dim>
				</port>
			</output>
		</layer>
		<layer id="173" name="Constant_1674" type="Const" version="opset1">
			<data element_type="i64" shape="" offset="70736" size="8" />
			<output>
				<port id="0" precision="I64" />
			</output>
		</layer>
		<layer id="174" name="Constant_1675" type="Const" version="opset1">
			<data element_type="i64" shape="2" offset="70744" size="16" />
			<output>
				<port id="0" precision="I64">
					<dim>2</dim>
				</port>
			</output>
		</layer>
		<layer id="175" name="/model.2/Split" type="VariadicSplit" version="opset1">
			<input>
				<port id="0" precision="FP32">
					<dim>1</dim>
					<dim>32</dim>
					<dim>160</dim>
					<dim>160</dim>
				</port>
				<port id="1" precision="I64" />
				<port id="2" precision="I64">
					<dim>2</dim>
				</port>
			</input>
			<output>
				<port id="3" precision="FP32" names="/model.2/Split_output_0">
					<dim>1</dim>
					<dim>16</dim>
					<dim>160</dim>
					<dim>160</dim>
				</port>
				<port id="4" precision="FP32" names="/model.2/Split_output_1">
					<dim>1</dim>
					<dim>16</dim>
					<dim>160</dim>
					<dim>160</dim>
				</port>
			</output>
		</layer>
		<layer id="176" name="Constant_19671" type="Const" version="opset1">
			<data element_type="f32" shape="1, 1, 1, 1" offset="67554" size="4" />
			<output>
				<port id="0" precision="FP32">
					<dim>1</dim>
					<dim>1</dim>
					<dim>1</dim>
					<dim>1</dim>
				</port>
			</output>
		</layer>
		<layer id="177" name="Constant_19672" type="Const" version="opset1">
			<data element_type="f32" shape="1, 1, 1, 1" offset="70728" size="4" />
			<output>
				<port id="0" precision="FP32">
					<dim>1</dim>
					<dim>1</dim>
					<dim>1</dim>
					<dim>1</dim>
				</port>
			</output>
		</layer>
		<layer id="178" name="Constant_19673" type="Const" version="opset1">
			<data element_type="f32" shape="1, 1, 1, 1" offset="67208" size="4" />
			<output>
				<port id="0" precision="FP32">
					<dim>1</dim>
					<dim>1</dim>
					<dim>1</dim>
					<dim>1</dim>
				</port>
			</output>
		</layer>
		<layer id="179" name="Constant_19674" type="Const" version="opset1">
			<data element_type="f32" shape="1, 1, 1, 1" offset="67212" size="4" />
			<output>
				<port id="0" precision="FP32">
					<dim>1</dim>
					<dim>1</dim>
					<dim>1</dim>
					<dim>1</dim>
				</port>
			</output>
		</layer>
		<layer id="180" name="FakeQuantize_1686" type="FakeQuantize" version="opset1">
			<data levels="16" auto_broadcast="numpy" />
			<input>
				<port id="0" precision="FP32">
					<dim>1</dim>
					<dim>16</dim>
					<dim>160</dim>
					<dim>160</dim>
				</port>
				<port id="1" precision="FP32">
					<dim>1</dim>
					<dim>1</dim>
					<dim>1</dim>
					<dim>1</dim>
				</port>
				<port id="2" precision="FP32">
					<dim>1</dim>
					<dim>1</dim>
					<dim>1</dim>
					<dim>1</dim>
				</port>
				<port id="3" precision="FP32">
					<dim>1</dim>
					<dim>1</dim>
					<dim>1</dim>
					<dim>1</dim>
				</port>
				<port id="4" precision="FP32">
					<dim>1</dim>
					<dim>1</dim>
					<dim>1</dim>
					<dim>1</dim>
				</port>
			</input>
			<output>
				<port id="5" precision="FP32">
					<dim>1</dim>
					<dim>16</dim>
					<dim>160</dim>
					<dim>160</dim>
				</port>
			</output>
		</layer>
		<layer id="181" name="/model.2/Split_output_0_QuantizeLinear" type="Convert" version="opset1">
			<data destination_type="i4" />
			<input>
				<port id="0" precision="FP32">
					<dim>1</dim>
					<dim>16</dim>
					<dim>160</dim>
					<dim>160</dim>
				</port>
			</input>
			<output>
				<port id="1" precision="I4" names="/model.2/Split_output_0_QuantizeLinear_Output">
					<dim>1</dim>
					<dim>16</dim>
					<dim>160</dim>
					<dim>160</dim>
				</port>
			</output>
		</layer>
		<layer id="182" name="Convert_1701" type="Convert" version="opset1">
			<data destination_type="f32" />
			<input>
				<port id="0" precision="I4">
					<dim>1</dim>
					<dim>16</dim>
					<dim>160</dim>
					<dim>160</dim>
				</port>
			</input>
			<output>
				<port id="1" precision="FP32">
					<dim>1</dim>
					<dim>16</dim>
					<dim>160</dim>
					<dim>160</dim>
				</port>
			</output>
		</layer>
		<layer id="183" name="Subtract_1702" type="Subtract" version="opset1">
			<data auto_broadcast="numpy" />
			<input>
				<port id="0" precision="FP32">
					<dim>1</dim>
					<dim>16</dim>
					<dim>160</dim>
					<dim>160</dim>
				</port>
				<port id="1" precision="FP32" />
			</input>
			<output>
				<port id="2" precision="FP32">
					<dim>1</dim>
					<dim>16</dim>
					<dim>160</dim>
					<dim>160</dim>
				</port>
			</output>
		</layer>
		<layer id="184" name="Constant_19675" type="Const" version="opset1">
			<data element_type="f32" shape="1, 1, 1, 1" offset="70732" size="4" />
			<output>
				<port id="0" precision="FP32">
					<dim>1</dim>
					<dim>1</dim>
					<dim>1</dim>
					<dim>1</dim>
				</port>
			</output>
		</layer>
		<layer id="185" name="/model.2/Split_output_0_DequantizeLinear" type="Multiply" version="opset1">
			<data auto_broadcast="numpy" />
			<input>
				<port id="0" precision="FP32">
					<dim>1</dim>
					<dim>16</dim>
					<dim>160</dim>
					<dim>160</dim>
				</port>
				<port id="1" precision="FP32">
					<dim>1</dim>
					<dim>1</dim>
					<dim>1</dim>
					<dim>1</dim>
				</port>
			</input>
			<output>
				<port id="2" precision="FP32" names="/model.2/Split_output_0_DequantizeLinear_Output">
					<dim>1</dim>
					<dim>16</dim>
					<dim>160</dim>
					<dim>160</dim>
				</port>
			</output>
		</layer>
		<layer id="186" name="Constant_19676" type="Const" version="opset1">
			<data element_type="f32" shape="1, 1, 1, 1" offset="67554" size="4" />
			<output>
				<port id="0" precision="FP32">
					<dim>1</dim>
					<dim>1</dim>
					<dim>1</dim>
					<dim>1</dim>
				</port>
			</output>
		</layer>
		<layer id="187" name="Constant_19677" type="Const" version="opset1">
			<data element_type="f32" shape="1, 1, 1, 1" offset="70728" size="4" />
			<output>
				<port id="0" precision="FP32">
					<dim>1</dim>
					<dim>1</dim>
					<dim>1</dim>
					<dim>1</dim>
				</port>
			</output>
		</layer>
		<layer id="188" name="Constant_19678" type="Const" version="opset1">
			<data element_type="f32" shape="1, 1, 1, 1" offset="67208" size="4" />
			<output>
				<port id="0" precision="FP32">
					<dim>1</dim>
					<dim>1</dim>
					<dim>1</dim>
					<dim>1</dim>
				</port>
			</output>
		</layer>
		<layer id="189" name="Constant_19679" type="Const" version="opset1">
			<data element_type="f32" shape="1, 1, 1, 1" offset="67212" size="4" />
			<output>
				<port id="0" precision="FP32">
					<dim>1</dim>
					<dim>1</dim>
					<dim>1</dim>
					<dim>1</dim>
				</port>
			</output>
		</layer>
		<layer id="190" name="FakeQuantize_1697" type="FakeQuantize" version="opset1">
			<data levels="16" auto_broadcast="numpy" />
			<input>
				<port id="0" precision="FP32">
					<dim>1</dim>
					<dim>16</dim>
					<dim>160</dim>
					<dim>160</dim>
				</port>
				<port id="1" precision="FP32">
					<dim>1</dim>
					<dim>1</dim>
					<dim>1</dim>
					<dim>1</dim>
				</port>
				<port id="2" precision="FP32">
					<dim>1</dim>
					<dim>1</dim>
					<dim>1</dim>
					<dim>1</dim>
				</port>
				<port id="3" precision="FP32">
					<dim>1</dim>
					<dim>1</dim>
					<dim>1</dim>
					<dim>1</dim>
				</port>
				<port id="4" precision="FP32">
					<dim>1</dim>
					<dim>1</dim>
					<dim>1</dim>
					<dim>1</dim>
				</port>
			</input>
			<output>
				<port id="5" precision="FP32">
					<dim>1</dim>
					<dim>16</dim>
					<dim>160</dim>
					<dim>160</dim>
				</port>
			</output>
		</layer>
		<layer id="191" name="/model.2/Split_output_1_QuantizeLinear" type="Convert" version="opset1">
			<data destination_type="i4" />
			<input>
				<port id="0" precision="FP32">
					<dim>1</dim>
					<dim>16</dim>
					<dim>160</dim>
					<dim>160</dim>
				</port>
			</input>
			<output>
				<port id="1" precision="I4" names="/model.2/Split_output_1_QuantizeLinear_Output">
					<dim>1</dim>
					<dim>16</dim>
					<dim>160</dim>
					<dim>160</dim>
				</port>
			</output>
		</layer>
		<layer id="192" name="Convert_1706" type="Convert" version="opset1">
			<data destination_type="f32" />
			<input>
				<port id="0" precision="I4">
					<dim>1</dim>
					<dim>16</dim>
					<dim>160</dim>
					<dim>160</dim>
				</port>
			</input>
			<output>
				<port id="1" precision="FP32">
					<dim>1</dim>
					<dim>16</dim>
					<dim>160</dim>
					<dim>160</dim>
				</port>
			</output>
		</layer>
		<layer id="193" name="Subtract_1707" type="Subtract" version="opset1">
			<data auto_broadcast="numpy" />
			<input>
				<port id="0" precision="FP32">
					<dim>1</dim>
					<dim>16</dim>
					<dim>160</dim>
					<dim>160</dim>
				</port>
				<port id="1" precision="FP32" />
			</input>
			<output>
				<port id="2" precision="FP32">
					<dim>1</dim>
					<dim>16</dim>
					<dim>160</dim>
					<dim>160</dim>
				</port>
			</output>
		</layer>
		<layer id="194" name="Constant_19680" type="Const" version="opset1">
			<data element_type="f32" shape="1, 1, 1, 1" offset="70732" size="4" />
			<output>
				<port id="0" precision="FP32">
					<dim>1</dim>
					<dim>1</dim>
					<dim>1</dim>
					<dim>1</dim>
				</port>
			</output>
		</layer>
		<layer id="195" name="/model.2/Split_output_1_DequantizeLinear" type="Multiply" version="opset1">
			<data auto_broadcast="numpy" />
			<input>
				<port id="0" precision="FP32">
					<dim>1</dim>
					<dim>16</dim>
					<dim>160</dim>
					<dim>160</dim>
				</port>
				<port id="1" precision="FP32">
					<dim>1</dim>
					<dim>1</dim>
					<dim>1</dim>
					<dim>1</dim>
				</port>
			</input>
			<output>
				<port id="2" precision="FP32" names="/model.2/Split_output_1_DequantizeLinear_Output">
					<dim>1</dim>
					<dim>16</dim>
					<dim>160</dim>
					<dim>160</dim>
				</port>
			</output>
		</layer>
		<layer id="196" name="model.2.m.0.cv1.conv.weight_quantized" type="Const" version="opset1">
			<data element_type="i4" shape="16, 16, 3, 3" offset="70760" size="1152" />
			<output>
				<port id="0" precision="I4" names="model.2.m.0.cv1.conv.weight_quantized">
					<dim>16</dim>
					<dim>16</dim>
					<dim>3</dim>
					<dim>3</dim>
				</port>
			</output>
		</layer>
		<layer id="197" name="Convert_1032" type="Convert" version="opset1">
			<data destination_type="f32" />
			<input>
				<port id="0" precision="I4">
					<dim>16</dim>
					<dim>16</dim>
					<dim>3</dim>
					<dim>3</dim>
				</port>
			</input>
			<output>
				<port id="1" precision="FP32">
					<dim>16</dim>
					<dim>16</dim>
					<dim>3</dim>
					<dim>3</dim>
				</port>
			</output>
		</layer>
		<layer id="198" name="model.2.m.0.cv1.conv.weight_zero_point" type="Const" version="opset1">
			<data element_type="i4" shape="" offset="67437" size="1" />
			<output>
				<port id="0" precision="I4" names="model.2.m.0.cv1.conv.weight_zero_point" />
			</output>
		</layer>
		<layer id="199" name="Convert_1031" type="Convert" version="opset1">
			<data destination_type="f32" />
			<input>
				<port id="0" precision="I4" />
			</input>
			<output>
				<port id="1" precision="FP32" />
			</output>
		</layer>
		<layer id="200" name="Subtract_1033" type="Subtract" version="opset1">
			<data auto_broadcast="numpy" />
			<input>
				<port id="0" precision="FP32">
					<dim>16</dim>
					<dim>16</dim>
					<dim>3</dim>
					<dim>3</dim>
				</port>
				<port id="1" precision="FP32" />
			</input>
			<output>
				<port id="2" precision="FP32">
					<dim>16</dim>
					<dim>16</dim>
					<dim>3</dim>
					<dim>3</dim>
				</port>
			</output>
		</layer>
		<layer id="201" name="Constant_19681" type="Const" version="opset1">
			<data element_type="f32" shape="1, 1, 1, 1" offset="71912" size="4" />
			<output>
				<port id="0" precision="FP32">
					<dim>1</dim>
					<dim>1</dim>
					<dim>1</dim>
					<dim>1</dim>
				</port>
			</output>
		</layer>
		<layer id="202" name="model.2.m.0.cv1.conv.weight_DequantizeLinear" type="Multiply" version="opset1">
			<data auto_broadcast="numpy" />
			<input>
				<port id="0" precision="FP32">
					<dim>16</dim>
					<dim>16</dim>
					<dim>3</dim>
					<dim>3</dim>
				</port>
				<port id="1" precision="FP32">
					<dim>1</dim>
					<dim>1</dim>
					<dim>1</dim>
					<dim>1</dim>
				</port>
			</input>
			<output>
				<port id="2" precision="FP32" names="model.2.m.0.cv1.conv.weight_DequantizeLinear_Output">
					<dim>16</dim>
					<dim>16</dim>
					<dim>3</dim>
					<dim>3</dim>
				</port>
			</output>
		</layer>
		<layer id="203" name="/model.2/m.0/cv1/conv/Conv/WithoutBiases" type="Convolution" version="opset1">
			<data strides="1, 1" dilations="1, 1" pads_begin="1, 1" pads_end="1, 1" auto_pad="explicit" />
			<input>
				<port id="0" precision="FP32">
					<dim>1</dim>
					<dim>16</dim>
					<dim>160</dim>
					<dim>160</dim>
				</port>
				<port id="1" precision="FP32">
					<dim>16</dim>
					<dim>16</dim>
					<dim>3</dim>
					<dim>3</dim>
				</port>
			</input>
			<output>
				<port id="2" precision="FP32">
					<dim>1</dim>
					<dim>16</dim>
					<dim>160</dim>
					<dim>160</dim>
				</port>
			</output>
		</layer>
		<layer id="204" name="model.2.m.0.cv1.conv.bias_quantized" type="Const" version="opset1">
			<data element_type="i32" shape="16" offset="71916" size="64" />
			<output>
				<port id="0" precision="I32" names="model.2.m.0.cv1.conv.bias_quantized">
					<dim>16</dim>
				</port>
			</output>
		</layer>
		<layer id="205" name="Convert_1027" type="Convert" version="opset1">
			<data destination_type="f32" />
			<input>
				<port id="0" precision="I32">
					<dim>16</dim>
				</port>
			</input>
			<output>
				<port id="1" precision="FP32">
					<dim>16</dim>
				</port>
			</output>
		</layer>
		<layer id="206" name="model.2.m.0.cv1.conv.bias_quantized_scale" type="Const" version="opset1">
			<data element_type="f32" shape="1" offset="71980" size="4" />
			<output>
				<port id="0" precision="FP32" names="model.2.m.0.cv1.conv.bias_quantized_scale">
					<dim>1</dim>
				</port>
			</output>
		</layer>
		<layer id="207" name="model.2.m.0.cv1.conv.bias_DequantizeLinear" type="Multiply" version="opset1">
			<data auto_broadcast="numpy" />
			<input>
				<port id="0" precision="FP32">
					<dim>16</dim>
				</port>
				<port id="1" precision="FP32">
					<dim>1</dim>
				</port>
			</input>
			<output>
				<port id="2" precision="FP32" names="model.2.m.0.cv1.conv.bias">
					<dim>16</dim>
				</port>
			</output>
		</layer>
		<layer id="208" name="Concat_1719" type="Const" version="opset1">
			<data element_type="i64" shape="4" offset="67510" size="32" />
			<output>
				<port id="0" precision="I64">
					<dim>4</dim>
				</port>
			</output>
		</layer>
		<layer id="209" name="Reshape_1720" type="Reshape" version="opset1">
			<data special_zero="false" />
			<input>
				<port id="0" precision="FP32">
					<dim>16</dim>
				</port>
				<port id="1" precision="I64">
					<dim>4</dim>
				</port>
			</input>
			<output>
				<port id="2" precision="FP32">
					<dim>1</dim>
					<dim>16</dim>
					<dim>1</dim>
					<dim>1</dim>
				</port>
			</output>
		</layer>
		<layer id="210" name="/model.2/m.0/cv1/conv/Conv" type="Add" version="opset1">
			<data auto_broadcast="numpy" />
			<input>
				<port id="0" precision="FP32">
					<dim>1</dim>
					<dim>16</dim>
					<dim>160</dim>
					<dim>160</dim>
				</port>
				<port id="1" precision="FP32">
					<dim>1</dim>
					<dim>16</dim>
					<dim>1</dim>
					<dim>1</dim>
				</port>
			</input>
			<output>
				<port id="2" precision="FP32" names="/model.2/m.0/cv1/conv/Conv_output_0">
					<dim>1</dim>
					<dim>16</dim>
					<dim>160</dim>
					<dim>160</dim>
				</port>
			</output>
		</layer>
		<layer id="211" name="Constant_19682" type="Const" version="opset1">
			<data element_type="f32" shape="1, 1, 1, 1" offset="71984" size="4" />
			<output>
				<port id="0" precision="FP32">
					<dim>1</dim>
					<dim>1</dim>
					<dim>1</dim>
					<dim>1</dim>
				</port>
			</output>
		</layer>
		<layer id="212" name="Constant_19683" type="Const" version="opset1">
			<data element_type="f32" shape="1, 1, 1, 1" offset="71988" size="4" />
			<output>
				<port id="0" precision="FP32">
					<dim>1</dim>
					<dim>1</dim>
					<dim>1</dim>
					<dim>1</dim>
				</port>
			</output>
		</layer>
		<layer id="213" name="Constant_19684" type="Const" version="opset1">
			<data element_type="f32" shape="1, 1, 1, 1" offset="67208" size="4" />
			<output>
				<port id="0" precision="FP32">
					<dim>1</dim>
					<dim>1</dim>
					<dim>1</dim>
					<dim>1</dim>
				</port>
			</output>
		</layer>
		<layer id="214" name="Constant_19685" type="Const" version="opset1">
			<data element_type="f32" shape="1, 1, 1, 1" offset="67212" size="4" />
			<output>
				<port id="0" precision="FP32">
					<dim>1</dim>
					<dim>1</dim>
					<dim>1</dim>
					<dim>1</dim>
				</port>
			</output>
		</layer>
		<layer id="215" name="FakeQuantize_1731" type="FakeQuantize" version="opset1">
			<data levels="16" auto_broadcast="numpy" />
			<input>
				<port id="0" precision="FP32">
					<dim>1</dim>
					<dim>16</dim>
					<dim>160</dim>
					<dim>160</dim>
				</port>
				<port id="1" precision="FP32">
					<dim>1</dim>
					<dim>1</dim>
					<dim>1</dim>
					<dim>1</dim>
				</port>
				<port id="2" precision="FP32">
					<dim>1</dim>
					<dim>1</dim>
					<dim>1</dim>
					<dim>1</dim>
				</port>
				<port id="3" precision="FP32">
					<dim>1</dim>
					<dim>1</dim>
					<dim>1</dim>
					<dim>1</dim>
				</port>
				<port id="4" precision="FP32">
					<dim>1</dim>
					<dim>1</dim>
					<dim>1</dim>
					<dim>1</dim>
				</port>
			</input>
			<output>
				<port id="5" precision="FP32">
					<dim>1</dim>
					<dim>16</dim>
					<dim>160</dim>
					<dim>160</dim>
				</port>
			</output>
		</layer>
		<layer id="216" name="/model.2/m.0/cv1/conv/Conv_output_0_QuantizeLinear" type="Convert" version="opset1">
			<data destination_type="i4" />
			<input>
				<port id="0" precision="FP32">
					<dim>1</dim>
					<dim>16</dim>
					<dim>160</dim>
					<dim>160</dim>
				</port>
			</input>
			<output>
				<port id="1" precision="I4" names="/model.2/m.0/cv1/conv/Conv_output_0_QuantizeLinear_Output">
					<dim>1</dim>
					<dim>16</dim>
					<dim>160</dim>
					<dim>160</dim>
				</port>
			</output>
		</layer>
		<layer id="217" name="Convert_1735" type="Convert" version="opset1">
			<data destination_type="f32" />
			<input>
				<port id="0" precision="I4">
					<dim>1</dim>
					<dim>16</dim>
					<dim>160</dim>
					<dim>160</dim>
				</port>
			</input>
			<output>
				<port id="1" precision="FP32">
					<dim>1</dim>
					<dim>16</dim>
					<dim>160</dim>
					<dim>160</dim>
				</port>
			</output>
		</layer>
		<layer id="218" name="/model.2/m.0/cv1/conv/Conv_output_0_zero_point" type="Const" version="opset1">
			<data element_type="i4" shape="" offset="71992" size="1" />
			<output>
				<port id="0" precision="I4" names="/model.2/m.0/cv1/conv/Conv_output_0_zero_point" />
			</output>
		</layer>
		<layer id="219" name="Convert_1734" type="Convert" version="opset1">
			<data destination_type="f32" />
			<input>
				<port id="0" precision="I4" />
			</input>
			<output>
				<port id="1" precision="FP32" />
			</output>
		</layer>
		<layer id="220" name="Subtract_1736" type="Subtract" version="opset1">
			<data auto_broadcast="numpy" />
			<input>
				<port id="0" precision="FP32">
					<dim>1</dim>
					<dim>16</dim>
					<dim>160</dim>
					<dim>160</dim>
				</port>
				<port id="1" precision="FP32" />
			</input>
			<output>
				<port id="2" precision="FP32">
					<dim>1</dim>
					<dim>16</dim>
					<dim>160</dim>
					<dim>160</dim>
				</port>
			</output>
		</layer>
		<layer id="221" name="Constant_19686" type="Const" version="opset1">
			<data element_type="f32" shape="1, 1, 1, 1" offset="71993" size="4" />
			<output>
				<port id="0" precision="FP32">
					<dim>1</dim>
					<dim>1</dim>
					<dim>1</dim>
					<dim>1</dim>
				</port>
			</output>
		</layer>
		<layer id="222" name="/model.2/m.0/cv1/conv/Conv_output_0_DequantizeLinear" type="Multiply" version="opset1">
			<data auto_broadcast="numpy" />
			<input>
				<port id="0" precision="FP32">
					<dim>1</dim>
					<dim>16</dim>
					<dim>160</dim>
					<dim>160</dim>
				</port>
				<port id="1" precision="FP32">
					<dim>1</dim>
					<dim>1</dim>
					<dim>1</dim>
					<dim>1</dim>
				</port>
			</input>
			<output>
				<port id="2" precision="FP32" names="/model.2/m.0/cv1/conv/Conv_output_0_DequantizeLinear_Output">
					<dim>1</dim>
					<dim>16</dim>
					<dim>160</dim>
					<dim>160</dim>
				</port>
			</output>
		</layer>
		<layer id="223" name="/model.2/m.0/cv1/act/Sigmoid" type="Sigmoid" version="opset1">
			<input>
				<port id="0" precision="FP32">
					<dim>1</dim>
					<dim>16</dim>
					<dim>160</dim>
					<dim>160</dim>
				</port>
			</input>
			<output>
				<port id="1" precision="FP32" names="/model.2/m.0/cv1/act/Sigmoid_output_0">
					<dim>1</dim>
					<dim>16</dim>
					<dim>160</dim>
					<dim>160</dim>
				</port>
			</output>
		</layer>
		<layer id="224" name="Constant_19687" type="Const" version="opset1">
			<data element_type="f32" shape="1, 1, 1, 1" offset="67554" size="4" />
			<output>
				<port id="0" precision="FP32">
					<dim>1</dim>
					<dim>1</dim>
					<dim>1</dim>
					<dim>1</dim>
				</port>
			</output>
		</layer>
		<layer id="225" name="Constant_19688" type="Const" version="opset1">
			<data element_type="f32" shape="1, 1, 1, 1" offset="67558" size="4" />
			<output>
				<port id="0" precision="FP32">
					<dim>1</dim>
					<dim>1</dim>
					<dim>1</dim>
					<dim>1</dim>
				</port>
			</output>
		</layer>
		<layer id="226" name="Constant_19689" type="Const" version="opset1">
			<data element_type="f32" shape="1, 1, 1, 1" offset="67208" size="4" />
			<output>
				<port id="0" precision="FP32">
					<dim>1</dim>
					<dim>1</dim>
					<dim>1</dim>
					<dim>1</dim>
				</port>
			</output>
		</layer>
		<layer id="227" name="Constant_19690" type="Const" version="opset1">
			<data element_type="f32" shape="1, 1, 1, 1" offset="67212" size="4" />
			<output>
				<port id="0" precision="FP32">
					<dim>1</dim>
					<dim>1</dim>
					<dim>1</dim>
					<dim>1</dim>
				</port>
			</output>
		</layer>
		<layer id="228" name="FakeQuantize_1748" type="FakeQuantize" version="opset1">
			<data levels="16" auto_broadcast="numpy" />
			<input>
				<port id="0" precision="FP32">
					<dim>1</dim>
					<dim>16</dim>
					<dim>160</dim>
					<dim>160</dim>
				</port>
				<port id="1" precision="FP32">
					<dim>1</dim>
					<dim>1</dim>
					<dim>1</dim>
					<dim>1</dim>
				</port>
				<port id="2" precision="FP32">
					<dim>1</dim>
					<dim>1</dim>
					<dim>1</dim>
					<dim>1</dim>
				</port>
				<port id="3" precision="FP32">
					<dim>1</dim>
					<dim>1</dim>
					<dim>1</dim>
					<dim>1</dim>
				</port>
				<port id="4" precision="FP32">
					<dim>1</dim>
					<dim>1</dim>
					<dim>1</dim>
					<dim>1</dim>
				</port>
			</input>
			<output>
				<port id="5" precision="FP32">
					<dim>1</dim>
					<dim>16</dim>
					<dim>160</dim>
					<dim>160</dim>
				</port>
			</output>
		</layer>
		<layer id="229" name="/model.2/m.0/cv1/act/Sigmoid_output_0_QuantizeLinear" type="Convert" version="opset1">
			<data destination_type="i4" />
			<input>
				<port id="0" precision="FP32">
					<dim>1</dim>
					<dim>16</dim>
					<dim>160</dim>
					<dim>160</dim>
				</port>
			</input>
			<output>
				<port id="1" precision="I4" names="/model.2/m.0/cv1/act/Sigmoid_output_0_QuantizeLinear_Output">
					<dim>1</dim>
					<dim>16</dim>
					<dim>160</dim>
					<dim>160</dim>
				</port>
			</output>
		</layer>
		<layer id="230" name="Convert_1752" type="Convert" version="opset1">
			<data destination_type="f32" />
			<input>
				<port id="0" precision="I4">
					<dim>1</dim>
					<dim>16</dim>
					<dim>160</dim>
					<dim>160</dim>
				</port>
			</input>
			<output>
				<port id="1" precision="FP32">
					<dim>1</dim>
					<dim>16</dim>
					<dim>160</dim>
					<dim>160</dim>
				</port>
			</output>
		</layer>
		<layer id="231" name="/model.2/m.0/cv1/act/Sigmoid_output_0_zero_point" type="Const" version="opset1">
			<data element_type="i4" shape="" offset="67562" size="1" />
			<output>
				<port id="0" precision="I4" names="/model.2/m.0/cv1/act/Sigmoid_output_0_zero_point" />
			</output>
		</layer>
		<layer id="232" name="Convert_1751" type="Convert" version="opset1">
			<data destination_type="f32" />
			<input>
				<port id="0" precision="I4" />
			</input>
			<output>
				<port id="1" precision="FP32" />
			</output>
		</layer>
		<layer id="233" name="Subtract_1753" type="Subtract" version="opset1">
			<data auto_broadcast="numpy" />
			<input>
				<port id="0" precision="FP32">
					<dim>1</dim>
					<dim>16</dim>
					<dim>160</dim>
					<dim>160</dim>
				</port>
				<port id="1" precision="FP32" />
			</input>
			<output>
				<port id="2" precision="FP32">
					<dim>1</dim>
					<dim>16</dim>
					<dim>160</dim>
					<dim>160</dim>
				</port>
			</output>
		</layer>
		<layer id="234" name="Constant_19691" type="Const" version="opset1">
			<data element_type="f32" shape="1, 1, 1, 1" offset="67563" size="4" />
			<output>
				<port id="0" precision="FP32">
					<dim>1</dim>
					<dim>1</dim>
					<dim>1</dim>
					<dim>1</dim>
				</port>
			</output>
		</layer>
		<layer id="235" name="/model.2/m.0/cv1/act/Sigmoid_output_0_DequantizeLinear" type="Multiply" version="opset1">
			<data auto_broadcast="numpy" />
			<input>
				<port id="0" precision="FP32">
					<dim>1</dim>
					<dim>16</dim>
					<dim>160</dim>
					<dim>160</dim>
				</port>
				<port id="1" precision="FP32">
					<dim>1</dim>
					<dim>1</dim>
					<dim>1</dim>
					<dim>1</dim>
				</port>
			</input>
			<output>
				<port id="2" precision="FP32" names="/model.2/m.0/cv1/act/Sigmoid_output_0_DequantizeLinear_Output">
					<dim>1</dim>
					<dim>16</dim>
					<dim>160</dim>
					<dim>160</dim>
				</port>
			</output>
		</layer>
		<layer id="236" name="/model.2/m.0/cv1/act/Mul" type="Multiply" version="opset1">
			<data auto_broadcast="numpy" />
			<input>
				<port id="0" precision="FP32">
					<dim>1</dim>
					<dim>16</dim>
					<dim>160</dim>
					<dim>160</dim>
				</port>
				<port id="1" precision="FP32">
					<dim>1</dim>
					<dim>16</dim>
					<dim>160</dim>
					<dim>160</dim>
				</port>
			</input>
			<output>
				<port id="2" precision="FP32" names="/model.2/m.0/cv1/act/Mul_output_0">
					<dim>1</dim>
					<dim>16</dim>
					<dim>160</dim>
					<dim>160</dim>
				</port>
			</output>
		</layer>
		<layer id="237" name="Constant_19692" type="Const" version="opset1">
			<data element_type="f32" shape="1, 1, 1, 1" offset="67554" size="4" />
			<output>
				<port id="0" precision="FP32">
					<dim>1</dim>
					<dim>1</dim>
					<dim>1</dim>
					<dim>1</dim>
				</port>
			</output>
		</layer>
		<layer id="238" name="Constant_19693" type="Const" version="opset1">
			<data element_type="f32" shape="1, 1, 1, 1" offset="71997" size="4" />
			<output>
				<port id="0" precision="FP32">
					<dim>1</dim>
					<dim>1</dim>
					<dim>1</dim>
					<dim>1</dim>
				</port>
			</output>
		</layer>
		<layer id="239" name="Constant_19694" type="Const" version="opset1">
			<data element_type="f32" shape="1, 1, 1, 1" offset="67208" size="4" />
			<output>
				<port id="0" precision="FP32">
					<dim>1</dim>
					<dim>1</dim>
					<dim>1</dim>
					<dim>1</dim>
				</port>
			</output>
		</layer>
		<layer id="240" name="Constant_19695" type="Const" version="opset1">
			<data element_type="f32" shape="1, 1, 1, 1" offset="67212" size="4" />
			<output>
				<port id="0" precision="FP32">
					<dim>1</dim>
					<dim>1</dim>
					<dim>1</dim>
					<dim>1</dim>
				</port>
			</output>
		</layer>
		<layer id="241" name="FakeQuantize_1765" type="FakeQuantize" version="opset1">
			<data levels="16" auto_broadcast="numpy" />
			<input>
				<port id="0" precision="FP32">
					<dim>1</dim>
					<dim>16</dim>
					<dim>160</dim>
					<dim>160</dim>
				</port>
				<port id="1" precision="FP32">
					<dim>1</dim>
					<dim>1</dim>
					<dim>1</dim>
					<dim>1</dim>
				</port>
				<port id="2" precision="FP32">
					<dim>1</dim>
					<dim>1</dim>
					<dim>1</dim>
					<dim>1</dim>
				</port>
				<port id="3" precision="FP32">
					<dim>1</dim>
					<dim>1</dim>
					<dim>1</dim>
					<dim>1</dim>
				</port>
				<port id="4" precision="FP32">
					<dim>1</dim>
					<dim>1</dim>
					<dim>1</dim>
					<dim>1</dim>
				</port>
			</input>
			<output>
				<port id="5" precision="FP32">
					<dim>1</dim>
					<dim>16</dim>
					<dim>160</dim>
					<dim>160</dim>
				</port>
			</output>
		</layer>
		<layer id="242" name="/model.2/m.0/cv1/act/Mul_output_0_QuantizeLinear" type="Convert" version="opset1">
			<data destination_type="i4" />
			<input>
				<port id="0" precision="FP32">
					<dim>1</dim>
					<dim>16</dim>
					<dim>160</dim>
					<dim>160</dim>
				</port>
			</input>
			<output>
				<port id="1" precision="I4" names="/model.2/m.0/cv1/act/Mul_output_0_QuantizeLinear_Output">
					<dim>1</dim>
					<dim>16</dim>
					<dim>160</dim>
					<dim>160</dim>
				</port>
			</output>
		</layer>
		<layer id="243" name="Convert_1769" type="Convert" version="opset1">
			<data destination_type="f32" />
			<input>
				<port id="0" precision="I4">
					<dim>1</dim>
					<dim>16</dim>
					<dim>160</dim>
					<dim>160</dim>
				</port>
			</input>
			<output>
				<port id="1" precision="FP32">
					<dim>1</dim>
					<dim>16</dim>
					<dim>160</dim>
					<dim>160</dim>
				</port>
			</output>
		</layer>
		<layer id="244" name="/model.2/m.0/cv1/act/Mul_output_0_zero_point" type="Const" version="opset1">
			<data element_type="i4" shape="" offset="67562" size="1" />
			<output>
				<port id="0" precision="I4" names="/model.2/m.0/cv1/act/Mul_output_0_zero_point" />
			</output>
		</layer>
		<layer id="245" name="Convert_1768" type="Convert" version="opset1">
			<data destination_type="f32" />
			<input>
				<port id="0" precision="I4" />
			</input>
			<output>
				<port id="1" precision="FP32" />
			</output>
		</layer>
		<layer id="246" name="Subtract_1770" type="Subtract" version="opset1">
			<data auto_broadcast="numpy" />
			<input>
				<port id="0" precision="FP32">
					<dim>1</dim>
					<dim>16</dim>
					<dim>160</dim>
					<dim>160</dim>
				</port>
				<port id="1" precision="FP32" />
			</input>
			<output>
				<port id="2" precision="FP32">
					<dim>1</dim>
					<dim>16</dim>
					<dim>160</dim>
					<dim>160</dim>
				</port>
			</output>
		</layer>
		<layer id="247" name="Constant_19696" type="Const" version="opset1">
			<data element_type="f32" shape="1, 1, 1, 1" offset="72001" size="4" />
			<output>
				<port id="0" precision="FP32">
					<dim>1</dim>
					<dim>1</dim>
					<dim>1</dim>
					<dim>1</dim>
				</port>
			</output>
		</layer>
		<layer id="248" name="/model.2/m.0/cv1/act/Mul_output_0_DequantizeLinear" type="Multiply" version="opset1">
			<data auto_broadcast="numpy" />
			<input>
				<port id="0" precision="FP32">
					<dim>1</dim>
					<dim>16</dim>
					<dim>160</dim>
					<dim>160</dim>
				</port>
				<port id="1" precision="FP32">
					<dim>1</dim>
					<dim>1</dim>
					<dim>1</dim>
					<dim>1</dim>
				</port>
			</input>
			<output>
				<port id="2" precision="FP32" names="/model.2/m.0/cv1/act/Mul_output_0_DequantizeLinear_Output">
					<dim>1</dim>
					<dim>16</dim>
					<dim>160</dim>
					<dim>160</dim>
				</port>
			</output>
		</layer>
		<layer id="249" name="model.2.m.0.cv2.conv.weight_quantized" type="Const" version="opset1">
			<data element_type="i4" shape="16, 16, 3, 3" offset="72005" size="1152" />
			<output>
				<port id="0" precision="I4" names="model.2.m.0.cv2.conv.weight_quantized">
					<dim>16</dim>
					<dim>16</dim>
					<dim>3</dim>
					<dim>3</dim>
				</port>
			</output>
		</layer>
		<layer id="250" name="Convert_1042" type="Convert" version="opset1">
			<data destination_type="f32" />
			<input>
				<port id="0" precision="I4">
					<dim>16</dim>
					<dim>16</dim>
					<dim>3</dim>
					<dim>3</dim>
				</port>
			</input>
			<output>
				<port id="1" precision="FP32">
					<dim>16</dim>
					<dim>16</dim>
					<dim>3</dim>
					<dim>3</dim>
				</port>
			</output>
		</layer>
		<layer id="251" name="model.2.m.0.cv2.conv.weight_zero_point" type="Const" version="opset1">
			<data element_type="i4" shape="" offset="67437" size="1" />
			<output>
				<port id="0" precision="I4" names="model.2.m.0.cv2.conv.weight_zero_point" />
			</output>
		</layer>
		<layer id="252" name="Convert_1041" type="Convert" version="opset1">
			<data destination_type="f32" />
			<input>
				<port id="0" precision="I4" />
			</input>
			<output>
				<port id="1" precision="FP32" />
			</output>
		</layer>
		<layer id="253" name="Subtract_1043" type="Subtract" version="opset1">
			<data auto_broadcast="numpy" />
			<input>
				<port id="0" precision="FP32">
					<dim>16</dim>
					<dim>16</dim>
					<dim>3</dim>
					<dim>3</dim>
				</port>
				<port id="1" precision="FP32" />
			</input>
			<output>
				<port id="2" precision="FP32">
					<dim>16</dim>
					<dim>16</dim>
					<dim>3</dim>
					<dim>3</dim>
				</port>
			</output>
		</layer>
		<layer id="254" name="Constant_19697" type="Const" version="opset1">
			<data element_type="f32" shape="1, 1, 1, 1" offset="73157" size="4" />
			<output>
				<port id="0" precision="FP32">
					<dim>1</dim>
					<dim>1</dim>
					<dim>1</dim>
					<dim>1</dim>
				</port>
			</output>
		</layer>
		<layer id="255" name="model.2.m.0.cv2.conv.weight_DequantizeLinear" type="Multiply" version="opset1">
			<data auto_broadcast="numpy" />
			<input>
				<port id="0" precision="FP32">
					<dim>16</dim>
					<dim>16</dim>
					<dim>3</dim>
					<dim>3</dim>
				</port>
				<port id="1" precision="FP32">
					<dim>1</dim>
					<dim>1</dim>
					<dim>1</dim>
					<dim>1</dim>
				</port>
			</input>
			<output>
				<port id="2" precision="FP32" names="model.2.m.0.cv2.conv.weight_DequantizeLinear_Output">
					<dim>16</dim>
					<dim>16</dim>
					<dim>3</dim>
					<dim>3</dim>
				</port>
			</output>
		</layer>
		<layer id="256" name="/model.2/m.0/cv2/conv/Conv/WithoutBiases" type="Convolution" version="opset1">
			<data strides="1, 1" dilations="1, 1" pads_begin="1, 1" pads_end="1, 1" auto_pad="explicit" />
			<input>
				<port id="0" precision="FP32">
					<dim>1</dim>
					<dim>16</dim>
					<dim>160</dim>
					<dim>160</dim>
				</port>
				<port id="1" precision="FP32">
					<dim>16</dim>
					<dim>16</dim>
					<dim>3</dim>
					<dim>3</dim>
				</port>
			</input>
			<output>
				<port id="2" precision="FP32">
					<dim>1</dim>
					<dim>16</dim>
					<dim>160</dim>
					<dim>160</dim>
				</port>
			</output>
		</layer>
		<layer id="257" name="model.2.m.0.cv2.conv.bias_quantized" type="Const" version="opset1">
			<data element_type="i32" shape="16" offset="73161" size="64" />
			<output>
				<port id="0" precision="I32" names="model.2.m.0.cv2.conv.bias_quantized">
					<dim>16</dim>
				</port>
			</output>
		</layer>
		<layer id="258" name="Convert_1037" type="Convert" version="opset1">
			<data destination_type="f32" />
			<input>
				<port id="0" precision="I32">
					<dim>16</dim>
				</port>
			</input>
			<output>
				<port id="1" precision="FP32">
					<dim>16</dim>
				</port>
			</output>
		</layer>
		<layer id="259" name="model.2.m.0.cv2.conv.bias_quantized_scale" type="Const" version="opset1">
			<data element_type="f32" shape="1" offset="73225" size="4" />
			<output>
				<port id="0" precision="FP32" names="model.2.m.0.cv2.conv.bias_quantized_scale">
					<dim>1</dim>
				</port>
			</output>
		</layer>
		<layer id="260" name="model.2.m.0.cv2.conv.bias_DequantizeLinear" type="Multiply" version="opset1">
			<data auto_broadcast="numpy" />
			<input>
				<port id="0" precision="FP32">
					<dim>16</dim>
				</port>
				<port id="1" precision="FP32">
					<dim>1</dim>
				</port>
			</input>
			<output>
				<port id="2" precision="FP32" names="model.2.m.0.cv2.conv.bias">
					<dim>16</dim>
				</port>
			</output>
		</layer>
		<layer id="261" name="Concat_1782" type="Const" version="opset1">
			<data element_type="i64" shape="4" offset="67510" size="32" />
			<output>
				<port id="0" precision="I64">
					<dim>4</dim>
				</port>
			</output>
		</layer>
		<layer id="262" name="Reshape_1783" type="Reshape" version="opset1">
			<data special_zero="false" />
			<input>
				<port id="0" precision="FP32">
					<dim>16</dim>
				</port>
				<port id="1" precision="I64">
					<dim>4</dim>
				</port>
			</input>
			<output>
				<port id="2" precision="FP32">
					<dim>1</dim>
					<dim>16</dim>
					<dim>1</dim>
					<dim>1</dim>
				</port>
			</output>
		</layer>
		<layer id="263" name="/model.2/m.0/cv2/conv/Conv" type="Add" version="opset1">
			<data auto_broadcast="numpy" />
			<input>
				<port id="0" precision="FP32">
					<dim>1</dim>
					<dim>16</dim>
					<dim>160</dim>
					<dim>160</dim>
				</port>
				<port id="1" precision="FP32">
					<dim>1</dim>
					<dim>16</dim>
					<dim>1</dim>
					<dim>1</dim>
				</port>
			</input>
			<output>
				<port id="2" precision="FP32" names="/model.2/m.0/cv2/conv/Conv_output_0">
					<dim>1</dim>
					<dim>16</dim>
					<dim>160</dim>
					<dim>160</dim>
				</port>
			</output>
		</layer>
		<layer id="264" name="Constant_19698" type="Const" version="opset1">
			<data element_type="f32" shape="1, 1, 1, 1" offset="73229" size="4" />
			<output>
				<port id="0" precision="FP32">
					<dim>1</dim>
					<dim>1</dim>
					<dim>1</dim>
					<dim>1</dim>
				</port>
			</output>
		</layer>
		<layer id="265" name="Constant_19699" type="Const" version="opset1">
			<data element_type="f32" shape="1, 1, 1, 1" offset="73233" size="4" />
			<output>
				<port id="0" precision="FP32">
					<dim>1</dim>
					<dim>1</dim>
					<dim>1</dim>
					<dim>1</dim>
				</port>
			</output>
		</layer>
		<layer id="266" name="Constant_19700" type="Const" version="opset1">
			<data element_type="f32" shape="1, 1, 1, 1" offset="67208" size="4" />
			<output>
				<port id="0" precision="FP32">
					<dim>1</dim>
					<dim>1</dim>
					<dim>1</dim>
					<dim>1</dim>
				</port>
			</output>
		</layer>
		<layer id="267" name="Constant_19701" type="Const" version="opset1">
			<data element_type="f32" shape="1, 1, 1, 1" offset="67212" size="4" />
			<output>
				<port id="0" precision="FP32">
					<dim>1</dim>
					<dim>1</dim>
					<dim>1</dim>
					<dim>1</dim>
				</port>
			</output>
		</layer>
		<layer id="268" name="FakeQuantize_1794" type="FakeQuantize" version="opset1">
			<data levels="16" auto_broadcast="numpy" />
			<input>
				<port id="0" precision="FP32">
					<dim>1</dim>
					<dim>16</dim>
					<dim>160</dim>
					<dim>160</dim>
				</port>
				<port id="1" precision="FP32">
					<dim>1</dim>
					<dim>1</dim>
					<dim>1</dim>
					<dim>1</dim>
				</port>
				<port id="2" precision="FP32">
					<dim>1</dim>
					<dim>1</dim>
					<dim>1</dim>
					<dim>1</dim>
				</port>
				<port id="3" precision="FP32">
					<dim>1</dim>
					<dim>1</dim>
					<dim>1</dim>
					<dim>1</dim>
				</port>
				<port id="4" precision="FP32">
					<dim>1</dim>
					<dim>1</dim>
					<dim>1</dim>
					<dim>1</dim>
				</port>
			</input>
			<output>
				<port id="5" precision="FP32">
					<dim>1</dim>
					<dim>16</dim>
					<dim>160</dim>
					<dim>160</dim>
				</port>
			</output>
		</layer>
		<layer id="269" name="/model.2/m.0/cv2/conv/Conv_output_0_QuantizeLinear" type="Convert" version="opset1">
			<data destination_type="i4" />
			<input>
				<port id="0" precision="FP32">
					<dim>1</dim>
					<dim>16</dim>
					<dim>160</dim>
					<dim>160</dim>
				</port>
			</input>
			<output>
				<port id="1" precision="I4" names="/model.2/m.0/cv2/conv/Conv_output_0_QuantizeLinear_Output">
					<dim>1</dim>
					<dim>16</dim>
					<dim>160</dim>
					<dim>160</dim>
				</port>
			</output>
		</layer>
		<layer id="270" name="Convert_1798" type="Convert" version="opset1">
			<data destination_type="f32" />
			<input>
				<port id="0" precision="I4">
					<dim>1</dim>
					<dim>16</dim>
					<dim>160</dim>
					<dim>160</dim>
				</port>
			</input>
			<output>
				<port id="1" precision="FP32">
					<dim>1</dim>
					<dim>16</dim>
					<dim>160</dim>
					<dim>160</dim>
				</port>
			</output>
		</layer>
		<layer id="271" name="/model.2/m.0/cv2/conv/Conv_output_0_zero_point" type="Const" version="opset1">
			<data element_type="i4" shape="" offset="73237" size="1" />
			<output>
				<port id="0" precision="I4" names="/model.2/m.0/cv2/conv/Conv_output_0_zero_point" />
			</output>
		</layer>
		<layer id="272" name="Convert_1797" type="Convert" version="opset1">
			<data destination_type="f32" />
			<input>
				<port id="0" precision="I4" />
			</input>
			<output>
				<port id="1" precision="FP32" />
			</output>
		</layer>
		<layer id="273" name="Subtract_1799" type="Subtract" version="opset1">
			<data auto_broadcast="numpy" />
			<input>
				<port id="0" precision="FP32">
					<dim>1</dim>
					<dim>16</dim>
					<dim>160</dim>
					<dim>160</dim>
				</port>
				<port id="1" precision="FP32" />
			</input>
			<output>
				<port id="2" precision="FP32">
					<dim>1</dim>
					<dim>16</dim>
					<dim>160</dim>
					<dim>160</dim>
				</port>
			</output>
		</layer>
		<layer id="274" name="Constant_19702" type="Const" version="opset1">
			<data element_type="f32" shape="1, 1, 1, 1" offset="73238" size="4" />
			<output>
				<port id="0" precision="FP32">
					<dim>1</dim>
					<dim>1</dim>
					<dim>1</dim>
					<dim>1</dim>
				</port>
			</output>
		</layer>
		<layer id="275" name="/model.2/m.0/cv2/conv/Conv_output_0_DequantizeLinear" type="Multiply" version="opset1">
			<data auto_broadcast="numpy" />
			<input>
				<port id="0" precision="FP32">
					<dim>1</dim>
					<dim>16</dim>
					<dim>160</dim>
					<dim>160</dim>
				</port>
				<port id="1" precision="FP32">
					<dim>1</dim>
					<dim>1</dim>
					<dim>1</dim>
					<dim>1</dim>
				</port>
			</input>
			<output>
				<port id="2" precision="FP32" names="/model.2/m.0/cv2/conv/Conv_output_0_DequantizeLinear_Output">
					<dim>1</dim>
					<dim>16</dim>
					<dim>160</dim>
					<dim>160</dim>
				</port>
			</output>
		</layer>
		<layer id="276" name="/model.2/m.0/cv2/act/Sigmoid" type="Sigmoid" version="opset1">
			<input>
				<port id="0" precision="FP32">
					<dim>1</dim>
					<dim>16</dim>
					<dim>160</dim>
					<dim>160</dim>
				</port>
			</input>
			<output>
				<port id="1" precision="FP32" names="/model.2/m.0/cv2/act/Sigmoid_output_0">
					<dim>1</dim>
					<dim>16</dim>
					<dim>160</dim>
					<dim>160</dim>
				</port>
			</output>
		</layer>
		<layer id="277" name="Constant_19703" type="Const" version="opset1">
			<data element_type="f32" shape="1, 1, 1, 1" offset="67554" size="4" />
			<output>
				<port id="0" precision="FP32">
					<dim>1</dim>
					<dim>1</dim>
					<dim>1</dim>
					<dim>1</dim>
				</port>
			</output>
		</layer>
		<layer id="278" name="Constant_19704" type="Const" version="opset1">
			<data element_type="f32" shape="1, 1, 1, 1" offset="67558" size="4" />
			<output>
				<port id="0" precision="FP32">
					<dim>1</dim>
					<dim>1</dim>
					<dim>1</dim>
					<dim>1</dim>
				</port>
			</output>
		</layer>
		<layer id="279" name="Constant_19705" type="Const" version="opset1">
			<data element_type="f32" shape="1, 1, 1, 1" offset="67208" size="4" />
			<output>
				<port id="0" precision="FP32">
					<dim>1</dim>
					<dim>1</dim>
					<dim>1</dim>
					<dim>1</dim>
				</port>
			</output>
		</layer>
		<layer id="280" name="Constant_19706" type="Const" version="opset1">
			<data element_type="f32" shape="1, 1, 1, 1" offset="67212" size="4" />
			<output>
				<port id="0" precision="FP32">
					<dim>1</dim>
					<dim>1</dim>
					<dim>1</dim>
					<dim>1</dim>
				</port>
			</output>
		</layer>
		<layer id="281" name="FakeQuantize_1811" type="FakeQuantize" version="opset1">
			<data levels="16" auto_broadcast="numpy" />
			<input>
				<port id="0" precision="FP32">
					<dim>1</dim>
					<dim>16</dim>
					<dim>160</dim>
					<dim>160</dim>
				</port>
				<port id="1" precision="FP32">
					<dim>1</dim>
					<dim>1</dim>
					<dim>1</dim>
					<dim>1</dim>
				</port>
				<port id="2" precision="FP32">
					<dim>1</dim>
					<dim>1</dim>
					<dim>1</dim>
					<dim>1</dim>
				</port>
				<port id="3" precision="FP32">
					<dim>1</dim>
					<dim>1</dim>
					<dim>1</dim>
					<dim>1</dim>
				</port>
				<port id="4" precision="FP32">
					<dim>1</dim>
					<dim>1</dim>
					<dim>1</dim>
					<dim>1</dim>
				</port>
			</input>
			<output>
				<port id="5" precision="FP32">
					<dim>1</dim>
					<dim>16</dim>
					<dim>160</dim>
					<dim>160</dim>
				</port>
			</output>
		</layer>
		<layer id="282" name="/model.2/m.0/cv2/act/Sigmoid_output_0_QuantizeLinear" type="Convert" version="opset1">
			<data destination_type="i4" />
			<input>
				<port id="0" precision="FP32">
					<dim>1</dim>
					<dim>16</dim>
					<dim>160</dim>
					<dim>160</dim>
				</port>
			</input>
			<output>
				<port id="1" precision="I4" names="/model.2/m.0/cv2/act/Sigmoid_output_0_QuantizeLinear_Output">
					<dim>1</dim>
					<dim>16</dim>
					<dim>160</dim>
					<dim>160</dim>
				</port>
			</output>
		</layer>
		<layer id="283" name="Convert_1815" type="Convert" version="opset1">
			<data destination_type="f32" />
			<input>
				<port id="0" precision="I4">
					<dim>1</dim>
					<dim>16</dim>
					<dim>160</dim>
					<dim>160</dim>
				</port>
			</input>
			<output>
				<port id="1" precision="FP32">
					<dim>1</dim>
					<dim>16</dim>
					<dim>160</dim>
					<dim>160</dim>
				</port>
			</output>
		</layer>
		<layer id="284" name="/model.2/m.0/cv2/act/Sigmoid_output_0_zero_point" type="Const" version="opset1">
			<data element_type="i4" shape="" offset="67562" size="1" />
			<output>
				<port id="0" precision="I4" names="/model.2/m.0/cv2/act/Sigmoid_output_0_zero_point" />
			</output>
		</layer>
		<layer id="285" name="Convert_1814" type="Convert" version="opset1">
			<data destination_type="f32" />
			<input>
				<port id="0" precision="I4" />
			</input>
			<output>
				<port id="1" precision="FP32" />
			</output>
		</layer>
		<layer id="286" name="Subtract_1816" type="Subtract" version="opset1">
			<data auto_broadcast="numpy" />
			<input>
				<port id="0" precision="FP32">
					<dim>1</dim>
					<dim>16</dim>
					<dim>160</dim>
					<dim>160</dim>
				</port>
				<port id="1" precision="FP32" />
			</input>
			<output>
				<port id="2" precision="FP32">
					<dim>1</dim>
					<dim>16</dim>
					<dim>160</dim>
					<dim>160</dim>
				</port>
			</output>
		</layer>
		<layer id="287" name="Constant_19707" type="Const" version="opset1">
			<data element_type="f32" shape="1, 1, 1, 1" offset="67563" size="4" />
			<output>
				<port id="0" precision="FP32">
					<dim>1</dim>
					<dim>1</dim>
					<dim>1</dim>
					<dim>1</dim>
				</port>
			</output>
		</layer>
		<layer id="288" name="/model.2/m.0/cv2/act/Sigmoid_output_0_DequantizeLinear" type="Multiply" version="opset1">
			<data auto_broadcast="numpy" />
			<input>
				<port id="0" precision="FP32">
					<dim>1</dim>
					<dim>16</dim>
					<dim>160</dim>
					<dim>160</dim>
				</port>
				<port id="1" precision="FP32">
					<dim>1</dim>
					<dim>1</dim>
					<dim>1</dim>
					<dim>1</dim>
				</port>
			</input>
			<output>
				<port id="2" precision="FP32" names="/model.2/m.0/cv2/act/Sigmoid_output_0_DequantizeLinear_Output">
					<dim>1</dim>
					<dim>16</dim>
					<dim>160</dim>
					<dim>160</dim>
				</port>
			</output>
		</layer>
		<layer id="289" name="/model.2/m.0/cv2/act/Mul" type="Multiply" version="opset1">
			<data auto_broadcast="numpy" />
			<input>
				<port id="0" precision="FP32">
					<dim>1</dim>
					<dim>16</dim>
					<dim>160</dim>
					<dim>160</dim>
				</port>
				<port id="1" precision="FP32">
					<dim>1</dim>
					<dim>16</dim>
					<dim>160</dim>
					<dim>160</dim>
				</port>
			</input>
			<output>
				<port id="2" precision="FP32" names="/model.2/m.0/cv2/act/Mul_output_0">
					<dim>1</dim>
					<dim>16</dim>
					<dim>160</dim>
					<dim>160</dim>
				</port>
			</output>
		</layer>
		<layer id="290" name="Constant_19708" type="Const" version="opset1">
			<data element_type="f32" shape="1, 1, 1, 1" offset="67554" size="4" />
			<output>
				<port id="0" precision="FP32">
					<dim>1</dim>
					<dim>1</dim>
					<dim>1</dim>
					<dim>1</dim>
				</port>
			</output>
		</layer>
		<layer id="291" name="Constant_19709" type="Const" version="opset1">
			<data element_type="f32" shape="1, 1, 1, 1" offset="73242" size="4" />
			<output>
				<port id="0" precision="FP32">
					<dim>1</dim>
					<dim>1</dim>
					<dim>1</dim>
					<dim>1</dim>
				</port>
			</output>
		</layer>
		<layer id="292" name="Constant_19710" type="Const" version="opset1">
			<data element_type="f32" shape="1, 1, 1, 1" offset="67208" size="4" />
			<output>
				<port id="0" precision="FP32">
					<dim>1</dim>
					<dim>1</dim>
					<dim>1</dim>
					<dim>1</dim>
				</port>
			</output>
		</layer>
		<layer id="293" name="Constant_19711" type="Const" version="opset1">
			<data element_type="f32" shape="1, 1, 1, 1" offset="67212" size="4" />
			<output>
				<port id="0" precision="FP32">
					<dim>1</dim>
					<dim>1</dim>
					<dim>1</dim>
					<dim>1</dim>
				</port>
			</output>
		</layer>
		<layer id="294" name="FakeQuantize_1828" type="FakeQuantize" version="opset1">
			<data levels="16" auto_broadcast="numpy" />
			<input>
				<port id="0" precision="FP32">
					<dim>1</dim>
					<dim>16</dim>
					<dim>160</dim>
					<dim>160</dim>
				</port>
				<port id="1" precision="FP32">
					<dim>1</dim>
					<dim>1</dim>
					<dim>1</dim>
					<dim>1</dim>
				</port>
				<port id="2" precision="FP32">
					<dim>1</dim>
					<dim>1</dim>
					<dim>1</dim>
					<dim>1</dim>
				</port>
				<port id="3" precision="FP32">
					<dim>1</dim>
					<dim>1</dim>
					<dim>1</dim>
					<dim>1</dim>
				</port>
				<port id="4" precision="FP32">
					<dim>1</dim>
					<dim>1</dim>
					<dim>1</dim>
					<dim>1</dim>
				</port>
			</input>
			<output>
				<port id="5" precision="FP32">
					<dim>1</dim>
					<dim>16</dim>
					<dim>160</dim>
					<dim>160</dim>
				</port>
			</output>
		</layer>
		<layer id="295" name="/model.2/m.0/cv2/act/Mul_output_0_QuantizeLinear" type="Convert" version="opset1">
			<data destination_type="i4" />
			<input>
				<port id="0" precision="FP32">
					<dim>1</dim>
					<dim>16</dim>
					<dim>160</dim>
					<dim>160</dim>
				</port>
			</input>
			<output>
				<port id="1" precision="I4" names="/model.2/m.0/cv2/act/Mul_output_0_QuantizeLinear_Output">
					<dim>1</dim>
					<dim>16</dim>
					<dim>160</dim>
					<dim>160</dim>
				</port>
			</output>
		</layer>
		<layer id="296" name="Convert_1832" type="Convert" version="opset1">
			<data destination_type="f32" />
			<input>
				<port id="0" precision="I4">
					<dim>1</dim>
					<dim>16</dim>
					<dim>160</dim>
					<dim>160</dim>
				</port>
			</input>
			<output>
				<port id="1" precision="FP32">
					<dim>1</dim>
					<dim>16</dim>
					<dim>160</dim>
					<dim>160</dim>
				</port>
			</output>
		</layer>
		<layer id="297" name="/model.2/m.0/cv2/act/Mul_output_0_zero_point" type="Const" version="opset1">
			<data element_type="i4" shape="" offset="67562" size="1" />
			<output>
				<port id="0" precision="I4" names="/model.2/m.0/cv2/act/Mul_output_0_zero_point" />
			</output>
		</layer>
		<layer id="298" name="Convert_1831" type="Convert" version="opset1">
			<data destination_type="f32" />
			<input>
				<port id="0" precision="I4" />
			</input>
			<output>
				<port id="1" precision="FP32" />
			</output>
		</layer>
		<layer id="299" name="Subtract_1833" type="Subtract" version="opset1">
			<data auto_broadcast="numpy" />
			<input>
				<port id="0" precision="FP32">
					<dim>1</dim>
					<dim>16</dim>
					<dim>160</dim>
					<dim>160</dim>
				</port>
				<port id="1" precision="FP32" />
			</input>
			<output>
				<port id="2" precision="FP32">
					<dim>1</dim>
					<dim>16</dim>
					<dim>160</dim>
					<dim>160</dim>
				</port>
			</output>
		</layer>
		<layer id="300" name="Constant_19712" type="Const" version="opset1">
			<data element_type="f32" shape="1, 1, 1, 1" offset="73246" size="4" />
			<output>
				<port id="0" precision="FP32">
					<dim>1</dim>
					<dim>1</dim>
					<dim>1</dim>
					<dim>1</dim>
				</port>
			</output>
		</layer>
		<layer id="301" name="/model.2/m.0/cv2/act/Mul_output_0_DequantizeLinear" type="Multiply" version="opset1">
			<data auto_broadcast="numpy" />
			<input>
				<port id="0" precision="FP32">
					<dim>1</dim>
					<dim>16</dim>
					<dim>160</dim>
					<dim>160</dim>
				</port>
				<port id="1" precision="FP32">
					<dim>1</dim>
					<dim>1</dim>
					<dim>1</dim>
					<dim>1</dim>
				</port>
			</input>
			<output>
				<port id="2" precision="FP32" names="/model.2/m.0/cv2/act/Mul_output_0_DequantizeLinear_Output">
					<dim>1</dim>
					<dim>16</dim>
					<dim>160</dim>
					<dim>160</dim>
				</port>
			</output>
		</layer>
		<layer id="302" name="/model.2/m.0/Add" type="Add" version="opset1">
			<data auto_broadcast="numpy" />
			<input>
				<port id="0" precision="FP32">
					<dim>1</dim>
					<dim>16</dim>
					<dim>160</dim>
					<dim>160</dim>
				</port>
				<port id="1" precision="FP32">
					<dim>1</dim>
					<dim>16</dim>
					<dim>160</dim>
					<dim>160</dim>
				</port>
			</input>
			<output>
				<port id="2" precision="FP32" names="/model.2/m.0/Add_output_0">
					<dim>1</dim>
					<dim>16</dim>
					<dim>160</dim>
					<dim>160</dim>
				</port>
			</output>
		</layer>
		<layer id="303" name="Constant_19713" type="Const" version="opset1">
			<data element_type="f32" shape="1, 1, 1, 1" offset="67554" size="4" />
			<output>
				<port id="0" precision="FP32">
					<dim>1</dim>
					<dim>1</dim>
					<dim>1</dim>
					<dim>1</dim>
				</port>
			</output>
		</layer>
		<layer id="304" name="Constant_19714" type="Const" version="opset1">
			<data element_type="f32" shape="1, 1, 1, 1" offset="73250" size="4" />
			<output>
				<port id="0" precision="FP32">
					<dim>1</dim>
					<dim>1</dim>
					<dim>1</dim>
					<dim>1</dim>
				</port>
			</output>
		</layer>
		<layer id="305" name="Constant_19715" type="Const" version="opset1">
			<data element_type="f32" shape="1, 1, 1, 1" offset="67208" size="4" />
			<output>
				<port id="0" precision="FP32">
					<dim>1</dim>
					<dim>1</dim>
					<dim>1</dim>
					<dim>1</dim>
				</port>
			</output>
		</layer>
		<layer id="306" name="Constant_19716" type="Const" version="opset1">
			<data element_type="f32" shape="1, 1, 1, 1" offset="67212" size="4" />
			<output>
				<port id="0" precision="FP32">
					<dim>1</dim>
					<dim>1</dim>
					<dim>1</dim>
					<dim>1</dim>
				</port>
			</output>
		</layer>
		<layer id="307" name="FakeQuantize_1845" type="FakeQuantize" version="opset1">
			<data levels="16" auto_broadcast="numpy" />
			<input>
				<port id="0" precision="FP32">
					<dim>1</dim>
					<dim>16</dim>
					<dim>160</dim>
					<dim>160</dim>
				</port>
				<port id="1" precision="FP32">
					<dim>1</dim>
					<dim>1</dim>
					<dim>1</dim>
					<dim>1</dim>
				</port>
				<port id="2" precision="FP32">
					<dim>1</dim>
					<dim>1</dim>
					<dim>1</dim>
					<dim>1</dim>
				</port>
				<port id="3" precision="FP32">
					<dim>1</dim>
					<dim>1</dim>
					<dim>1</dim>
					<dim>1</dim>
				</port>
				<port id="4" precision="FP32">
					<dim>1</dim>
					<dim>1</dim>
					<dim>1</dim>
					<dim>1</dim>
				</port>
			</input>
			<output>
				<port id="5" precision="FP32">
					<dim>1</dim>
					<dim>16</dim>
					<dim>160</dim>
					<dim>160</dim>
				</port>
			</output>
		</layer>
		<layer id="308" name="/model.2/m.0/Add_output_0_QuantizeLinear" type="Convert" version="opset1">
			<data destination_type="i4" />
			<input>
				<port id="0" precision="FP32">
					<dim>1</dim>
					<dim>16</dim>
					<dim>160</dim>
					<dim>160</dim>
				</port>
			</input>
			<output>
				<port id="1" precision="I4" names="/model.2/m.0/Add_output_0_QuantizeLinear_Output">
					<dim>1</dim>
					<dim>16</dim>
					<dim>160</dim>
					<dim>160</dim>
				</port>
			</output>
		</layer>
		<layer id="309" name="Convert_1849" type="Convert" version="opset1">
			<data destination_type="f32" />
			<input>
				<port id="0" precision="I4">
					<dim>1</dim>
					<dim>16</dim>
					<dim>160</dim>
					<dim>160</dim>
				</port>
			</input>
			<output>
				<port id="1" precision="FP32">
					<dim>1</dim>
					<dim>16</dim>
					<dim>160</dim>
					<dim>160</dim>
				</port>
			</output>
		</layer>
		<layer id="310" name="/model.2/m.0/Add_output_0_zero_point" type="Const" version="opset1">
			<data element_type="i4" shape="" offset="67562" size="1" />
			<output>
				<port id="0" precision="I4" names="/model.2/m.0/Add_output_0_zero_point" />
			</output>
		</layer>
		<layer id="311" name="Convert_1848" type="Convert" version="opset1">
			<data destination_type="f32" />
			<input>
				<port id="0" precision="I4" />
			</input>
			<output>
				<port id="1" precision="FP32" />
			</output>
		</layer>
		<layer id="312" name="Subtract_1850" type="Subtract" version="opset1">
			<data auto_broadcast="numpy" />
			<input>
				<port id="0" precision="FP32">
					<dim>1</dim>
					<dim>16</dim>
					<dim>160</dim>
					<dim>160</dim>
				</port>
				<port id="1" precision="FP32" />
			</input>
			<output>
				<port id="2" precision="FP32">
					<dim>1</dim>
					<dim>16</dim>
					<dim>160</dim>
					<dim>160</dim>
				</port>
			</output>
		</layer>
		<layer id="313" name="Constant_19717" type="Const" version="opset1">
			<data element_type="f32" shape="1, 1, 1, 1" offset="73254" size="4" />
			<output>
				<port id="0" precision="FP32">
					<dim>1</dim>
					<dim>1</dim>
					<dim>1</dim>
					<dim>1</dim>
				</port>
			</output>
		</layer>
		<layer id="314" name="/model.2/m.0/Add_output_0_DequantizeLinear" type="Multiply" version="opset1">
			<data auto_broadcast="numpy" />
			<input>
				<port id="0" precision="FP32">
					<dim>1</dim>
					<dim>16</dim>
					<dim>160</dim>
					<dim>160</dim>
				</port>
				<port id="1" precision="FP32">
					<dim>1</dim>
					<dim>1</dim>
					<dim>1</dim>
					<dim>1</dim>
				</port>
			</input>
			<output>
				<port id="2" precision="FP32" names="/model.2/m.0/Add_output_0_DequantizeLinear_Output">
					<dim>1</dim>
					<dim>16</dim>
					<dim>160</dim>
					<dim>160</dim>
				</port>
			</output>
		</layer>
		<layer id="315" name="/model.2/Concat" type="Concat" version="opset1">
			<data axis="1" />
			<input>
				<port id="0" precision="FP32">
					<dim>1</dim>
					<dim>16</dim>
					<dim>160</dim>
					<dim>160</dim>
				</port>
				<port id="1" precision="FP32">
					<dim>1</dim>
					<dim>16</dim>
					<dim>160</dim>
					<dim>160</dim>
				</port>
				<port id="2" precision="FP32">
					<dim>1</dim>
					<dim>16</dim>
					<dim>160</dim>
					<dim>160</dim>
				</port>
			</input>
			<output>
				<port id="3" precision="FP32" names="/model.2/Concat_output_0">
					<dim>1</dim>
					<dim>48</dim>
					<dim>160</dim>
					<dim>160</dim>
				</port>
			</output>
		</layer>
		<layer id="316" name="Constant_19718" type="Const" version="opset1">
			<data element_type="f32" shape="1, 1, 1, 1" offset="67554" size="4" />
			<output>
				<port id="0" precision="FP32">
					<dim>1</dim>
					<dim>1</dim>
					<dim>1</dim>
					<dim>1</dim>
				</port>
			</output>
		</layer>
		<layer id="317" name="Constant_19719" type="Const" version="opset1">
			<data element_type="f32" shape="1, 1, 1, 1" offset="73258" size="4" />
			<output>
				<port id="0" precision="FP32">
					<dim>1</dim>
					<dim>1</dim>
					<dim>1</dim>
					<dim>1</dim>
				</port>
			</output>
		</layer>
		<layer id="318" name="Constant_19720" type="Const" version="opset1">
			<data element_type="f32" shape="1, 1, 1, 1" offset="67208" size="4" />
			<output>
				<port id="0" precision="FP32">
					<dim>1</dim>
					<dim>1</dim>
					<dim>1</dim>
					<dim>1</dim>
				</port>
			</output>
		</layer>
		<layer id="319" name="Constant_19721" type="Const" version="opset1">
			<data element_type="f32" shape="1, 1, 1, 1" offset="67212" size="4" />
			<output>
				<port id="0" precision="FP32">
					<dim>1</dim>
					<dim>1</dim>
					<dim>1</dim>
					<dim>1</dim>
				</port>
			</output>
		</layer>
		<layer id="320" name="FakeQuantize_1862" type="FakeQuantize" version="opset1">
			<data levels="16" auto_broadcast="numpy" />
			<input>
				<port id="0" precision="FP32">
					<dim>1</dim>
					<dim>48</dim>
					<dim>160</dim>
					<dim>160</dim>
				</port>
				<port id="1" precision="FP32">
					<dim>1</dim>
					<dim>1</dim>
					<dim>1</dim>
					<dim>1</dim>
				</port>
				<port id="2" precision="FP32">
					<dim>1</dim>
					<dim>1</dim>
					<dim>1</dim>
					<dim>1</dim>
				</port>
				<port id="3" precision="FP32">
					<dim>1</dim>
					<dim>1</dim>
					<dim>1</dim>
					<dim>1</dim>
				</port>
				<port id="4" precision="FP32">
					<dim>1</dim>
					<dim>1</dim>
					<dim>1</dim>
					<dim>1</dim>
				</port>
			</input>
			<output>
				<port id="5" precision="FP32">
					<dim>1</dim>
					<dim>48</dim>
					<dim>160</dim>
					<dim>160</dim>
				</port>
			</output>
		</layer>
		<layer id="321" name="/model.2/Concat_output_0_QuantizeLinear" type="Convert" version="opset1">
			<data destination_type="i4" />
			<input>
				<port id="0" precision="FP32">
					<dim>1</dim>
					<dim>48</dim>
					<dim>160</dim>
					<dim>160</dim>
				</port>
			</input>
			<output>
				<port id="1" precision="I4" names="/model.2/Concat_output_0_QuantizeLinear_Output">
					<dim>1</dim>
					<dim>48</dim>
					<dim>160</dim>
					<dim>160</dim>
				</port>
			</output>
		</layer>
		<layer id="322" name="Convert_1866" type="Convert" version="opset1">
			<data destination_type="f32" />
			<input>
				<port id="0" precision="I4">
					<dim>1</dim>
					<dim>48</dim>
					<dim>160</dim>
					<dim>160</dim>
				</port>
			</input>
			<output>
				<port id="1" precision="FP32">
					<dim>1</dim>
					<dim>48</dim>
					<dim>160</dim>
					<dim>160</dim>
				</port>
			</output>
		</layer>
		<layer id="323" name="/model.2/Concat_output_0_zero_point" type="Const" version="opset1">
			<data element_type="i4" shape="" offset="67562" size="1" />
			<output>
				<port id="0" precision="I4" names="/model.2/Concat_output_0_zero_point" />
			</output>
		</layer>
		<layer id="324" name="Convert_1865" type="Convert" version="opset1">
			<data destination_type="f32" />
			<input>
				<port id="0" precision="I4" />
			</input>
			<output>
				<port id="1" precision="FP32" />
			</output>
		</layer>
		<layer id="325" name="Subtract_1867" type="Subtract" version="opset1">
			<data auto_broadcast="numpy" />
			<input>
				<port id="0" precision="FP32">
					<dim>1</dim>
					<dim>48</dim>
					<dim>160</dim>
					<dim>160</dim>
				</port>
				<port id="1" precision="FP32" />
			</input>
			<output>
				<port id="2" precision="FP32">
					<dim>1</dim>
					<dim>48</dim>
					<dim>160</dim>
					<dim>160</dim>
				</port>
			</output>
		</layer>
		<layer id="326" name="Constant_19722" type="Const" version="opset1">
			<data element_type="f32" shape="1, 1, 1, 1" offset="73262" size="4" />
			<output>
				<port id="0" precision="FP32">
					<dim>1</dim>
					<dim>1</dim>
					<dim>1</dim>
					<dim>1</dim>
				</port>
			</output>
		</layer>
		<layer id="327" name="/model.2/Concat_output_0_DequantizeLinear" type="Multiply" version="opset1">
			<data auto_broadcast="numpy" />
			<input>
				<port id="0" precision="FP32">
					<dim>1</dim>
					<dim>48</dim>
					<dim>160</dim>
					<dim>160</dim>
				</port>
				<port id="1" precision="FP32">
					<dim>1</dim>
					<dim>1</dim>
					<dim>1</dim>
					<dim>1</dim>
				</port>
			</input>
			<output>
				<port id="2" precision="FP32" names="/model.2/Concat_output_0_DequantizeLinear_Output">
					<dim>1</dim>
					<dim>48</dim>
					<dim>160</dim>
					<dim>160</dim>
				</port>
			</output>
		</layer>
		<layer id="328" name="model.2.cv2.conv.weight_quantized" type="Const" version="opset1">
			<data element_type="i4" shape="32, 48, 1, 1" offset="73266" size="768" />
			<output>
				<port id="0" precision="I4" names="model.2.cv2.conv.weight_quantized">
					<dim>32</dim>
					<dim>48</dim>
					<dim>1</dim>
					<dim>1</dim>
				</port>
			</output>
		</layer>
		<layer id="329" name="Convert_1022" type="Convert" version="opset1">
			<data destination_type="f32" />
			<input>
				<port id="0" precision="I4">
					<dim>32</dim>
					<dim>48</dim>
					<dim>1</dim>
					<dim>1</dim>
				</port>
			</input>
			<output>
				<port id="1" precision="FP32">
					<dim>32</dim>
					<dim>48</dim>
					<dim>1</dim>
					<dim>1</dim>
				</port>
			</output>
		</layer>
		<layer id="330" name="model.2.cv2.conv.weight_zero_point" type="Const" version="opset1">
			<data element_type="i4" shape="" offset="67437" size="1" />
			<output>
				<port id="0" precision="I4" names="model.2.cv2.conv.weight_zero_point" />
			</output>
		</layer>
		<layer id="331" name="Convert_1021" type="Convert" version="opset1">
			<data destination_type="f32" />
			<input>
				<port id="0" precision="I4" />
			</input>
			<output>
				<port id="1" precision="FP32" />
			</output>
		</layer>
		<layer id="332" name="Subtract_1023" type="Subtract" version="opset1">
			<data auto_broadcast="numpy" />
			<input>
				<port id="0" precision="FP32">
					<dim>32</dim>
					<dim>48</dim>
					<dim>1</dim>
					<dim>1</dim>
				</port>
				<port id="1" precision="FP32" />
			</input>
			<output>
				<port id="2" precision="FP32">
					<dim>32</dim>
					<dim>48</dim>
					<dim>1</dim>
					<dim>1</dim>
				</port>
			</output>
		</layer>
		<layer id="333" name="Constant_19723" type="Const" version="opset1">
			<data element_type="f32" shape="1, 1, 1, 1" offset="74034" size="4" />
			<output>
				<port id="0" precision="FP32">
					<dim>1</dim>
					<dim>1</dim>
					<dim>1</dim>
					<dim>1</dim>
				</port>
			</output>
		</layer>
		<layer id="334" name="model.2.cv2.conv.weight_DequantizeLinear" type="Multiply" version="opset1">
			<data auto_broadcast="numpy" />
			<input>
				<port id="0" precision="FP32">
					<dim>32</dim>
					<dim>48</dim>
					<dim>1</dim>
					<dim>1</dim>
				</port>
				<port id="1" precision="FP32">
					<dim>1</dim>
					<dim>1</dim>
					<dim>1</dim>
					<dim>1</dim>
				</port>
			</input>
			<output>
				<port id="2" precision="FP32" names="model.2.cv2.conv.weight_DequantizeLinear_Output">
					<dim>32</dim>
					<dim>48</dim>
					<dim>1</dim>
					<dim>1</dim>
				</port>
			</output>
		</layer>
		<layer id="335" name="/model.2/cv2/conv/Conv/WithoutBiases" type="Convolution" version="opset1">
			<data strides="1, 1" dilations="1, 1" pads_begin="0, 0" pads_end="0, 0" auto_pad="explicit" />
			<input>
				<port id="0" precision="FP32">
					<dim>1</dim>
					<dim>48</dim>
					<dim>160</dim>
					<dim>160</dim>
				</port>
				<port id="1" precision="FP32">
					<dim>32</dim>
					<dim>48</dim>
					<dim>1</dim>
					<dim>1</dim>
				</port>
			</input>
			<output>
				<port id="2" precision="FP32">
					<dim>1</dim>
					<dim>32</dim>
					<dim>160</dim>
					<dim>160</dim>
				</port>
			</output>
		</layer>
		<layer id="336" name="model.2.cv2.conv.bias_quantized" type="Const" version="opset1">
			<data element_type="i32" shape="32" offset="74038" size="128" />
			<output>
				<port id="0" precision="I32" names="model.2.cv2.conv.bias_quantized">
					<dim>32</dim>
				</port>
			</output>
		</layer>
		<layer id="337" name="Convert_1017" type="Convert" version="opset1">
			<data destination_type="f32" />
			<input>
				<port id="0" precision="I32">
					<dim>32</dim>
				</port>
			</input>
			<output>
				<port id="1" precision="FP32">
					<dim>32</dim>
				</port>
			</output>
		</layer>
		<layer id="338" name="model.2.cv2.conv.bias_quantized_scale" type="Const" version="opset1">
			<data element_type="f32" shape="1" offset="74166" size="4" />
			<output>
				<port id="0" precision="FP32" names="model.2.cv2.conv.bias_quantized_scale">
					<dim>1</dim>
				</port>
			</output>
		</layer>
		<layer id="339" name="model.2.cv2.conv.bias_DequantizeLinear" type="Multiply" version="opset1">
			<data auto_broadcast="numpy" />
			<input>
				<port id="0" precision="FP32">
					<dim>32</dim>
				</port>
				<port id="1" precision="FP32">
					<dim>1</dim>
				</port>
			</input>
			<output>
				<port id="2" precision="FP32" names="model.2.cv2.conv.bias">
					<dim>32</dim>
				</port>
			</output>
		</layer>
		<layer id="340" name="Concat_1879" type="Const" version="opset1">
			<data element_type="i64" shape="4" offset="70015" size="32" />
			<output>
				<port id="0" precision="I64">
					<dim>4</dim>
				</port>
			</output>
		</layer>
		<layer id="341" name="Reshape_1880" type="Reshape" version="opset1">
			<data special_zero="false" />
			<input>
				<port id="0" precision="FP32">
					<dim>32</dim>
				</port>
				<port id="1" precision="I64">
					<dim>4</dim>
				</port>
			</input>
			<output>
				<port id="2" precision="FP32">
					<dim>1</dim>
					<dim>32</dim>
					<dim>1</dim>
					<dim>1</dim>
				</port>
			</output>
		</layer>
		<layer id="342" name="/model.2/cv2/conv/Conv" type="Add" version="opset1">
			<data auto_broadcast="numpy" />
			<input>
				<port id="0" precision="FP32">
					<dim>1</dim>
					<dim>32</dim>
					<dim>160</dim>
					<dim>160</dim>
				</port>
				<port id="1" precision="FP32">
					<dim>1</dim>
					<dim>32</dim>
					<dim>1</dim>
					<dim>1</dim>
				</port>
			</input>
			<output>
				<port id="2" precision="FP32" names="/model.2/cv2/conv/Conv_output_0">
					<dim>1</dim>
					<dim>32</dim>
					<dim>160</dim>
					<dim>160</dim>
				</port>
			</output>
		</layer>
		<layer id="343" name="Constant_19724" type="Const" version="opset1">
			<data element_type="f32" shape="1, 1, 1, 1" offset="74170" size="4" />
			<output>
				<port id="0" precision="FP32">
					<dim>1</dim>
					<dim>1</dim>
					<dim>1</dim>
					<dim>1</dim>
				</port>
			</output>
		</layer>
		<layer id="344" name="Constant_19725" type="Const" version="opset1">
			<data element_type="f32" shape="1, 1, 1, 1" offset="74174" size="4" />
			<output>
				<port id="0" precision="FP32">
					<dim>1</dim>
					<dim>1</dim>
					<dim>1</dim>
					<dim>1</dim>
				</port>
			</output>
		</layer>
		<layer id="345" name="Constant_19726" type="Const" version="opset1">
			<data element_type="f32" shape="1, 1, 1, 1" offset="67208" size="4" />
			<output>
				<port id="0" precision="FP32">
					<dim>1</dim>
					<dim>1</dim>
					<dim>1</dim>
					<dim>1</dim>
				</port>
			</output>
		</layer>
		<layer id="346" name="Constant_19727" type="Const" version="opset1">
			<data element_type="f32" shape="1, 1, 1, 1" offset="67212" size="4" />
			<output>
				<port id="0" precision="FP32">
					<dim>1</dim>
					<dim>1</dim>
					<dim>1</dim>
					<dim>1</dim>
				</port>
			</output>
		</layer>
		<layer id="347" name="FakeQuantize_1891" type="FakeQuantize" version="opset1">
			<data levels="16" auto_broadcast="numpy" />
			<input>
				<port id="0" precision="FP32">
					<dim>1</dim>
					<dim>32</dim>
					<dim>160</dim>
					<dim>160</dim>
				</port>
				<port id="1" precision="FP32">
					<dim>1</dim>
					<dim>1</dim>
					<dim>1</dim>
					<dim>1</dim>
				</port>
				<port id="2" precision="FP32">
					<dim>1</dim>
					<dim>1</dim>
					<dim>1</dim>
					<dim>1</dim>
				</port>
				<port id="3" precision="FP32">
					<dim>1</dim>
					<dim>1</dim>
					<dim>1</dim>
					<dim>1</dim>
				</port>
				<port id="4" precision="FP32">
					<dim>1</dim>
					<dim>1</dim>
					<dim>1</dim>
					<dim>1</dim>
				</port>
			</input>
			<output>
				<port id="5" precision="FP32">
					<dim>1</dim>
					<dim>32</dim>
					<dim>160</dim>
					<dim>160</dim>
				</port>
			</output>
		</layer>
		<layer id="348" name="/model.2/cv2/conv/Conv_output_0_QuantizeLinear" type="Convert" version="opset1">
			<data destination_type="i4" />
			<input>
				<port id="0" precision="FP32">
					<dim>1</dim>
					<dim>32</dim>
					<dim>160</dim>
					<dim>160</dim>
				</port>
			</input>
			<output>
				<port id="1" precision="I4" names="/model.2/cv2/conv/Conv_output_0_QuantizeLinear_Output">
					<dim>1</dim>
					<dim>32</dim>
					<dim>160</dim>
					<dim>160</dim>
				</port>
			</output>
		</layer>
		<layer id="349" name="Convert_1895" type="Convert" version="opset1">
			<data destination_type="f32" />
			<input>
				<port id="0" precision="I4">
					<dim>1</dim>
					<dim>32</dim>
					<dim>160</dim>
					<dim>160</dim>
				</port>
			</input>
			<output>
				<port id="1" precision="FP32">
					<dim>1</dim>
					<dim>32</dim>
					<dim>160</dim>
					<dim>160</dim>
				</port>
			</output>
		</layer>
		<layer id="350" name="/model.2/cv2/conv/Conv_output_0_zero_point" type="Const" version="opset1">
			<data element_type="i4" shape="" offset="73237" size="1" />
			<output>
				<port id="0" precision="I4" names="/model.2/cv2/conv/Conv_output_0_zero_point" />
			</output>
		</layer>
		<layer id="351" name="Convert_1894" type="Convert" version="opset1">
			<data destination_type="f32" />
			<input>
				<port id="0" precision="I4" />
			</input>
			<output>
				<port id="1" precision="FP32" />
			</output>
		</layer>
		<layer id="352" name="Subtract_1896" type="Subtract" version="opset1">
			<data auto_broadcast="numpy" />
			<input>
				<port id="0" precision="FP32">
					<dim>1</dim>
					<dim>32</dim>
					<dim>160</dim>
					<dim>160</dim>
				</port>
				<port id="1" precision="FP32" />
			</input>
			<output>
				<port id="2" precision="FP32">
					<dim>1</dim>
					<dim>32</dim>
					<dim>160</dim>
					<dim>160</dim>
				</port>
			</output>
		</layer>
		<layer id="353" name="Constant_19728" type="Const" version="opset1">
			<data element_type="f32" shape="1, 1, 1, 1" offset="74178" size="4" />
			<output>
				<port id="0" precision="FP32">
					<dim>1</dim>
					<dim>1</dim>
					<dim>1</dim>
					<dim>1</dim>
				</port>
			</output>
		</layer>
		<layer id="354" name="/model.2/cv2/conv/Conv_output_0_DequantizeLinear" type="Multiply" version="opset1">
			<data auto_broadcast="numpy" />
			<input>
				<port id="0" precision="FP32">
					<dim>1</dim>
					<dim>32</dim>
					<dim>160</dim>
					<dim>160</dim>
				</port>
				<port id="1" precision="FP32">
					<dim>1</dim>
					<dim>1</dim>
					<dim>1</dim>
					<dim>1</dim>
				</port>
			</input>
			<output>
				<port id="2" precision="FP32" names="/model.2/cv2/conv/Conv_output_0_DequantizeLinear_Output">
					<dim>1</dim>
					<dim>32</dim>
					<dim>160</dim>
					<dim>160</dim>
				</port>
			</output>
		</layer>
		<layer id="355" name="/model.2/cv2/act/Sigmoid" type="Sigmoid" version="opset1">
			<input>
				<port id="0" precision="FP32">
					<dim>1</dim>
					<dim>32</dim>
					<dim>160</dim>
					<dim>160</dim>
				</port>
			</input>
			<output>
				<port id="1" precision="FP32" names="/model.2/cv2/act/Sigmoid_output_0">
					<dim>1</dim>
					<dim>32</dim>
					<dim>160</dim>
					<dim>160</dim>
				</port>
			</output>
		</layer>
		<layer id="356" name="Constant_19729" type="Const" version="opset1">
			<data element_type="f32" shape="1, 1, 1, 1" offset="67554" size="4" />
			<output>
				<port id="0" precision="FP32">
					<dim>1</dim>
					<dim>1</dim>
					<dim>1</dim>
					<dim>1</dim>
				</port>
			</output>
		</layer>
		<layer id="357" name="Constant_19730" type="Const" version="opset1">
			<data element_type="f32" shape="1, 1, 1, 1" offset="67558" size="4" />
			<output>
				<port id="0" precision="FP32">
					<dim>1</dim>
					<dim>1</dim>
					<dim>1</dim>
					<dim>1</dim>
				</port>
			</output>
		</layer>
		<layer id="358" name="Constant_19731" type="Const" version="opset1">
			<data element_type="f32" shape="1, 1, 1, 1" offset="67208" size="4" />
			<output>
				<port id="0" precision="FP32">
					<dim>1</dim>
					<dim>1</dim>
					<dim>1</dim>
					<dim>1</dim>
				</port>
			</output>
		</layer>
		<layer id="359" name="Constant_19732" type="Const" version="opset1">
			<data element_type="f32" shape="1, 1, 1, 1" offset="67212" size="4" />
			<output>
				<port id="0" precision="FP32">
					<dim>1</dim>
					<dim>1</dim>
					<dim>1</dim>
					<dim>1</dim>
				</port>
			</output>
		</layer>
		<layer id="360" name="FakeQuantize_1908" type="FakeQuantize" version="opset1">
			<data levels="16" auto_broadcast="numpy" />
			<input>
				<port id="0" precision="FP32">
					<dim>1</dim>
					<dim>32</dim>
					<dim>160</dim>
					<dim>160</dim>
				</port>
				<port id="1" precision="FP32">
					<dim>1</dim>
					<dim>1</dim>
					<dim>1</dim>
					<dim>1</dim>
				</port>
				<port id="2" precision="FP32">
					<dim>1</dim>
					<dim>1</dim>
					<dim>1</dim>
					<dim>1</dim>
				</port>
				<port id="3" precision="FP32">
					<dim>1</dim>
					<dim>1</dim>
					<dim>1</dim>
					<dim>1</dim>
				</port>
				<port id="4" precision="FP32">
					<dim>1</dim>
					<dim>1</dim>
					<dim>1</dim>
					<dim>1</dim>
				</port>
			</input>
			<output>
				<port id="5" precision="FP32">
					<dim>1</dim>
					<dim>32</dim>
					<dim>160</dim>
					<dim>160</dim>
				</port>
			</output>
		</layer>
		<layer id="361" name="/model.2/cv2/act/Sigmoid_output_0_QuantizeLinear" type="Convert" version="opset1">
			<data destination_type="i4" />
			<input>
				<port id="0" precision="FP32">
					<dim>1</dim>
					<dim>32</dim>
					<dim>160</dim>
					<dim>160</dim>
				</port>
			</input>
			<output>
				<port id="1" precision="I4" names="/model.2/cv2/act/Sigmoid_output_0_QuantizeLinear_Output">
					<dim>1</dim>
					<dim>32</dim>
					<dim>160</dim>
					<dim>160</dim>
				</port>
			</output>
		</layer>
		<layer id="362" name="Convert_1912" type="Convert" version="opset1">
			<data destination_type="f32" />
			<input>
				<port id="0" precision="I4">
					<dim>1</dim>
					<dim>32</dim>
					<dim>160</dim>
					<dim>160</dim>
				</port>
			</input>
			<output>
				<port id="1" precision="FP32">
					<dim>1</dim>
					<dim>32</dim>
					<dim>160</dim>
					<dim>160</dim>
				</port>
			</output>
		</layer>
		<layer id="363" name="/model.2/cv2/act/Sigmoid_output_0_zero_point" type="Const" version="opset1">
			<data element_type="i4" shape="" offset="67562" size="1" />
			<output>
				<port id="0" precision="I4" names="/model.2/cv2/act/Sigmoid_output_0_zero_point" />
			</output>
		</layer>
		<layer id="364" name="Convert_1911" type="Convert" version="opset1">
			<data destination_type="f32" />
			<input>
				<port id="0" precision="I4" />
			</input>
			<output>
				<port id="1" precision="FP32" />
			</output>
		</layer>
		<layer id="365" name="Subtract_1913" type="Subtract" version="opset1">
			<data auto_broadcast="numpy" />
			<input>
				<port id="0" precision="FP32">
					<dim>1</dim>
					<dim>32</dim>
					<dim>160</dim>
					<dim>160</dim>
				</port>
				<port id="1" precision="FP32" />
			</input>
			<output>
				<port id="2" precision="FP32">
					<dim>1</dim>
					<dim>32</dim>
					<dim>160</dim>
					<dim>160</dim>
				</port>
			</output>
		</layer>
		<layer id="366" name="Constant_19733" type="Const" version="opset1">
			<data element_type="f32" shape="1, 1, 1, 1" offset="67563" size="4" />
			<output>
				<port id="0" precision="FP32">
					<dim>1</dim>
					<dim>1</dim>
					<dim>1</dim>
					<dim>1</dim>
				</port>
			</output>
		</layer>
		<layer id="367" name="/model.2/cv2/act/Sigmoid_output_0_DequantizeLinear" type="Multiply" version="opset1">
			<data auto_broadcast="numpy" />
			<input>
…
		<edge from-layer="3375" from-port="1" to-layer="3380" to-port="0" />
		<edge from-layer="3376" from-port="0" to-layer="3380" to-port="1" />
		<edge from-layer="3377" from-port="0" to-layer="3380" to-port="2" />
		<edge from-layer="3378" from-port="0" to-layer="3380" to-port="3" />
		<edge from-layer="3379" from-port="0" to-layer="3380" to-port="4" />
		<edge from-layer="3380" from-port="5" to-layer="3381" to-port="0" />
		<edge from-layer="3381" from-port="1" to-layer="3382" to-port="0" />
		<edge from-layer="3382" from-port="1" to-layer="3385" to-port="0" />
		<edge from-layer="3383" from-port="0" to-layer="3384" to-port="0" />
		<edge from-layer="3384" from-port="1" to-layer="3385" to-port="1" />
		<edge from-layer="3385" from-port="2" to-layer="3387" to-port="0" />
		<edge from-layer="3386" from-port="0" to-layer="3387" to-port="1" />
		<edge from-layer="3387" from-port="2" to-layer="3388" to-port="1" />
		<edge from-layer="3388" from-port="2" to-layer="3393" to-port="0" />
		<edge from-layer="3389" from-port="0" to-layer="3393" to-port="1" />
		<edge from-layer="3390" from-port="0" to-layer="3393" to-port="2" />
		<edge from-layer="3391" from-port="0" to-layer="3393" to-port="3" />
		<edge from-layer="3392" from-port="0" to-layer="3393" to-port="4" />
		<edge from-layer="3393" from-port="5" to-layer="3394" to-port="0" />
		<edge from-layer="3394" from-port="1" to-layer="3395" to-port="0" />
		<edge from-layer="3395" from-port="1" to-layer="3398" to-port="0" />
		<edge from-layer="3396" from-port="0" to-layer="3397" to-port="0" />
		<edge from-layer="3397" from-port="1" to-layer="3398" to-port="1" />
		<edge from-layer="3398" from-port="2" to-layer="3400" to-port="0" />
		<edge from-layer="3399" from-port="0" to-layer="3400" to-port="1" />
		<edge from-layer="3400" from-port="2" to-layer="3401" to-port="2" />
		<edge from-layer="3401" from-port="3" to-layer="3406" to-port="0" />
		<edge from-layer="3402" from-port="0" to-layer="3406" to-port="1" />
		<edge from-layer="3403" from-port="0" to-layer="3406" to-port="2" />
		<edge from-layer="3404" from-port="0" to-layer="3406" to-port="3" />
		<edge from-layer="3405" from-port="0" to-layer="3406" to-port="4" />
		<edge from-layer="3406" from-port="5" to-layer="3407" to-port="0" />
		<edge from-layer="3407" from-port="1" to-layer="3408" to-port="0" />
		<edge from-layer="3408" from-port="1" to-layer="3411" to-port="0" />
		<edge from-layer="3409" from-port="0" to-layer="3410" to-port="0" />
		<edge from-layer="3410" from-port="1" to-layer="3411" to-port="1" />
		<edge from-layer="3411" from-port="2" to-layer="3413" to-port="0" />
		<edge from-layer="3412" from-port="0" to-layer="3413" to-port="1" />
		<edge from-layer="3413" from-port="2" to-layer="3421" to-port="0" />
		<edge from-layer="3414" from-port="0" to-layer="3415" to-port="0" />
		<edge from-layer="3415" from-port="1" to-layer="3418" to-port="0" />
		<edge from-layer="3416" from-port="0" to-layer="3417" to-port="0" />
		<edge from-layer="3417" from-port="1" to-layer="3418" to-port="1" />
		<edge from-layer="3418" from-port="2" to-layer="3420" to-port="0" />
		<edge from-layer="3419" from-port="0" to-layer="3420" to-port="1" />
		<edge from-layer="3420" from-port="2" to-layer="3421" to-port="1" />
		<edge from-layer="3421" from-port="2" to-layer="3428" to-port="0" />
		<edge from-layer="3422" from-port="0" to-layer="3423" to-port="0" />
		<edge from-layer="3423" from-port="1" to-layer="3425" to-port="0" />
		<edge from-layer="3424" from-port="0" to-layer="3425" to-port="1" />
		<edge from-layer="3425" from-port="2" to-layer="3427" to-port="0" />
		<edge from-layer="3426" from-port="0" to-layer="3427" to-port="1" />
		<edge from-layer="3427" from-port="2" to-layer="3428" to-port="1" />
		<edge from-layer="3428" from-port="2" to-layer="3433" to-port="0" />
		<edge from-layer="3429" from-port="0" to-layer="3433" to-port="1" />
		<edge from-layer="3430" from-port="0" to-layer="3433" to-port="2" />
		<edge from-layer="3431" from-port="0" to-layer="3433" to-port="3" />
		<edge from-layer="3432" from-port="0" to-layer="3433" to-port="4" />
		<edge from-layer="3433" from-port="5" to-layer="3434" to-port="0" />
		<edge from-layer="3434" from-port="1" to-layer="3435" to-port="0" />
		<edge from-layer="3435" from-port="1" to-layer="3438" to-port="0" />
		<edge from-layer="3436" from-port="0" to-layer="3437" to-port="0" />
		<edge from-layer="3437" from-port="1" to-layer="3438" to-port="1" />
		<edge from-layer="3438" from-port="2" to-layer="3440" to-port="0" />
		<edge from-layer="3439" from-port="0" to-layer="3440" to-port="1" />
		<edge from-layer="3440" from-port="2" to-layer="3441" to-port="0" />
		<edge from-layer="3440" from-port="2" to-layer="3454" to-port="0" />
		<edge from-layer="3441" from-port="1" to-layer="3446" to-port="0" />
		<edge from-layer="3442" from-port="0" to-layer="3446" to-port="1" />
		<edge from-layer="3443" from-port="0" to-layer="3446" to-port="2" />
		<edge from-layer="3444" from-port="0" to-layer="3446" to-port="3" />
		<edge from-layer="3445" from-port="0" to-layer="3446" to-port="4" />
		<edge from-layer="3446" from-port="5" to-layer="3447" to-port="0" />
		<edge from-layer="3447" from-port="1" to-layer="3448" to-port="0" />
		<edge from-layer="3448" from-port="1" to-layer="3451" to-port="0" />
		<edge from-layer="3449" from-port="0" to-layer="3450" to-port="0" />
		<edge from-layer="3450" from-port="1" to-layer="3451" to-port="1" />
		<edge from-layer="3451" from-port="2" to-layer="3453" to-port="0" />
		<edge from-layer="3452" from-port="0" to-layer="3453" to-port="1" />
		<edge from-layer="3453" from-port="2" to-layer="3454" to-port="1" />
		<edge from-layer="3454" from-port="2" to-layer="3459" to-port="0" />
		<edge from-layer="3455" from-port="0" to-layer="3459" to-port="1" />
		<edge from-layer="3456" from-port="0" to-layer="3459" to-port="2" />
		<edge from-layer="3457" from-port="0" to-layer="3459" to-port="3" />
		<edge from-layer="3458" from-port="0" to-layer="3459" to-port="4" />
		<edge from-layer="3459" from-port="5" to-layer="3460" to-port="0" />
		<edge from-layer="3460" from-port="1" to-layer="3461" to-port="0" />
		<edge from-layer="3461" from-port="1" to-layer="3464" to-port="0" />
		<edge from-layer="3462" from-port="0" to-layer="3463" to-port="0" />
		<edge from-layer="3463" from-port="1" to-layer="3464" to-port="1" />
		<edge from-layer="3464" from-port="2" to-layer="3466" to-port="0" />
		<edge from-layer="3465" from-port="0" to-layer="3466" to-port="1" />
		<edge from-layer="3466" from-port="2" to-layer="3607" to-port="0" />
		<edge from-layer="3466" from-port="2" to-layer="3474" to-port="0" />
		<edge from-layer="3467" from-port="0" to-layer="3468" to-port="0" />
		<edge from-layer="3468" from-port="1" to-layer="3471" to-port="0" />
		<edge from-layer="3469" from-port="0" to-layer="3470" to-port="0" />
		<edge from-layer="3470" from-port="1" to-layer="3471" to-port="1" />
		<edge from-layer="3471" from-port="2" to-layer="3473" to-port="0" />
		<edge from-layer="3472" from-port="0" to-layer="3473" to-port="1" />
		<edge from-layer="3473" from-port="2" to-layer="3474" to-port="1" />
		<edge from-layer="3474" from-port="2" to-layer="3481" to-port="0" />
		<edge from-layer="3475" from-port="0" to-layer="3476" to-port="0" />
		<edge from-layer="3476" from-port="1" to-layer="3478" to-port="0" />
		<edge from-layer="3477" from-port="0" to-layer="3478" to-port="1" />
		<edge from-layer="3478" from-port="2" to-layer="3480" to-port="0" />
		<edge from-layer="3479" from-port="0" to-layer="3480" to-port="1" />
		<edge from-layer="3480" from-port="2" to-layer="3481" to-port="1" />
		<edge from-layer="3481" from-port="2" to-layer="3486" to-port="0" />
		<edge from-layer="3482" from-port="0" to-layer="3486" to-port="1" />
		<edge from-layer="3483" from-port="0" to-layer="3486" to-port="2" />
		<edge from-layer="3484" from-port="0" to-layer="3486" to-port="3" />
		<edge from-layer="3485" from-port="0" to-layer="3486" to-port="4" />
		<edge from-layer="3486" from-port="5" to-layer="3487" to-port="0" />
		<edge from-layer="3487" from-port="1" to-layer="3488" to-port="0" />
		<edge from-layer="3488" from-port="1" to-layer="3491" to-port="0" />
		<edge from-layer="3489" from-port="0" to-layer="3490" to-port="0" />
		<edge from-layer="3490" from-port="1" to-layer="3491" to-port="1" />
		<edge from-layer="3491" from-port="2" to-layer="3493" to-port="0" />
		<edge from-layer="3492" from-port="0" to-layer="3493" to-port="1" />
		<edge from-layer="3493" from-port="2" to-layer="3494" to-port="0" />
		<edge from-layer="3493" from-port="2" to-layer="3507" to-port="0" />
		<edge from-layer="3494" from-port="1" to-layer="3499" to-port="0" />
		<edge from-layer="3495" from-port="0" to-layer="3499" to-port="1" />
		<edge from-layer="3496" from-port="0" to-layer="3499" to-port="2" />
		<edge from-layer="3497" from-port="0" to-layer="3499" to-port="3" />
		<edge from-layer="3498" from-port="0" to-layer="3499" to-port="4" />
		<edge from-layer="3499" from-port="5" to-layer="3500" to-port="0" />
		<edge from-layer="3500" from-port="1" to-layer="3501" to-port="0" />
		<edge from-layer="3501" from-port="1" to-layer="3504" to-port="0" />
		<edge from-layer="3502" from-port="0" to-layer="3503" to-port="0" />
		<edge from-layer="3503" from-port="1" to-layer="3504" to-port="1" />
		<edge from-layer="3504" from-port="2" to-layer="3506" to-port="0" />
		<edge from-layer="3505" from-port="0" to-layer="3506" to-port="1" />
		<edge from-layer="3506" from-port="2" to-layer="3507" to-port="1" />
		<edge from-layer="3507" from-port="2" to-layer="3512" to-port="0" />
		<edge from-layer="3508" from-port="0" to-layer="3512" to-port="1" />
		<edge from-layer="3509" from-port="0" to-layer="3512" to-port="2" />
		<edge from-layer="3510" from-port="0" to-layer="3512" to-port="3" />
		<edge from-layer="3511" from-port="0" to-layer="3512" to-port="4" />
		<edge from-layer="3512" from-port="5" to-layer="3513" to-port="0" />
		<edge from-layer="3513" from-port="1" to-layer="3514" to-port="0" />
		<edge from-layer="3514" from-port="1" to-layer="3517" to-port="0" />
		<edge from-layer="3515" from-port="0" to-layer="3516" to-port="0" />
		<edge from-layer="3516" from-port="1" to-layer="3517" to-port="1" />
		<edge from-layer="3517" from-port="2" to-layer="3519" to-port="0" />
		<edge from-layer="3518" from-port="0" to-layer="3519" to-port="1" />
		<edge from-layer="3519" from-port="2" to-layer="3527" to-port="0" />
		<edge from-layer="3520" from-port="0" to-layer="3521" to-port="0" />
		<edge from-layer="3521" from-port="1" to-layer="3524" to-port="0" />
		<edge from-layer="3522" from-port="0" to-layer="3523" to-port="0" />
		<edge from-layer="3523" from-port="1" to-layer="3524" to-port="1" />
		<edge from-layer="3524" from-port="2" to-layer="3526" to-port="0" />
		<edge from-layer="3525" from-port="0" to-layer="3526" to-port="1" />
		<edge from-layer="3526" from-port="2" to-layer="3527" to-port="1" />
		<edge from-layer="3527" from-port="2" to-layer="3534" to-port="0" />
		<edge from-layer="3528" from-port="0" to-layer="3529" to-port="0" />
		<edge from-layer="3529" from-port="1" to-layer="3531" to-port="0" />
		<edge from-layer="3530" from-port="0" to-layer="3531" to-port="1" />
		<edge from-layer="3531" from-port="2" to-layer="3533" to-port="0" />
		<edge from-layer="3532" from-port="0" to-layer="3533" to-port="1" />
		<edge from-layer="3533" from-port="2" to-layer="3534" to-port="1" />
		<edge from-layer="3534" from-port="2" to-layer="3539" to-port="0" />
		<edge from-layer="3535" from-port="0" to-layer="3539" to-port="1" />
		<edge from-layer="3536" from-port="0" to-layer="3539" to-port="2" />
		<edge from-layer="3537" from-port="0" to-layer="3539" to-port="3" />
		<edge from-layer="3538" from-port="0" to-layer="3539" to-port="4" />
		<edge from-layer="3539" from-port="5" to-layer="3540" to-port="0" />
		<edge from-layer="3540" from-port="1" to-layer="3541" to-port="0" />
		<edge from-layer="3541" from-port="1" to-layer="3544" to-port="0" />
		<edge from-layer="3542" from-port="0" to-layer="3543" to-port="0" />
		<edge from-layer="3543" from-port="1" to-layer="3544" to-port="1" />
		<edge from-layer="3544" from-port="2" to-layer="3546" to-port="0" />
		<edge from-layer="3545" from-port="0" to-layer="3546" to-port="1" />
		<edge from-layer="3546" from-port="2" to-layer="3547" to-port="0" />
		<edge from-layer="3546" from-port="2" to-layer="3560" to-port="0" />
		<edge from-layer="3547" from-port="1" to-layer="3552" to-port="0" />
		<edge from-layer="3548" from-port="0" to-layer="3552" to-port="1" />
		<edge from-layer="3549" from-port="0" to-layer="3552" to-port="2" />
		<edge from-layer="3550" from-port="0" to-layer="3552" to-port="3" />
		<edge from-layer="3551" from-port="0" to-layer="3552" to-port="4" />
		<edge from-layer="3552" from-port="5" to-layer="3553" to-port="0" />
		<edge from-layer="3553" from-port="1" to-layer="3554" to-port="0" />
		<edge from-layer="3554" from-port="1" to-layer="3557" to-port="0" />
		<edge from-layer="3555" from-port="0" to-layer="3556" to-port="0" />
		<edge from-layer="3556" from-port="1" to-layer="3557" to-port="1" />
		<edge from-layer="3557" from-port="2" to-layer="3559" to-port="0" />
		<edge from-layer="3558" from-port="0" to-layer="3559" to-port="1" />
		<edge from-layer="3559" from-port="2" to-layer="3560" to-port="1" />
		<edge from-layer="3560" from-port="2" to-layer="3565" to-port="0" />
		<edge from-layer="3561" from-port="0" to-layer="3565" to-port="1" />
		<edge from-layer="3562" from-port="0" to-layer="3565" to-port="2" />
		<edge from-layer="3563" from-port="0" to-layer="3565" to-port="3" />
		<edge from-layer="3564" from-port="0" to-layer="3565" to-port="4" />
		<edge from-layer="3565" from-port="5" to-layer="3566" to-port="0" />
		<edge from-layer="3566" from-port="1" to-layer="3567" to-port="0" />
		<edge from-layer="3567" from-port="1" to-layer="3570" to-port="0" />
		<edge from-layer="3568" from-port="0" to-layer="3569" to-port="0" />
		<edge from-layer="3569" from-port="1" to-layer="3570" to-port="1" />
		<edge from-layer="3570" from-port="2" to-layer="3572" to-port="0" />
		<edge from-layer="3571" from-port="0" to-layer="3572" to-port="1" />
		<edge from-layer="3572" from-port="2" to-layer="3580" to-port="0" />
		<edge from-layer="3573" from-port="0" to-layer="3574" to-port="0" />
		<edge from-layer="3574" from-port="1" to-layer="3577" to-port="0" />
		<edge from-layer="3575" from-port="0" to-layer="3576" to-port="0" />
		<edge from-layer="3576" from-port="1" to-layer="3577" to-port="1" />
		<edge from-layer="3577" from-port="2" to-layer="3579" to-port="0" />
		<edge from-layer="3578" from-port="0" to-layer="3579" to-port="1" />
		<edge from-layer="3579" from-port="2" to-layer="3580" to-port="1" />
		<edge from-layer="3580" from-port="2" to-layer="3587" to-port="0" />
		<edge from-layer="3581" from-port="0" to-layer="3582" to-port="0" />
		<edge from-layer="3582" from-port="1" to-layer="3584" to-port="0" />
		<edge from-layer="3583" from-port="0" to-layer="3584" to-port="1" />
		<edge from-layer="3584" from-port="2" to-layer="3586" to-port="0" />
		<edge from-layer="3585" from-port="0" to-layer="3586" to-port="1" />
		<edge from-layer="3586" from-port="2" to-layer="3587" to-port="1" />
		<edge from-layer="3587" from-port="2" to-layer="3592" to-port="0" />
		<edge from-layer="3588" from-port="0" to-layer="3592" to-port="1" />
		<edge from-layer="3589" from-port="0" to-layer="3592" to-port="2" />
		<edge from-layer="3590" from-port="0" to-layer="3592" to-port="3" />
		<edge from-layer="3591" from-port="0" to-layer="3592" to-port="4" />
		<edge from-layer="3592" from-port="5" to-layer="3593" to-port="0" />
		<edge from-layer="3593" from-port="1" to-layer="3594" to-port="0" />
		<edge from-layer="3594" from-port="1" to-layer="3597" to-port="0" />
		<edge from-layer="3595" from-port="0" to-layer="3596" to-port="0" />
		<edge from-layer="3596" from-port="1" to-layer="3597" to-port="1" />
		<edge from-layer="3597" from-port="2" to-layer="3599" to-port="0" />
		<edge from-layer="3598" from-port="0" to-layer="3599" to-port="1" />
		<edge from-layer="3599" from-port="2" to-layer="3733" to-port="0" />
		<edge from-layer="3600" from-port="0" to-layer="3601" to-port="0" />
		<edge from-layer="3601" from-port="1" to-layer="3604" to-port="0" />
		<edge from-layer="3602" from-port="0" to-layer="3603" to-port="0" />
		<edge from-layer="3603" from-port="1" to-layer="3604" to-port="1" />
		<edge from-layer="3604" from-port="2" to-layer="3606" to-port="0" />
		<edge from-layer="3605" from-port="0" to-layer="3606" to-port="1" />
		<edge from-layer="3606" from-port="2" to-layer="3607" to-port="1" />
		<edge from-layer="3607" from-port="2" to-layer="3614" to-port="0" />
		<edge from-layer="3608" from-port="0" to-layer="3609" to-port="0" />
		<edge from-layer="3609" from-port="1" to-layer="3611" to-port="0" />
		<edge from-layer="3610" from-port="0" to-layer="3611" to-port="1" />
		<edge from-layer="3611" from-port="2" to-layer="3613" to-port="0" />
		<edge from-layer="3612" from-port="0" to-layer="3613" to-port="1" />
		<edge from-layer="3613" from-port="2" to-layer="3614" to-port="1" />
		<edge from-layer="3614" from-port="2" to-layer="3619" to-port="0" />
		<edge from-layer="3615" from-port="0" to-layer="3619" to-port="1" />
		<edge from-layer="3616" from-port="0" to-layer="3619" to-port="2" />
		<edge from-layer="3617" from-port="0" to-layer="3619" to-port="3" />
		<edge from-layer="3618" from-port="0" to-layer="3619" to-port="4" />
		<edge from-layer="3619" from-port="5" to-layer="3620" to-port="0" />
		<edge from-layer="3620" from-port="1" to-layer="3621" to-port="0" />
		<edge from-layer="3621" from-port="1" to-layer="3624" to-port="0" />
		<edge from-layer="3622" from-port="0" to-layer="3623" to-port="0" />
		<edge from-layer="3623" from-port="1" to-layer="3624" to-port="1" />
		<edge from-layer="3624" from-port="2" to-layer="3626" to-port="0" />
		<edge from-layer="3625" from-port="0" to-layer="3626" to-port="1" />
		<edge from-layer="3626" from-port="2" to-layer="3627" to-port="0" />
		<edge from-layer="3626" from-port="2" to-layer="3640" to-port="0" />
		<edge from-layer="3627" from-port="1" to-layer="3632" to-port="0" />
		<edge from-layer="3628" from-port="0" to-layer="3632" to-port="1" />
		<edge from-layer="3629" from-port="0" to-layer="3632" to-port="2" />
		<edge from-layer="3630" from-port="0" to-layer="3632" to-port="3" />
		<edge from-layer="3631" from-port="0" to-layer="3632" to-port="4" />
		<edge from-layer="3632" from-port="5" to-layer="3633" to-port="0" />
		<edge from-layer="3633" from-port="1" to-layer="3634" to-port="0" />
		<edge from-layer="3634" from-port="1" to-layer="3637" to-port="0" />
		<edge from-layer="3635" from-port="0" to-layer="3636" to-port="0" />
		<edge from-layer="3636" from-port="1" to-layer="3637" to-port="1" />
		<edge from-layer="3637" from-port="2" to-layer="3639" to-port="0" />
		<edge from-layer="3638" from-port="0" to-layer="3639" to-port="1" />
		<edge from-layer="3639" from-port="2" to-layer="3640" to-port="1" />
		<edge from-layer="3640" from-port="2" to-layer="3645" to-port="0" />
		<edge from-layer="3641" from-port="0" to-layer="3645" to-port="1" />
		<edge from-layer="3642" from-port="0" to-layer="3645" to-port="2" />
		<edge from-layer="3643" from-port="0" to-layer="3645" to-port="3" />
		<edge from-layer="3644" from-port="0" to-layer="3645" to-port="4" />
		<edge from-layer="3645" from-port="5" to-layer="3646" to-port="0" />
		<edge from-layer="3646" from-port="1" to-layer="3647" to-port="0" />
		<edge from-layer="3647" from-port="1" to-layer="3650" to-port="0" />
		<edge from-layer="3648" from-port="0" to-layer="3649" to-port="0" />
		<edge from-layer="3649" from-port="1" to-layer="3650" to-port="1" />
		<edge from-layer="3650" from-port="2" to-layer="3652" to-port="0" />
		<edge from-layer="3651" from-port="0" to-layer="3652" to-port="1" />
		<edge from-layer="3652" from-port="2" to-layer="3660" to-port="0" />
		<edge from-layer="3653" from-port="0" to-layer="3654" to-port="0" />
		<edge from-layer="3654" from-port="1" to-layer="3657" to-port="0" />
		<edge from-layer="3655" from-port="0" to-layer="3656" to-port="0" />
		<edge from-layer="3656" from-port="1" to-layer="3657" to-port="1" />
		<edge from-layer="3657" from-port="2" to-layer="3659" to-port="0" />
		<edge from-layer="3658" from-port="0" to-layer="3659" to-port="1" />
		<edge from-layer="3659" from-port="2" to-layer="3660" to-port="1" />
		<edge from-layer="3660" from-port="2" to-layer="3667" to-port="0" />
		<edge from-layer="3661" from-port="0" to-layer="3662" to-port="0" />
		<edge from-layer="3662" from-port="1" to-layer="3664" to-port="0" />
		<edge from-layer="3663" from-port="0" to-layer="3664" to-port="1" />
		<edge from-layer="3664" from-port="2" to-layer="3666" to-port="0" />
		<edge from-layer="3665" from-port="0" to-layer="3666" to-port="1" />
		<edge from-layer="3666" from-port="2" to-layer="3667" to-port="1" />
		<edge from-layer="3667" from-port="2" to-layer="3672" to-port="0" />
		<edge from-layer="3668" from-port="0" to-layer="3672" to-port="1" />
		<edge from-layer="3669" from-port="0" to-layer="3672" to-port="2" />
		<edge from-layer="3670" from-port="0" to-layer="3672" to-port="3" />
		<edge from-layer="3671" from-port="0" to-layer="3672" to-port="4" />
		<edge from-layer="3672" from-port="5" to-layer="3673" to-port="0" />
		<edge from-layer="3673" from-port="1" to-layer="3674" to-port="0" />
		<edge from-layer="3674" from-port="1" to-layer="3677" to-port="0" />
		<edge from-layer="3675" from-port="0" to-layer="3676" to-port="0" />
		<edge from-layer="3676" from-port="1" to-layer="3677" to-port="1" />
		<edge from-layer="3677" from-port="2" to-layer="3679" to-port="0" />
		<edge from-layer="3678" from-port="0" to-layer="3679" to-port="1" />
		<edge from-layer="3679" from-port="2" to-layer="3680" to-port="0" />
		<edge from-layer="3679" from-port="2" to-layer="3693" to-port="0" />
		<edge from-layer="3680" from-port="1" to-layer="3685" to-port="0" />
		<edge from-layer="3681" from-port="0" to-layer="3685" to-port="1" />
		<edge from-layer="3682" from-port="0" to-layer="3685" to-port="2" />
		<edge from-layer="3683" from-port="0" to-layer="3685" to-port="3" />
		<edge from-layer="3684" from-port="0" to-layer="3685" to-port="4" />
		<edge from-layer="3685" from-port="5" to-layer="3686" to-port="0" />
		<edge from-layer="3686" from-port="1" to-layer="3687" to-port="0" />
		<edge from-layer="3687" from-port="1" to-layer="3690" to-port="0" />
		<edge from-layer="3688" from-port="0" to-layer="3689" to-port="0" />
		<edge from-layer="3689" from-port="1" to-layer="3690" to-port="1" />
		<edge from-layer="3690" from-port="2" to-layer="3692" to-port="0" />
		<edge from-layer="3691" from-port="0" to-layer="3692" to-port="1" />
		<edge from-layer="3692" from-port="2" to-layer="3693" to-port="1" />
		<edge from-layer="3693" from-port="2" to-layer="3698" to-port="0" />
		<edge from-layer="3694" from-port="0" to-layer="3698" to-port="1" />
		<edge from-layer="3695" from-port="0" to-layer="3698" to-port="2" />
		<edge from-layer="3696" from-port="0" to-layer="3698" to-port="3" />
		<edge from-layer="3697" from-port="0" to-layer="3698" to-port="4" />
		<edge from-layer="3698" from-port="5" to-layer="3699" to-port="0" />
		<edge from-layer="3699" from-port="1" to-layer="3700" to-port="0" />
		<edge from-layer="3700" from-port="1" to-layer="3703" to-port="0" />
		<edge from-layer="3701" from-port="0" to-layer="3702" to-port="0" />
		<edge from-layer="3702" from-port="1" to-layer="3703" to-port="1" />
		<edge from-layer="3703" from-port="2" to-layer="3705" to-port="0" />
		<edge from-layer="3704" from-port="0" to-layer="3705" to-port="1" />
		<edge from-layer="3705" from-port="2" to-layer="3713" to-port="0" />
		<edge from-layer="3706" from-port="0" to-layer="3707" to-port="0" />
		<edge from-layer="3707" from-port="1" to-layer="3710" to-port="0" />
		<edge from-layer="3708" from-port="0" to-layer="3709" to-port="0" />
		<edge from-layer="3709" from-port="1" to-layer="3710" to-port="1" />
		<edge from-layer="3710" from-port="2" to-layer="3712" to-port="0" />
		<edge from-layer="3711" from-port="0" to-layer="3712" to-port="1" />
		<edge from-layer="3712" from-port="2" to-layer="3713" to-port="1" />
		<edge from-layer="3713" from-port="2" to-layer="3720" to-port="0" />
		<edge from-layer="3714" from-port="0" to-layer="3715" to-port="0" />
		<edge from-layer="3715" from-port="1" to-layer="3717" to-port="0" />
		<edge from-layer="3716" from-port="0" to-layer="3717" to-port="1" />
		<edge from-layer="3717" from-port="2" to-layer="3719" to-port="0" />
		<edge from-layer="3718" from-port="0" to-layer="3719" to-port="1" />
		<edge from-layer="3719" from-port="2" to-layer="3720" to-port="1" />
		<edge from-layer="3720" from-port="2" to-layer="3725" to-port="0" />
		<edge from-layer="3721" from-port="0" to-layer="3725" to-port="1" />
		<edge from-layer="3722" from-port="0" to-layer="3725" to-port="2" />
		<edge from-layer="3723" from-port="0" to-layer="3725" to-port="3" />
		<edge from-layer="3724" from-port="0" to-layer="3725" to-port="4" />
		<edge from-layer="3725" from-port="5" to-layer="3726" to-port="0" />
		<edge from-layer="3726" from-port="1" to-layer="3727" to-port="0" />
		<edge from-layer="3727" from-port="1" to-layer="3730" to-port="0" />
		<edge from-layer="3728" from-port="0" to-layer="3729" to-port="0" />
		<edge from-layer="3729" from-port="1" to-layer="3730" to-port="1" />
		<edge from-layer="3730" from-port="2" to-layer="3732" to-port="0" />
		<edge from-layer="3731" from-port="0" to-layer="3732" to-port="1" />
		<edge from-layer="3732" from-port="2" to-layer="3733" to-port="1" />
		<edge from-layer="3733" from-port="2" to-layer="3738" to-port="0" />
		<edge from-layer="3734" from-port="0" to-layer="3738" to-port="1" />
		<edge from-layer="3735" from-port="0" to-layer="3738" to-port="2" />
		<edge from-layer="3736" from-port="0" to-layer="3738" to-port="3" />
		<edge from-layer="3737" from-port="0" to-layer="3738" to-port="4" />
		<edge from-layer="3738" from-port="5" to-layer="3739" to-port="0" />
		<edge from-layer="3739" from-port="1" to-layer="3740" to-port="0" />
		<edge from-layer="3740" from-port="1" to-layer="3743" to-port="0" />
		<edge from-layer="3741" from-port="0" to-layer="3742" to-port="0" />
		<edge from-layer="3742" from-port="1" to-layer="3743" to-port="1" />
		<edge from-layer="3742" from-port="1" to-layer="3754" to-port="1" />
		<edge from-layer="3743" from-port="2" to-layer="3745" to-port="0" />
		<edge from-layer="3744" from-port="0" to-layer="3745" to-port="1" />
		<edge from-layer="3745" from-port="2" to-layer="3746" to-port="0" />
		<edge from-layer="3746" from-port="2" to-layer="3751" to-port="0" />
		<edge from-layer="3747" from-port="0" to-layer="3751" to-port="1" />
		<edge from-layer="3748" from-port="0" to-layer="3751" to-port="2" />
		<edge from-layer="3749" from-port="0" to-layer="3751" to-port="3" />
		<edge from-layer="3750" from-port="0" to-layer="3751" to-port="4" />
		<edge from-layer="3751" from-port="5" to-layer="3752" to-port="0" />
		<edge from-layer="3752" from-port="1" to-layer="3753" to-port="0" />
		<edge from-layer="3753" from-port="1" to-layer="3754" to-port="0" />
		<edge from-layer="3754" from-port="2" to-layer="3756" to-port="0" />
		<edge from-layer="3755" from-port="0" to-layer="3756" to-port="1" />
		<edge from-layer="3756" from-port="2" to-layer="3757" to-port="2" />
		<edge from-layer="3757" from-port="3" to-layer="3762" to-port="0" />
		<edge from-layer="3758" from-port="0" to-layer="3762" to-port="1" />
		<edge from-layer="3759" from-port="0" to-layer="3762" to-port="2" />
		<edge from-layer="3760" from-port="0" to-layer="3762" to-port="3" />
		<edge from-layer="3761" from-port="0" to-layer="3762" to-port="4" />
		<edge from-layer="3762" from-port="5" to-layer="3763" to-port="0" />
		<edge from-layer="3763" from-port="1" to-layer="3764" to-port="0" />
		<edge from-layer="3764" from-port="1" to-layer="3767" to-port="0" />
		<edge from-layer="3765" from-port="0" to-layer="3766" to-port="0" />
		<edge from-layer="3766" from-port="1" to-layer="3792" to-port="1" />
		<edge from-layer="3766" from-port="1" to-layer="4001" to-port="1" />
		<edge from-layer="3766" from-port="1" to-layer="3804" to-port="1" />
		<edge from-layer="3766" from-port="1" to-layer="3780" to-port="1" />
		<edge from-layer="3766" from-port="1" to-layer="3767" to-port="1" />
		<edge from-layer="3767" from-port="2" to-layer="3769" to-port="0" />
		<edge from-layer="3768" from-port="0" to-layer="3769" to-port="1" />
		<edge from-layer="3769" from-port="2" to-layer="3772" to-port="0" />
		<edge from-layer="3770" from-port="0" to-layer="3772" to-port="1" />
		<edge from-layer="3771" from-port="0" to-layer="3772" to-port="2" />
		<edge from-layer="3772" from-port="3" to-layer="3777" to-port="0" />
		<edge from-layer="3772" from-port="4" to-layer="3998" to-port="0" />
		<edge from-layer="3773" from-port="0" to-layer="3777" to-port="1" />
		<edge from-layer="3774" from-port="0" to-layer="3777" to-port="2" />
		<edge from-layer="3775" from-port="0" to-layer="3777" to-port="3" />
		<edge from-layer="3776" from-port="0" to-layer="3777" to-port="4" />
		<edge from-layer="3777" from-port="5" to-layer="3778" to-port="0" />
		<edge from-layer="3778" from-port="1" to-layer="3779" to-port="0" />
		<edge from-layer="3779" from-port="1" to-layer="3780" to-port="0" />
		<edge from-layer="3780" from-port="2" to-layer="3782" to-port="0" />
		<edge from-layer="3781" from-port="0" to-layer="3782" to-port="1" />
		<edge from-layer="3782" from-port="2" to-layer="3784" to-port="0" />
		<edge from-layer="3783" from-port="0" to-layer="3784" to-port="1" />
		<edge from-layer="3784" from-port="2" to-layer="3789" to-port="0" />
		<edge from-layer="3785" from-port="0" to-layer="3789" to-port="1" />
		<edge from-layer="3786" from-port="0" to-layer="3789" to-port="2" />
		<edge from-layer="3787" from-port="0" to-layer="3789" to-port="3" />
		<edge from-layer="3788" from-port="0" to-layer="3789" to-port="4" />
		<edge from-layer="3789" from-port="5" to-layer="3790" to-port="0" />
		<edge from-layer="3790" from-port="1" to-layer="3791" to-port="0" />
		<edge from-layer="3791" from-port="1" to-layer="3792" to-port="0" />
		<edge from-layer="3792" from-port="2" to-layer="3794" to-port="0" />
		<edge from-layer="3793" from-port="0" to-layer="3794" to-port="1" />
		<edge from-layer="3794" from-port="2" to-layer="3796" to-port="0" />
		<edge from-layer="3795" from-port="0" to-layer="3796" to-port="1" />
		<edge from-layer="3796" from-port="2" to-layer="3801" to-port="0" />
		<edge from-layer="3797" from-port="0" to-layer="3801" to-port="1" />
		<edge from-layer="3798" from-port="0" to-layer="3801" to-port="2" />
		<edge from-layer="3799" from-port="0" to-layer="3801" to-port="3" />
		<edge from-layer="3800" from-port="0" to-layer="3801" to-port="4" />
		<edge from-layer="3801" from-port="5" to-layer="3802" to-port="0" />
		<edge from-layer="3802" from-port="1" to-layer="3803" to-port="0" />
		<edge from-layer="3803" from-port="1" to-layer="3804" to-port="0" />
		<edge from-layer="3804" from-port="2" to-layer="3806" to-port="0" />
		<edge from-layer="3805" from-port="0" to-layer="3806" to-port="1" />
		<edge from-layer="3806" from-port="2" to-layer="3807" to-port="0" />
		<edge from-layer="3807" from-port="1" to-layer="3812" to-port="0" />
		<edge from-layer="3808" from-port="0" to-layer="3812" to-port="1" />
		<edge from-layer="3809" from-port="0" to-layer="3812" to-port="2" />
		<edge from-layer="3810" from-port="0" to-layer="3812" to-port="3" />
		<edge from-layer="3811" from-port="0" to-layer="3812" to-port="4" />
		<edge from-layer="3812" from-port="5" to-layer="3813" to-port="0" />
		<edge from-layer="3813" from-port="1" to-layer="3814" to-port="0" />
		<edge from-layer="3814" from-port="1" to-layer="3817" to-port="0" />
		<edge from-layer="3815" from-port="0" to-layer="3816" to-port="0" />
		<edge from-layer="3816" from-port="1" to-layer="3817" to-port="1" />
		<edge from-layer="3816" from-port="1" to-layer="3829" to-port="1" />
		<edge from-layer="3817" from-port="2" to-layer="3819" to-port="0" />
		<edge from-layer="3818" from-port="0" to-layer="3819" to-port="1" />
		<edge from-layer="3819" from-port="2" to-layer="3821" to-port="0" />
		<edge from-layer="3820" from-port="0" to-layer="3821" to-port="1" />
		<edge from-layer="3821" from-port="2" to-layer="3826" to-port="0" />
		<edge from-layer="3822" from-port="0" to-layer="3826" to-port="1" />
		<edge from-layer="3823" from-port="0" to-layer="3826" to-port="2" />
		<edge from-layer="3824" from-port="0" to-layer="3826" to-port="3" />
		<edge from-layer="3825" from-port="0" to-layer="3826" to-port="4" />
		<edge from-layer="3826" from-port="5" to-layer="3827" to-port="0" />
		<edge from-layer="3827" from-port="1" to-layer="3828" to-port="0" />
		<edge from-layer="3828" from-port="1" to-layer="3829" to-port="0" />
		<edge from-layer="3829" from-port="2" to-layer="3831" to-port="0" />
		<edge from-layer="3830" from-port="0" to-layer="3831" to-port="1" />
		<edge from-layer="3831" from-port="2" to-layer="3839" to-port="0" />
		<edge from-layer="3832" from-port="0" to-layer="3833" to-port="0" />
		<edge from-layer="3833" from-port="1" to-layer="3836" to-port="0" />
		<edge from-layer="3834" from-port="0" to-layer="3835" to-port="0" />
		<edge from-layer="3835" from-port="1" to-layer="3836" to-port="1" />
		<edge from-layer="3836" from-port="2" to-layer="3838" to-port="0" />
		<edge from-layer="3837" from-port="0" to-layer="3838" to-port="1" />
		<edge from-layer="3838" from-port="2" to-layer="3839" to-port="1" />
		<edge from-layer="3839" from-port="2" to-layer="3844" to-port="0" />
		<edge from-layer="3840" from-port="0" to-layer="3844" to-port="1" />
		<edge from-layer="3841" from-port="0" to-layer="3844" to-port="2" />
		<edge from-layer="3842" from-port="0" to-layer="3844" to-port="3" />
		<edge from-layer="3843" from-port="0" to-layer="3844" to-port="4" />
		<edge from-layer="3844" from-port="5" to-layer="3845" to-port="0" />
		<edge from-layer="3845" from-port="1" to-layer="3846" to-port="0" />
		<edge from-layer="3846" from-port="1" to-layer="3849" to-port="0" />
		<edge from-layer="3847" from-port="0" to-layer="3848" to-port="0" />
		<edge from-layer="3848" from-port="1" to-layer="3909" to-port="1" />
		<edge from-layer="3848" from-port="1" to-layer="3876" to-port="1" />
		<edge from-layer="3848" from-port="1" to-layer="3861" to-port="1" />
		<edge from-layer="3848" from-port="1" to-layer="3849" to-port="1" />
		<edge from-layer="3849" from-port="2" to-layer="3851" to-port="0" />
		<edge from-layer="3850" from-port="0" to-layer="3851" to-port="1" />
		<edge from-layer="3851" from-port="2" to-layer="3853" to-port="0" />
		<edge from-layer="3852" from-port="0" to-layer="3853" to-port="1" />
		<edge from-layer="3853" from-port="2" to-layer="3858" to-port="0" />
		<edge from-layer="3854" from-port="0" to-layer="3858" to-port="1" />
		<edge from-layer="3855" from-port="0" to-layer="3858" to-port="2" />
		<edge from-layer="3856" from-port="0" to-layer="3858" to-port="3" />
		<edge from-layer="3857" from-port="0" to-layer="3858" to-port="4" />
		<edge from-layer="3858" from-port="5" to-layer="3859" to-port="0" />
		<edge from-layer="3859" from-port="1" to-layer="3860" to-port="0" />
		<edge from-layer="3860" from-port="1" to-layer="3861" to-port="0" />
		<edge from-layer="3861" from-port="2" to-layer="3863" to-port="0" />
		<edge from-layer="3862" from-port="0" to-layer="3863" to-port="1" />
		<edge from-layer="3863" from-port="2" to-layer="3901" to-port="0" />
		<edge from-layer="3863" from-port="2" to-layer="3868" to-port="0" />
		<edge from-layer="3864" from-port="0" to-layer="3868" to-port="1" />
		<edge from-layer="3865" from-port="0" to-layer="3901" to-port="1" />
		<edge from-layer="3865" from-port="0" to-layer="3868" to-port="2" />
		<edge from-layer="3866" from-port="0" to-layer="3868" to-port="3" />
		<edge from-layer="3867" from-port="0" to-layer="3901" to-port="4" />
		<edge from-layer="3867" from-port="0" to-layer="3868" to-port="4" />
		<edge from-layer="3868" from-port="5" to-layer="3873" to-port="0" />
		<edge from-layer="3869" from-port="0" to-layer="3873" to-port="1" />
		<edge from-layer="3870" from-port="0" to-layer="3873" to-port="2" />
		<edge from-layer="3871" from-port="0" to-layer="3873" to-port="3" />
		<edge from-layer="3872" from-port="0" to-layer="3873" to-port="4" />
		<edge from-layer="3873" from-port="5" to-layer="3874" to-port="0" />
		<edge from-layer="3874" from-port="1" to-layer="3875" to-port="0" />
		<edge from-layer="3875" from-port="1" to-layer="3876" to-port="0" />
		<edge from-layer="3876" from-port="2" to-layer="3878" to-port="0" />
		<edge from-layer="3877" from-port="0" to-layer="3878" to-port="1" />
		<edge from-layer="3878" from-port="2" to-layer="3879" to-port="1" />
		<edge from-layer="3879" from-port="2" to-layer="3884" to-port="0" />
		<edge from-layer="3880" from-port="0" to-layer="3884" to-port="1" />
		<edge from-layer="3881" from-port="0" to-layer="3884" to-port="2" />
		<edge from-layer="3882" from-port="0" to-layer="3884" to-port="3" />
		<edge from-layer="3883" from-port="0" to-layer="3884" to-port="4" />
		<edge from-layer="3884" from-port="5" to-layer="3885" to-port="0" />
		<edge from-layer="3885" from-port="1" to-layer="3886" to-port="0" />
		<edge from-layer="3886" from-port="1" to-layer="3889" to-port="0" />
		<edge from-layer="3887" from-port="0" to-layer="3888" to-port="0" />
		<edge from-layer="3888" from-port="1" to-layer="3889" to-port="1" />
		<edge from-layer="3889" from-port="2" to-layer="3891" to-port="0" />
		<edge from-layer="3890" from-port="0" to-layer="3891" to-port="1" />
		<edge from-layer="3891" from-port="2" to-layer="3925" to-port="0" />
		<edge from-layer="3891" from-port="2" to-layer="3948" to-port="1" />
		<edge from-layer="3892" from-port="0" to-layer="3893" to-port="0" />
		<edge from-layer="3893" from-port="1" to-layer="3896" to-port="0" />
		<edge from-layer="3894" from-port="0" to-layer="3895" to-port="0" />
		<edge from-layer="3895" from-port="1" to-layer="3896" to-port="1" />
		<edge from-layer="3896" from-port="2" to-layer="3898" to-port="0" />
		<edge from-layer="3897" from-port="0" to-layer="3898" to-port="1" />
		<edge from-layer="3898" from-port="2" to-layer="3912" to-port="0" />
		<edge from-layer="3899" from-port="0" to-layer="3901" to-port="2" />
		<edge from-layer="3900" from-port="0" to-layer="3901" to-port="3" />
		<edge from-layer="3901" from-port="5" to-layer="3906" to-port="0" />
		<edge from-layer="3902" from-port="0" to-layer="3906" to-port="1" />
		<edge from-layer="3903" from-port="0" to-layer="3906" to-port="2" />
		<edge from-layer="3904" from-port="0" to-layer="3906" to-port="3" />
		<edge from-layer="3905" from-port="0" to-layer="3906" to-port="4" />
		<edge from-layer="3906" from-port="5" to-layer="3907" to-port="0" />
		<edge from-layer="3907" from-port="1" to-layer="3908" to-port="0" />
		<edge from-layer="3908" from-port="1" to-layer="3909" to-port="0" />
		<edge from-layer="3909" from-port="2" to-layer="3911" to-port="0" />
		<edge from-layer="3910" from-port="0" to-layer="3911" to-port="1" />
		<edge from-layer="3911" from-port="2" to-layer="3912" to-port="1" />
		<edge from-layer="3912" from-port="2" to-layer="3917" to-port="0" />
		<edge from-layer="3913" from-port="0" to-layer="3917" to-port="1" />
		<edge from-layer="3914" from-port="0" to-layer="3917" to-port="2" />
		<edge from-layer="3915" from-port="0" to-layer="3917" to-port="3" />
		<edge from-layer="3916" from-port="0" to-layer="3917" to-port="4" />
		<edge from-layer="3917" from-port="5" to-layer="3918" to-port="0" />
		<edge from-layer="3918" from-port="1" to-layer="3919" to-port="0" />
		<edge from-layer="3919" from-port="1" to-layer="3922" to-port="0" />
		<edge from-layer="3920" from-port="0" to-layer="3921" to-port="0" />
		<edge from-layer="3921" from-port="1" to-layer="3922" to-port="1" />
		<edge from-layer="3922" from-port="2" to-layer="3924" to-port="0" />
		<edge from-layer="3923" from-port="0" to-layer="3924" to-port="1" />
		<edge from-layer="3924" from-port="2" to-layer="3948" to-port="0" />
		<edge from-layer="3924" from-port="2" to-layer="3925" to-port="1" />
		<edge from-layer="3925" from-port="2" to-layer="3930" to-port="0" />
		<edge from-layer="3926" from-port="0" to-layer="3930" to-port="1" />
		<edge from-layer="3927" from-port="0" to-layer="3930" to-port="2" />
		<edge from-layer="3928" from-port="0" to-layer="3930" to-port="3" />
		<edge from-layer="3929" from-port="0" to-layer="3930" to-port="4" />
		<edge from-layer="3930" from-port="5" to-layer="3931" to-port="0" />
		<edge from-layer="3931" from-port="1" to-layer="3932" to-port="0" />
		<edge from-layer="3932" from-port="1" to-layer="3935" to-port="0" />
		<edge from-layer="3933" from-port="0" to-layer="3934" to-port="0" />
		<edge from-layer="3934" from-port="1" to-layer="3935" to-port="1" />
		<edge from-layer="3935" from-port="2" to-layer="3940" to-port="0" />
		<edge from-layer="3936" from-port="0" to-layer="3940" to-port="1" />
		<edge from-layer="3937" from-port="0" to-layer="3940" to-port="2" />
		<edge from-layer="3938" from-port="0" to-layer="3940" to-port="3" />
		<edge from-layer="3939" from-port="0" to-layer="3940" to-port="4" />
		<edge from-layer="3940" from-port="5" to-layer="3941" to-port="0" />
		<edge from-layer="3941" from-port="1" to-layer="3942" to-port="0" />
		<edge from-layer="3942" from-port="1" to-layer="3945" to-port="0" />
		<edge from-layer="3943" from-port="0" to-layer="3944" to-port="0" />
		<edge from-layer="3944" from-port="1" to-layer="3945" to-port="1" />
		<edge from-layer="3945" from-port="2" to-layer="3947" to-port="0" />
		<edge from-layer="3946" from-port="0" to-layer="3947" to-port="1" />
		<edge from-layer="3947" from-port="2" to-layer="3961" to-port="0" />
		<edge from-layer="3948" from-port="2" to-layer="3953" to-port="0" />
		<edge from-layer="3949" from-port="0" to-layer="3953" to-port="1" />
		<edge from-layer="3950" from-port="0" to-layer="3953" to-port="2" />
		<edge from-layer="3951" from-port="0" to-layer="3953" to-port="3" />
		<edge from-layer="3952" from-port="0" to-layer="3953" to-port="4" />
		<edge from-layer="3953" from-port="5" to-layer="3954" to-port="0" />
		<edge from-layer="3954" from-port="1" to-layer="3955" to-port="0" />
		<edge from-layer="3955" from-port="1" to-layer="3958" to-port="0" />
		<edge from-layer="3956" from-port="0" to-layer="3957" to-port="0" />
		<edge from-layer="3957" from-port="1" to-layer="3958" to-port="1" />
		<edge from-layer="3958" from-port="2" to-layer="3960" to-port="0" />
		<edge from-layer="3959" from-port="0" to-layer="3960" to-port="1" />
		<edge from-layer="3960" from-port="2" to-layer="3961" to-port="1" />
		<edge from-layer="3961" from-port="2" to-layer="3966" to-port="0" />
		<edge from-layer="3962" from-port="0" to-layer="3966" to-port="1" />
		<edge from-layer="3963" from-port="0" to-layer="3966" to-port="2" />
		<edge from-layer="3964" from-port="0" to-layer="3966" to-port="3" />
		<edge from-layer="3965" from-port="0" to-layer="3966" to-port="4" />
		<edge from-layer="3966" from-port="5" to-layer="3967" to-port="0" />
		<edge from-layer="3967" from-port="1" to-layer="3968" to-port="0" />
		<edge from-layer="3968" from-port="1" to-layer="3971" to-port="0" />
		<edge from-layer="3969" from-port="0" to-layer="3970" to-port="0" />
		<edge from-layer="3970" from-port="1" to-layer="3971" to-port="1" />
		<edge from-layer="3971" from-port="2" to-layer="3973" to-port="0" />
		<edge from-layer="3972" from-port="0" to-layer="3973" to-port="1" />
		<edge from-layer="3973" from-port="2" to-layer="3981" to-port="0" />
		<edge from-layer="3974" from-port="0" to-layer="3975" to-port="0" />
		<edge from-layer="3975" from-port="1" to-layer="3978" to-port="0" />
		<edge from-layer="3976" from-port="0" to-layer="3977" to-port="0" />
		<edge from-layer="3977" from-port="1" to-layer="3978" to-port="1" />
		<edge from-layer="3978" from-port="2" to-layer="3980" to-port="0" />
		<edge from-layer="3979" from-port="0" to-layer="3980" to-port="1" />
		<edge from-layer="3980" from-port="2" to-layer="3981" to-port="1" />
		<edge from-layer="3981" from-port="2" to-layer="3986" to-port="0" />
		<edge from-layer="3982" from-port="0" to-layer="3986" to-port="1" />
		<edge from-layer="3983" from-port="0" to-layer="3986" to-port="2" />
		<edge from-layer="3984" from-port="0" to-layer="3986" to-port="3" />
		<edge from-layer="3985" from-port="0" to-layer="3986" to-port="4" />
		<edge from-layer="3986" from-port="5" to-layer="3987" to-port="0" />
		<edge from-layer="3987" from-port="1" to-layer="3988" to-port="0" />
		<edge from-layer="3988" from-port="1" to-layer="3991" to-port="0" />
		<edge from-layer="3989" from-port="0" to-layer="3990" to-port="0" />
		<edge from-layer="3990" from-port="1" to-layer="3991" to-port="1" />
		<edge from-layer="3991" from-port="2" to-layer="3993" to-port="0" />
		<edge from-layer="3992" from-port="0" to-layer="3993" to-port="1" />
		<edge from-layer="3993" from-port="2" to-layer="4017" to-port="0" />
		<edge from-layer="3994" from-port="0" to-layer="3998" to-port="1" />
		<edge from-layer="3995" from-port="0" to-layer="3998" to-port="2" />
		<edge from-layer="3996" from-port="0" to-layer="3998" to-port="3" />
		<edge from-layer="3997" from-port="0" to-layer="3998" to-port="4" />
		<edge from-layer="3998" from-port="5" to-layer="3999" to-port="0" />
		<edge from-layer="3999" from-port="1" to-layer="4000" to-port="0" />
		<edge from-layer="4000" from-port="1" to-layer="4001" to-port="0" />
		<edge from-layer="4001" from-port="2" to-layer="4003" to-port="0" />
		<edge from-layer="4002" from-port="0" to-layer="4003" to-port="1" />
		<edge from-layer="4003" from-port="2" to-layer="4004" to-port="0" />
		<edge from-layer="4004" from-port="1" to-layer="4009" to-port="0" />
		<edge from-layer="4005" from-port="0" to-layer="4009" to-port="1" />
		<edge from-layer="4006" from-port="0" to-layer="4009" to-port="2" />
		<edge from-layer="4007" from-port="0" to-layer="4009" to-port="3" />
		<edge from-layer="4008" from-port="0" to-layer="4009" to-port="4" />
		<edge from-layer="4009" from-port="5" to-layer="4010" to-port="0" />
		<edge from-layer="4010" from-port="1" to-layer="4011" to-port="0" />
		<edge from-layer="4011" from-port="1" to-layer="4014" to-port="0" />
		<edge from-layer="4012" from-port="0" to-layer="4013" to-port="0" />
		<edge from-layer="4013" from-port="1" to-layer="4014" to-port="1" />
		<edge from-layer="4014" from-port="2" to-layer="4016" to-port="0" />
		<edge from-layer="4015" from-port="0" to-layer="4016" to-port="1" />
		<edge from-layer="4016" from-port="2" to-layer="4017" to-port="1" />
		<edge from-layer="4017" from-port="2" to-layer="4022" to-port="0" />
		<edge from-layer="4018" from-port="0" to-layer="4022" to-port="1" />
		<edge from-layer="4019" from-port="0" to-layer="4022" to-port="2" />
		<edge from-layer="4020" from-port="0" to-layer="4022" to-port="3" />
		<edge from-layer="4021" from-port="0" to-layer="4022" to-port="4" />
		<edge from-layer="4022" from-port="5" to-layer="4023" to-port="0" />
		<edge from-layer="4023" from-port="1" to-layer="4024" to-port="0" />
		<edge from-layer="4024" from-port="1" to-layer="4027" to-port="0" />
		<edge from-layer="4025" from-port="0" to-layer="4026" to-port="0" />
		<edge from-layer="4026" from-port="1" to-layer="4027" to-port="1" />
		<edge from-layer="4027" from-port="2" to-layer="4029" to-port="0" />
		<edge from-layer="4028" from-port="0" to-layer="4029" to-port="1" />
		<edge from-layer="4029" from-port="2" to-layer="4030" to-port="0" />
	</edges>
	<rt_info>
		<Runtime_version value="2025.4.0-19881-0a49c3257ff" />
		<conversion_parameters>
			<input_model value="DIR/yolov8n_int4.onnx" />
			<is_python_object value="False" />
		</conversion_parameters>
		<framework>
			<args value="{'batch': 1, 'half': False, 'dynamic': False, 'simplify': True, 'opset': 12, 'nms': False}" />
			<author value="Ultralytics" />
			<batch value="1" />
			<channels value="3" />
			<date value="2025-08-05T10:22:41.906688" />
			<description value="Ultralytics YOLOv8n model trained on coco.yaml" />
			<docs value="https://docs.ultralytics.com" />
			<imgsz value="[640, 640]" />
			<license value="AGPL-3.0 License (https://ultralytics.com/license)" />
			<names value="{0: 'person', 1: 'bicycle', 2: 'car', 3: 'motorcycle', 4: 'airplane', 5: 'bus', 6: 'train', 7: 'truck', 8: 'boat', 9: 'traffic light', 10: 'fire hydrant', 11: 'stop sign', 12: 'parking meter', 13: 'bench', 14: 'bird', 15: 'cat', 16: 'dog', 17: 'horse', 18: 'sheep', 19: 'cow', 20: 'elephant', 21: 'bear', 22: 'zebra', 23: 'giraffe', 24: 'backpack', 25: 'umbrella', 26: 'handbag', 27: 'tie', 28: 'suitcase', 29: 'frisbee', 30: 'skis', 31: 'snowboard', 32: 'sports ball', 33: 'kite', 34: 'baseball bat', 35: 'baseball glove', 36: 'skateboard', 37: 'surfboard', 38: 'tennis racket', 39: 'bottle', 40: 'wine glass', 41: 'cup', 42: 'fork', 43: 'knife', 44: 'spoon', 45: 'bowl', 46: 'banana', 47: 'apple', 48: 'sandwich', 49: 'orange', 50: 'broccoli', 51: 'carrot', 52: 'hot dog', 53: 'pizza', 54: 'donut', 55: 'cake', 56: 'chair', 57: 'couch', 58: 'potted plant', 59: 'bed', 60: 'dining table', 61: 'toilet', 62: 'tv', 63: 'laptop', 64: 'mouse', 65: 'remote', 66: 'keyboard', 67: 'cell phone', 68: 'microwave', 69: 'oven', 70: 'toaster', 71: 'sink', 72: 'refrigerator', 73: 'book', 74: 'clock', 75: 'vase', 76: 'scissors', 77: 'teddy bear', 78: 'hair drier', 79: 'toothbrush'}" />
			<onnx.infer value="onnxruntime.quant" />
			<stride value="32" />
			<task value="detect" />
			<version value="8.3.174" />
		</framework>
	</rt_info>
</net>
