<?xml version="1.0"?>
<net name="main_graph" version="11">
	<layers>
		<layer id="0" name="input" type="Parameter" version="opset1">
			<data shape="1,3,256,256" element_type="f32" />
			<output>
				<port id="0" precision="FP32" names="input">
					<dim>1</dim>
					<dim>3</dim>
					<dim>256</dim>
					<dim>256</dim>
				</port>
			</output>
		</layer>
		<layer id="1" name="Constant_32110" type="Const" version="opset1">
			<data element_type="f32" shape="1, 1, 1, 1" offset="0" size="4" />
			<output>
				<port id="0" precision="FP32">
					<dim>1</dim>
					<dim>1</dim>
					<dim>1</dim>
					<dim>1</dim>
				</port>
			</output>
		</layer>
		<layer id="2" name="Constant_32111" type="Const" version="opset1">
			<data element_type="f32" shape="1, 1, 1, 1" offset="4" size="4" />
			<output>
				<port id="0" precision="FP32">
					<dim>1</dim>
					<dim>1</dim>
					<dim>1</dim>
					<dim>1</dim>
				</port>
			</output>
		</layer>
		<layer id="3" name="Constant_32112" type="Const" version="opset1">
			<data element_type="f32" shape="1, 1, 1, 1" offset="0" size="4" />
			<output>
				<port id="0" precision="FP32">
					<dim>1</dim>
					<dim>1</dim>
					<dim>1</dim>
					<dim>1</dim>
				</port>
			</output>
		</layer>
		<layer id="4" name="Constant_32113" type="Const" version="opset1">
			<data element_type="f32" shape="1, 1, 1, 1" offset="4" size="4" />
			<output>
				<port id="0" precision="FP32">
					<dim>1</dim>
					<dim>1</dim>
					<dim>1</dim>
					<dim>1</dim>
				</port>
			</output>
		</layer>
		<layer id="5" name="input_DequantizeLinear" type="FakeQuantize" version="opset1">
			<data levels="256" auto_broadcast="numpy" />
			<input>
				<port id="0" precision="FP32">
					<dim>1</dim>
					<dim>3</dim>
					<dim>256</dim>
					<dim>256</dim>
				</port>
				<port id="1" precision="FP32">
					<dim>1</dim>
					<dim>1</dim>
					<dim>1</dim>
					<dim>1</dim>
				</port>
				<port id="2" precision="FP32">
					<dim>1</dim>
					<dim>1</dim>
					<dim>1</dim>
					<dim>1</dim>
				</port>
				<port id="3" precision="FP32">
					<dim>1</dim>
					<dim>1</dim>
					<dim>1</dim>
					<dim>1</dim>
				</port>
				<port id="4" precision="FP32">
					<dim>1</dim>
					<dim>1</dim>
					<dim>1</dim>
					<dim>1</dim>
				</port>
			</input>
			<output>
				<port id="5" precision="FP32" names="input_DequantizeLinear_Output">
					<dim>1</dim>
					<dim>3</dim>
					<dim>256</dim>
					<dim>256</dim>
				</port>
			</output>
		</layer>
		<layer id="6" name="onnx::Conv_975_quantized" type="Const" version="opset1">
			<data element_type="i8" shape="24, 3, 3, 3" offset="8" size="648" />
			<output>
				<port id="0" precision="I8" names="onnx::Conv_975_quantized">
					<dim>24</dim>
					<dim>3</dim>
					<dim>3</dim>
					<dim>3</dim>
				</port>
			</output>
		</layer>
		<layer id="7" name="Convert_1719" type="Convert" version="opset1">
			<data destination_type="f32" />
			<input>
				<port id="0" precision="I8">
					<dim>24</dim>
					<dim>3</dim>
					<dim>3</dim>
					<dim>3</dim>
				</port>
			</input>
			<output>
				<port id="1" precision="FP32">
					<dim>24</dim>
					<dim>3</dim>
					<dim>3</dim>
					<dim>3</dim>
				</port>
			</output>
		</layer>
		<layer id="8" name="Constant_32114" type="Const" version="opset1">
			<data element_type="f32" shape="1, 1, 1, 1" offset="656" size="4" />
			<output>
				<port id="0" precision="FP32">
					<dim>1</dim>
					<dim>1</dim>
					<dim>1</dim>
					<dim>1</dim>
				</port>
			</output>
		</layer>
		<layer id="9" name="onnx::Conv_975_DequantizeLinear" type="Multiply" version="opset1">
			<data auto_broadcast="numpy" />
			<input>
				<port id="0" precision="FP32">
					<dim>24</dim>
					<dim>3</dim>
					<dim>3</dim>
					<dim>3</dim>
				</port>
				<port id="1" precision="FP32">
					<dim>1</dim>
					<dim>1</dim>
					<dim>1</dim>
					<dim>1</dim>
				</port>
			</input>
			<output>
				<port id="2" precision="FP32" names="onnx::Conv_975_DequantizeLinear_Output">
					<dim>24</dim>
					<dim>3</dim>
					<dim>3</dim>
					<dim>3</dim>
				</port>
			</output>
		</layer>
		<layer id="10" name="/stem/conv/Conv/WithoutBiases" type="Convolution" version="opset1">
			<data strides="2, 2" dilations="1, 1" pads_begin="1, 1" pads_end="1, 1" auto_pad="explicit" />
			<input>
				<port id="0" precision="FP32">
					<dim>1</dim>
					<dim>3</dim>
					<dim>256</dim>
					<dim>256</dim>
				</port>
				<port id="1" precision="FP32">
					<dim>24</dim>
					<dim>3</dim>
					<dim>3</dim>
					<dim>3</dim>
				</port>
			</input>
			<output>
				<port id="2" precision="FP32">
					<dim>1</dim>
					<dim>24</dim>
					<dim>128</dim>
					<dim>128</dim>
				</port>
			</output>
		</layer>
		<layer id="11" name="onnx::Conv_976_quantized" type="Const" version="opset1">
			<data element_type="i32" shape="24" offset="660" size="96" />
			<output>
				<port id="0" precision="I32" names="onnx::Conv_976_quantized">
					<dim>24</dim>
				</port>
			</output>
		</layer>
		<layer id="12" name="Convert_1724" type="Convert" version="opset1">
			<data destination_type="f32" />
			<input>
				<port id="0" precision="I32">
					<dim>24</dim>
				</port>
			</input>
			<output>
				<port id="1" precision="FP32">
					<dim>24</dim>
				</port>
			</output>
		</layer>
		<layer id="13" name="onnx::Conv_976_quantized_scale" type="Const" version="opset1">
			<data element_type="f32" shape="1" offset="756" size="4" />
			<output>
				<port id="0" precision="FP32" names="onnx::Conv_976_quantized_scale">
					<dim>1</dim>
				</port>
			</output>
		</layer>
		<layer id="14" name="onnx::Conv_976_DequantizeLinear" type="Multiply" version="opset1">
			<data auto_broadcast="numpy" />
			<input>
				<port id="0" precision="FP32">
					<dim>24</dim>
				</port>
				<port id="1" precision="FP32">
					<dim>1</dim>
				</port>
			</input>
			<output>
				<port id="2" precision="FP32" names="onnx::Conv_976">
					<dim>24</dim>
				</port>
			</output>
		</layer>
		<layer id="15" name="Concat_2297" type="Const" version="opset1">
			<data element_type="i64" shape="4" offset="760" size="32" />
			<output>
				<port id="0" precision="I64">
					<dim>4</dim>
				</port>
			</output>
		</layer>
		<layer id="16" name="Reshape_2298" type="Reshape" version="opset1">
			<data special_zero="false" />
			<input>
				<port id="0" precision="FP32">
					<dim>24</dim>
				</port>
				<port id="1" precision="I64">
					<dim>4</dim>
				</port>
			</input>
			<output>
				<port id="2" precision="FP32">
					<dim>1</dim>
					<dim>24</dim>
					<dim>1</dim>
					<dim>1</dim>
				</port>
			</output>
		</layer>
		<layer id="17" name="/stem/conv/Conv" type="Add" version="opset1">
			<data auto_broadcast="numpy" />
			<input>
				<port id="0" precision="FP32">
					<dim>1</dim>
					<dim>24</dim>
					<dim>128</dim>
					<dim>128</dim>
				</port>
				<port id="1" precision="FP32">
					<dim>1</dim>
					<dim>24</dim>
					<dim>1</dim>
					<dim>1</dim>
				</port>
			</input>
			<output>
				<port id="2" precision="FP32" names="/stem/conv/Conv_output_0">
					<dim>1</dim>
					<dim>24</dim>
					<dim>128</dim>
					<dim>128</dim>
				</port>
			</output>
		</layer>
		<layer id="18" name="Constant_32115" type="Const" version="opset1">
			<data element_type="f32" shape="1, 1, 1, 1" offset="792" size="4" />
			<output>
				<port id="0" precision="FP32">
					<dim>1</dim>
					<dim>1</dim>
					<dim>1</dim>
					<dim>1</dim>
				</port>
			</output>
		</layer>
		<layer id="19" name="Constant_32116" type="Const" version="opset1">
			<data element_type="f32" shape="1, 1, 1, 1" offset="796" size="4" />
			<output>
				<port id="0" precision="FP32">
					<dim>1</dim>
					<dim>1</dim>
					<dim>1</dim>
					<dim>1</dim>
				</port>
			</output>
		</layer>
		<layer id="20" name="Constant_32117" type="Const" version="opset1">
			<data element_type="f32" shape="1, 1, 1, 1" offset="792" size="4" />
			<output>
				<port id="0" precision="FP32">
					<dim>1</dim>
					<dim>1</dim>
					<dim>1</dim>
					<dim>1</dim>
				</port>
			</output>
		</layer>
		<layer id="21" name="Constant_32118" type="Const" version="opset1">
			<data element_type="f32" shape="1, 1, 1, 1" offset="796" size="4" />
			<output>
				<port id="0" precision="FP32">
					<dim>1</dim>
					<dim>1</dim>
					<dim>1</dim>
					<dim>1</dim>
				</port>
			</output>
		</layer>
		<layer id="22" name="/stem/conv/Conv_output_0_DequantizeLinear" type="FakeQuantize" version="opset1">
			<data levels="256" auto_broadcast="numpy" />
			<input>
				<port id="0" precision="FP32">
					<dim>1</dim>
					<dim>24</dim>
					<dim>128</dim>
					<dim>128</dim>
				</port>
				<port id="1" precision="FP32">
					<dim>1</dim>
					<dim>1</dim>
					<dim>1</dim>
					<dim>1</dim>
				</port>
				<port id="2" precision="FP32">
					<dim>1</dim>
					<dim>1</dim>
					<dim>1</dim>
					<dim>1</dim>
				</port>
				<port id="3" precision="FP32">
					<dim>1</dim>
					<dim>1</dim>
					<dim>1</dim>
					<dim>1</dim>
				</port>
				<port id="4" precision="FP32">
					<dim>1</dim>
					<dim>1</dim>
					<dim>1</dim>
					<dim>1</dim>
				</port>
			</input>
			<output>
				<port id="5" precision="FP32" names="/stem/conv/Conv_output_0_DequantizeLinear_Output">
					<dim>1</dim>
					<dim>24</dim>
					<dim>128</dim>
					<dim>128</dim>
				</port>
			</output>
		</layer>
		<layer id="23" name="/stem/bn/act/Sigmoid" type="Sigmoid" version="opset1">
			<input>
				<port id="0" precision="FP32">
					<dim>1</dim>
					<dim>24</dim>
					<dim>128</dim>
					<dim>128</dim>
				</port>
			</input>
			<output>
				<port id="1" precision="FP32" names="/stem/bn/act/Sigmoid_output_0">
					<dim>1</dim>
					<dim>24</dim>
					<dim>128</dim>
					<dim>128</dim>
				</port>
			</output>
		</layer>
		<layer id="24" name="Constant_32119" type="Const" version="opset1">
			<data element_type="f32" shape="1, 1, 1, 1" offset="800" size="4" />
			<output>
				<port id="0" precision="FP32">
					<dim>1</dim>
					<dim>1</dim>
					<dim>1</dim>
					<dim>1</dim>
				</port>
			</output>
		</layer>
		<layer id="25" name="Constant_32120" type="Const" version="opset1">
			<data element_type="f32" shape="1, 1, 1, 1" offset="804" size="4" />
			<output>
				<port id="0" precision="FP32">
					<dim>1</dim>
					<dim>1</dim>
					<dim>1</dim>
					<dim>1</dim>
				</port>
			</output>
		</layer>
		<layer id="26" name="Constant_32121" type="Const" version="opset1">
			<data element_type="f32" shape="1, 1, 1, 1" offset="800" size="4" />
			<output>
				<port id="0" precision="FP32">
					<dim>1</dim>
					<dim>1</dim>
					<dim>1</dim>
					<dim>1</dim>
				</port>
			</output>
		</layer>
		<layer id="27" name="Constant_32122" type="Const" version="opset1">
			<data element_type="f32" shape="1, 1, 1, 1" offset="804" size="4" />
			<output>
				<port id="0" precision="FP32">
					<dim>1</dim>
					<dim>1</dim>
					<dim>1</dim>
					<dim>1</dim>
				</port>
			</output>
		</layer>
		<layer id="28" name="/stem/bn/act/Sigmoid_output_0_DequantizeLinear" type="FakeQuantize" version="opset1">
			<data levels="256" auto_broadcast="numpy" />
			<input>
				<port id="0" precision="FP32">
					<dim>1</dim>
					<dim>24</dim>
					<dim>128</dim>
					<dim>128</dim>
				</port>
				<port id="1" precision="FP32">
					<dim>1</dim>
					<dim>1</dim>
					<dim>1</dim>
					<dim>1</dim>
				</port>
				<port id="2" precision="FP32">
					<dim>1</dim>
					<dim>1</dim>
					<dim>1</dim>
					<dim>1</dim>
				</port>
				<port id="3" precision="FP32">
					<dim>1</dim>
					<dim>1</dim>
					<dim>1</dim>
					<dim>1</dim>
				</port>
				<port id="4" precision="FP32">
					<dim>1</dim>
					<dim>1</dim>
					<dim>1</dim>
					<dim>1</dim>
				</port>
			</input>
			<output>
				<port id="5" precision="FP32" names="/stem/bn/act/Sigmoid_output_0_DequantizeLinear_Output">
					<dim>1</dim>
					<dim>24</dim>
					<dim>128</dim>
					<dim>128</dim>
				</port>
			</output>
		</layer>
		<layer id="29" name="/stem/bn/act/Mul" type="Multiply" version="opset1">
			<data auto_broadcast="numpy" />
			<input>
				<port id="0" precision="FP32">
					<dim>1</dim>
					<dim>24</dim>
					<dim>128</dim>
					<dim>128</dim>
				</port>
				<port id="1" precision="FP32">
					<dim>1</dim>
					<dim>24</dim>
					<dim>128</dim>
					<dim>128</dim>
				</port>
			</input>
			<output>
				<port id="2" precision="FP32" names="/stem/bn/act/Mul_output_0">
					<dim>1</dim>
					<dim>24</dim>
					<dim>128</dim>
					<dim>128</dim>
				</port>
			</output>
		</layer>
		<layer id="30" name="Constant_32123" type="Const" version="opset1">
			<data element_type="f32" shape="1, 1, 1, 1" offset="800" size="4" />
			<output>
				<port id="0" precision="FP32">
					<dim>1</dim>
					<dim>1</dim>
					<dim>1</dim>
					<dim>1</dim>
				</port>
			</output>
		</layer>
		<layer id="31" name="Constant_32124" type="Const" version="opset1">
			<data element_type="f32" shape="1, 1, 1, 1" offset="808" size="4" />
			<output>
				<port id="0" precision="FP32">
					<dim>1</dim>
					<dim>1</dim>
					<dim>1</dim>
					<dim>1</dim>
				</port>
			</output>
		</layer>
		<layer id="32" name="Constant_32125" type="Const" version="opset1">
			<data element_type="f32" shape="1, 1, 1, 1" offset="800" size="4" />
			<output>
				<port id="0" precision="FP32">
					<dim>1</dim>
					<dim>1</dim>
					<dim>1</dim>
					<dim>1</dim>
				</port>
			</output>
		</layer>
		<layer id="33" name="Constant_32126" type="Const" version="opset1">
			<data element_type="f32" shape="1, 1, 1, 1" offset="808" size="4" />
			<output>
				<port id="0" precision="FP32">
					<dim>1</dim>
					<dim>1</dim>
					<dim>1</dim>
					<dim>1</dim>
				</port>
			</output>
		</layer>
		<layer id="34" name="/stem/bn/act/Mul_output_0_DequantizeLinear" type="FakeQuantize" version="opset1">
			<data levels="256" auto_broadcast="numpy" />
			<input>
				<port id="0" precision="FP32">
					<dim>1</dim>
					<dim>24</dim>
					<dim>128</dim>
					<dim>128</dim>
				</port>
				<port id="1" precision="FP32">
					<dim>1</dim>
					<dim>1</dim>
					<dim>1</dim>
					<dim>1</dim>
				</port>
				<port id="2" precision="FP32">
					<dim>1</dim>
					<dim>1</dim>
					<dim>1</dim>
					<dim>1</dim>
				</port>
				<port id="3" precision="FP32">
					<dim>1</dim>
					<dim>1</dim>
					<dim>1</dim>
					<dim>1</dim>
				</port>
				<port id="4" precision="FP32">
					<dim>1</dim>
					<dim>1</dim>
					<dim>1</dim>
					<dim>1</dim>
				</port>
			</input>
			<output>
				<port id="5" precision="FP32" names="/stem/bn/act/Mul_output_0_DequantizeLinear_Output">
					<dim>1</dim>
					<dim>24</dim>
					<dim>128</dim>
					<dim>128</dim>
				</port>
			</output>
		</layer>
		<layer id="35" name="onnx::Conv_978_quantized" type="Const" version="opset1">
			<data element_type="i8" shape="48, 24, 1, 1" offset="812" size="1152" />
			<output>
				<port id="0" precision="I8" names="onnx::Conv_978_quantized">
					<dim>48</dim>
					<dim>24</dim>
					<dim>1</dim>
					<dim>1</dim>
				</port>
			</output>
		</layer>
		<layer id="36" name="Convert_1729" type="Convert" version="opset1">
			<data destination_type="f32" />
			<input>
				<port id="0" precision="I8">
					<dim>48</dim>
					<dim>24</dim>
					<dim>1</dim>
					<dim>1</dim>
				</port>
			</input>
			<output>
				<port id="1" precision="FP32">
					<dim>48</dim>
					<dim>24</dim>
					<dim>1</dim>
					<dim>1</dim>
				</port>
			</output>
		</layer>
		<layer id="37" name="Constant_32127" type="Const" version="opset1">
			<data element_type="f32" shape="1, 1, 1, 1" offset="1964" size="4" />
			<output>
				<port id="0" precision="FP32">
					<dim>1</dim>
					<dim>1</dim>
					<dim>1</dim>
					<dim>1</dim>
				</port>
			</output>
		</layer>
		<layer id="38" name="onnx::Conv_978_DequantizeLinear" type="Multiply" version="opset1">
			<data auto_broadcast="numpy" />
			<input>
				<port id="0" precision="FP32">
					<dim>48</dim>
					<dim>24</dim>
					<dim>1</dim>
					<dim>1</dim>
				</port>
				<port id="1" precision="FP32">
					<dim>1</dim>
					<dim>1</dim>
					<dim>1</dim>
					<dim>1</dim>
				</port>
			</input>
			<output>
				<port id="2" precision="FP32" names="onnx::Conv_978_DequantizeLinear_Output">
					<dim>48</dim>
					<dim>24</dim>
					<dim>1</dim>
					<dim>1</dim>
				</port>
			</output>
		</layer>
		<layer id="39" name="/stages/stages.0/stages.0.0/conv1_1x1/conv/Conv/WithoutBiases" type="Convolution" version="opset1">
			<data strides="1, 1" dilations="1, 1" pads_begin="0, 0" pads_end="0, 0" auto_pad="explicit" />
			<input>
				<port id="0" precision="FP32">
					<dim>1</dim>
					<dim>24</dim>
					<dim>128</dim>
					<dim>128</dim>
				</port>
				<port id="1" precision="FP32">
					<dim>48</dim>
					<dim>24</dim>
					<dim>1</dim>
					<dim>1</dim>
				</port>
			</input>
			<output>
				<port id="2" precision="FP32">
					<dim>1</dim>
					<dim>48</dim>
					<dim>128</dim>
					<dim>128</dim>
				</port>
			</output>
		</layer>
		<layer id="40" name="onnx::Conv_979_quantized" type="Const" version="opset1">
			<data element_type="i32" shape="48" offset="1968" size="192" />
			<output>
				<port id="0" precision="I32" names="onnx::Conv_979_quantized">
					<dim>48</dim>
				</port>
			</output>
		</layer>
		<layer id="41" name="Convert_1734" type="Convert" version="opset1">
			<data destination_type="f32" />
			<input>
				<port id="0" precision="I32">
					<dim>48</dim>
				</port>
			</input>
			<output>
				<port id="1" precision="FP32">
					<dim>48</dim>
				</port>
			</output>
		</layer>
		<layer id="42" name="onnx::Conv_979_quantized_scale" type="Const" version="opset1">
			<data element_type="f32" shape="1" offset="2160" size="4" />
			<output>
				<port id="0" precision="FP32" names="onnx::Conv_979_quantized_scale">
					<dim>1</dim>
				</port>
			</output>
		</layer>
		<layer id="43" name="onnx::Conv_979_DequantizeLinear" type="Multiply" version="opset1">
			<data auto_broadcast="numpy" />
			<input>
				<port id="0" precision="FP32">
					<dim>48</dim>
				</port>
				<port id="1" precision="FP32">
					<dim>1</dim>
				</port>
			</input>
			<output>
				<port id="2" precision="FP32" names="onnx::Conv_979">
					<dim>48</dim>
				</port>
			</output>
		</layer>
		<layer id="44" name="Concat_2360" type="Const" version="opset1">
			<data element_type="i64" shape="4" offset="2164" size="32" />
			<output>
				<port id="0" precision="I64">
					<dim>4</dim>
				</port>
			</output>
		</layer>
		<layer id="45" name="Reshape_2361" type="Reshape" version="opset1">
			<data special_zero="false" />
			<input>
				<port id="0" precision="FP32">
					<dim>48</dim>
				</port>
				<port id="1" precision="I64">
					<dim>4</dim>
				</port>
			</input>
			<output>
				<port id="2" precision="FP32">
					<dim>1</dim>
					<dim>48</dim>
					<dim>1</dim>
					<dim>1</dim>
				</port>
			</output>
		</layer>
		<layer id="46" name="/stages/stages.0/stages.0.0/conv1_1x1/conv/Conv" type="Add" version="opset1">
			<data auto_broadcast="numpy" />
			<input>
				<port id="0" precision="FP32">
					<dim>1</dim>
					<dim>48</dim>
					<dim>128</dim>
					<dim>128</dim>
				</port>
				<port id="1" precision="FP32">
					<dim>1</dim>
					<dim>48</dim>
					<dim>1</dim>
					<dim>1</dim>
				</port>
			</input>
			<output>
				<port id="2" precision="FP32" names="/stages/stages.0/stages.0.0/conv1_1x1/conv/Conv_output_0">
					<dim>1</dim>
					<dim>48</dim>
					<dim>128</dim>
					<dim>128</dim>
				</port>
			</output>
		</layer>
		<layer id="47" name="Constant_32128" type="Const" version="opset1">
			<data element_type="f32" shape="1, 1, 1, 1" offset="2196" size="4" />
			<output>
				<port id="0" precision="FP32">
					<dim>1</dim>
					<dim>1</dim>
					<dim>1</dim>
					<dim>1</dim>
				</port>
			</output>
		</layer>
		<layer id="48" name="Constant_32129" type="Const" version="opset1">
			<data element_type="f32" shape="1, 1, 1, 1" offset="2200" size="4" />
			<output>
				<port id="0" precision="FP32">
					<dim>1</dim>
					<dim>1</dim>
					<dim>1</dim>
					<dim>1</dim>
				</port>
			</output>
		</layer>
		<layer id="49" name="Constant_32130" type="Const" version="opset1">
			<data element_type="f32" shape="1, 1, 1, 1" offset="2196" size="4" />
			<output>
				<port id="0" precision="FP32">
					<dim>1</dim>
					<dim>1</dim>
					<dim>1</dim>
					<dim>1</dim>
				</port>
			</output>
		</layer>
		<layer id="50" name="Constant_32131" type="Const" version="opset1">
			<data element_type="f32" shape="1, 1, 1, 1" offset="2200" size="4" />
			<output>
				<port id="0" precision="FP32">
					<dim>1</dim>
					<dim>1</dim>
					<dim>1</dim>
					<dim>1</dim>
				</port>
			</output>
		</layer>
		<layer id="51" name="/stages/stages.0/stages.0.0/conv1_1x1/conv/Conv_output_0_DequantizeLinear" type="FakeQuantize" version="opset1">
			<data levels="256" auto_broadcast="numpy" />
			<input>
				<port id="0" precision="FP32">
					<dim>1</dim>
					<dim>48</dim>
					<dim>128</dim>
					<dim>128</dim>
				</port>
				<port id="1" precision="FP32">
					<dim>1</dim>
					<dim>1</dim>
					<dim>1</dim>
					<dim>1</dim>
				</port>
				<port id="2" precision="FP32">
					<dim>1</dim>
					<dim>1</dim>
					<dim>1</dim>
					<dim>1</dim>
				</port>
				<port id="3" precision="FP32">
					<dim>1</dim>
					<dim>1</dim>
					<dim>1</dim>
					<dim>1</dim>
				</port>
				<port id="4" precision="FP32">
					<dim>1</dim>
					<dim>1</dim>
					<dim>1</dim>
					<dim>1</dim>
				</port>
			</input>
			<output>
				<port id="5" precision="FP32" names="/stages/stages.0/stages.0.0/conv1_1x1/conv/Conv_output_0_DequantizeLinear_Output">
					<dim>1</dim>
					<dim>48</dim>
					<dim>128</dim>
					<dim>128</dim>
				</port>
			</output>
		</layer>
		<layer id="52" name="/stages/stages.0/stages.0.0/conv1_1x1/bn/act/Sigmoid" type="Sigmoid" version="opset1">
			<input>
				<port id="0" precision="FP32">
					<dim>1</dim>
					<dim>48</dim>
					<dim>128</dim>
					<dim>128</dim>
				</port>
			</input>
			<output>
				<port id="1" precision="FP32" names="/stages/stages.0/stages.0.0/conv1_1x1/bn/act/Sigmoid_output_0">
					<dim>1</dim>
					<dim>48</dim>
					<dim>128</dim>
					<dim>128</dim>
				</port>
			</output>
		</layer>
		<layer id="53" name="Constant_32132" type="Const" version="opset1">
			<data element_type="f32" shape="1, 1, 1, 1" offset="800" size="4" />
			<output>
				<port id="0" precision="FP32">
					<dim>1</dim>
					<dim>1</dim>
					<dim>1</dim>
					<dim>1</dim>
				</port>
			</output>
		</layer>
		<layer id="54" name="Constant_32133" type="Const" version="opset1">
			<data element_type="f32" shape="1, 1, 1, 1" offset="804" size="4" />
			<output>
				<port id="0" precision="FP32">
					<dim>1</dim>
					<dim>1</dim>
					<dim>1</dim>
					<dim>1</dim>
				</port>
			</output>
		</layer>
		<layer id="55" name="Constant_32134" type="Const" version="opset1">
			<data element_type="f32" shape="1, 1, 1, 1" offset="800" size="4" />
			<output>
				<port id="0" precision="FP32">
					<dim>1</dim>
					<dim>1</dim>
					<dim>1</dim>
					<dim>1</dim>
				</port>
			</output>
		</layer>
		<layer id="56" name="Constant_32135" type="Const" version="opset1">
			<data element_type="f32" shape="1, 1, 1, 1" offset="804" size="4" />
			<output>
				<port id="0" precision="FP32">
					<dim>1</dim>
					<dim>1</dim>
					<dim>1</dim>
					<dim>1</dim>
				</port>
			</output>
		</layer>
		<layer id="57" name="/stages/stages.0/stages.0.0/conv1_1x1/bn/act/Sigmoid_output_0_DequantizeLinear" type="FakeQuantize" version="opset1">
			<data levels="256" auto_broadcast="numpy" />
			<input>
				<port id="0" precision="FP32">
					<dim>1</dim>
					<dim>48</dim>
					<dim>128</dim>
					<dim>128</dim>
				</port>
				<port id="1" precision="FP32">
					<dim>1</dim>
					<dim>1</dim>
					<dim>1</dim>
					<dim>1</dim>
				</port>
				<port id="2" precision="FP32">
					<dim>1</dim>
					<dim>1</dim>
					<dim>1</dim>
					<dim>1</dim>
				</port>
				<port id="3" precision="FP32">
					<dim>1</dim>
					<dim>1</dim>
					<dim>1</dim>
					<dim>1</dim>
				</port>
				<port id="4" precision="FP32">
					<dim>1</dim>
					<dim>1</dim>
					<dim>1</dim>
					<dim>1</dim>
				</port>
			</input>
			<output>
				<port id="5" precision="FP32" names="/stages/stages.0/stages.0.0/conv1_1x1/bn/act/Sigmoid_output_0_DequantizeLinear_Output">
					<dim>1</dim>
					<dim>48</dim>
					<dim>128</dim>
					<dim>128</dim>
				</port>
			</output>
		</layer>
		<layer id="58" name="/stages/stages.0/stages.0.0/conv1_1x1/bn/act/Mul" type="Multiply" version="opset1">
			<data auto_broadcast="numpy" />
			<input>
				<port id="0" precision="FP32">
					<dim>1</dim>
					<dim>48</dim>
					<dim>128</dim>
					<dim>128</dim>
				</port>
				<port id="1" precision="FP32">
					<dim>1</dim>
					<dim>48</dim>
					<dim>128</dim>
					<dim>128</dim>
				</port>
			</input>
			<output>
				<port id="2" precision="FP32" names="/stages/stages.0/stages.0.0/conv1_1x1/bn/act/Mul_output_0">
					<dim>1</dim>
					<dim>48</dim>
					<dim>128</dim>
					<dim>128</dim>
				</port>
			</output>
		</layer>
		<layer id="59" name="Constant_32136" type="Const" version="opset1">
			<data element_type="f32" shape="1, 1, 1, 1" offset="800" size="4" />
			<output>
				<port id="0" precision="FP32">
					<dim>1</dim>
					<dim>1</dim>
					<dim>1</dim>
					<dim>1</dim>
				</port>
			</output>
		</layer>
		<layer id="60" name="Constant_32137" type="Const" version="opset1">
			<data element_type="f32" shape="1, 1, 1, 1" offset="2204" size="4" />
			<output>
				<port id="0" precision="FP32">
					<dim>1</dim>
					<dim>1</dim>
					<dim>1</dim>
					<dim>1</dim>
				</port>
			</output>
		</layer>
		<layer id="61" name="Constant_32138" type="Const" version="opset1">
			<data element_type="f32" shape="1, 1, 1, 1" offset="800" size="4" />
			<output>
				<port id="0" precision="FP32">
					<dim>1</dim>
					<dim>1</dim>
					<dim>1</dim>
					<dim>1</dim>
				</port>
			</output>
		</layer>
		<layer id="62" name="Constant_32139" type="Const" version="opset1">
			<data element_type="f32" shape="1, 1, 1, 1" offset="2204" size="4" />
			<output>
				<port id="0" precision="FP32">
					<dim>1</dim>
					<dim>1</dim>
					<dim>1</dim>
					<dim>1</dim>
				</port>
			</output>
		</layer>
		<layer id="63" name="/stages/stages.0/stages.0.0/conv1_1x1/bn/act/Mul_output_0_DequantizeLinear" type="FakeQuantize" version="opset1">
			<data levels="256" auto_broadcast="numpy" />
			<input>
				<port id="0" precision="FP32">
					<dim>1</dim>
					<dim>48</dim>
					<dim>128</dim>
					<dim>128</dim>
				</port>
				<port id="1" precision="FP32">
					<dim>1</dim>
					<dim>1</dim>
					<dim>1</dim>
					<dim>1</dim>
				</port>
				<port id="2" precision="FP32">
					<dim>1</dim>
					<dim>1</dim>
					<dim>1</dim>
					<dim>1</dim>
				</port>
				<port id="3" precision="FP32">
					<dim>1</dim>
					<dim>1</dim>
					<dim>1</dim>
					<dim>1</dim>
				</port>
				<port id="4" precision="FP32">
					<dim>1</dim>
					<dim>1</dim>
					<dim>1</dim>
					<dim>1</dim>
				</port>
			</input>
			<output>
				<port id="5" precision="FP32" names="/stages/stages.0/stages.0.0/conv1_1x1/bn/act/Mul_output_0_DequantizeLinear_Output">
					<dim>1</dim>
					<dim>48</dim>
					<dim>128</dim>
					<dim>128</dim>
				</port>
			</output>
		</layer>
		<layer id="64" name="onnx::Conv_981_quantized" type="Const" version="opset1">
			<data element_type="i8" shape="48, 1, 3, 3" offset="2208" size="432" />
			<output>
				<port id="0" precision="I8" names="onnx::Conv_981_quantized">
					<dim>48</dim>
					<dim>1</dim>
					<dim>3</dim>
					<dim>3</dim>
				</port>
			</output>
		</layer>
		<layer id="65" name="Convert_1739" type="Convert" version="opset1">
			<data destination_type="f32" />
			<input>
				<port id="0" precision="I8">
					<dim>48</dim>
					<dim>1</dim>
					<dim>3</dim>
					<dim>3</dim>
				</port>
			</input>
			<output>
				<port id="1" precision="FP32">
					<dim>48</dim>
					<dim>1</dim>
					<dim>3</dim>
					<dim>3</dim>
				</port>
			</output>
		</layer>
		<layer id="66" name="Constant_32140" type="Const" version="opset1">
			<data element_type="f32" shape="1, 1, 1, 1" offset="2640" size="4" />
			<output>
				<port id="0" precision="FP32">
					<dim>1</dim>
					<dim>1</dim>
					<dim>1</dim>
					<dim>1</dim>
				</port>
			</output>
		</layer>
		<layer id="67" name="onnx::Conv_981_DequantizeLinear" type="Multiply" version="opset1">
			<data auto_broadcast="numpy" />
			<input>
				<port id="0" precision="FP32">
					<dim>48</dim>
					<dim>1</dim>
					<dim>3</dim>
					<dim>3</dim>
				</port>
				<port id="1" precision="FP32">
					<dim>1</dim>
					<dim>1</dim>
					<dim>1</dim>
					<dim>1</dim>
				</port>
			</input>
			<output>
				<port id="2" precision="FP32" names="onnx::Conv_981_DequantizeLinear_Output">
					<dim>48</dim>
					<dim>1</dim>
					<dim>3</dim>
					<dim>3</dim>
				</port>
			</output>
		</layer>
		<layer id="68" name="Constant_34235" type="Const" version="opset1">
			<data element_type="i64" shape="5" offset="2644" size="40" />
			<output>
				<port id="0" precision="I64">
					<dim>5</dim>
				</port>
			</output>
		</layer>
		<layer id="69" name="Reshape_2420" type="Reshape" version="opset1">
			<data special_zero="true" />
			<input>
				<port id="0" precision="FP32">
					<dim>48</dim>
					<dim>1</dim>
					<dim>3</dim>
					<dim>3</dim>
				</port>
				<port id="1" precision="I64">
					<dim>5</dim>
				</port>
			</input>
			<output>
				<port id="2" precision="FP32">
					<dim>48</dim>
					<dim>1</dim>
					<dim>1</dim>
					<dim>3</dim>
					<dim>3</dim>
				</port>
			</output>
		</layer>
		<layer id="70" name="/stages/stages.0/stages.0.0/conv2_kxk/conv/Conv/WithoutBiases" type="GroupConvolution" version="opset1">
			<data strides="1, 1" pads_begin="1, 1" pads_end="1, 1" dilations="1, 1" auto_pad="explicit" />
			<input>
				<port id="0" precision="FP32">
					<dim>1</dim>
					<dim>48</dim>
					<dim>128</dim>
					<dim>128</dim>
				</port>
				<port id="1" precision="FP32">
					<dim>48</dim>
					<dim>1</dim>
					<dim>1</dim>
					<dim>3</dim>
					<dim>3</dim>
				</port>
			</input>
			<output>
				<port id="2" precision="FP32">
					<dim>1</dim>
					<dim>48</dim>
					<dim>128</dim>
					<dim>128</dim>
				</port>
			</output>
		</layer>
		<layer id="71" name="onnx::Conv_982_quantized" type="Const" version="opset1">
			<data element_type="i32" shape="48" offset="2684" size="192" />
			<output>
				<port id="0" precision="I32" names="onnx::Conv_982_quantized">
					<dim>48</dim>
				</port>
			</output>
		</layer>
		<layer id="72" name="Convert_1744" type="Convert" version="opset1">
			<data destination_type="f32" />
			<input>
				<port id="0" precision="I32">
					<dim>48</dim>
				</port>
			</input>
			<output>
				<port id="1" precision="FP32">
					<dim>48</dim>
				</port>
			</output>
		</layer>
		<layer id="73" name="onnx::Conv_982_quantized_scale" type="Const" version="opset1">
			<data element_type="f32" shape="1" offset="2876" size="4" />
			<output>
				<port id="0" precision="FP32" names="onnx::Conv_982_quantized_scale">
					<dim>1</dim>
				</port>
			</output>
		</layer>
		<layer id="74" name="onnx::Conv_982_DequantizeLinear" type="Multiply" version="opset1">
			<data auto_broadcast="numpy" />
			<input>
				<port id="0" precision="FP32">
					<dim>48</dim>
				</port>
				<port id="1" precision="FP32">
					<dim>1</dim>
				</port>
			</input>
			<output>
				<port id="2" precision="FP32" names="onnx::Conv_982">
					<dim>48</dim>
				</port>
			</output>
		</layer>
		<layer id="75" name="Concat_2469" type="Const" version="opset1">
			<data element_type="i64" shape="4" offset="2164" size="32" />
			<output>
				<port id="0" precision="I64">
					<dim>4</dim>
				</port>
			</output>
		</layer>
		<layer id="76" name="Reshape_2470" type="Reshape" version="opset1">
			<data special_zero="false" />
			<input>
				<port id="0" precision="FP32">
					<dim>48</dim>
				</port>
				<port id="1" precision="I64">
					<dim>4</dim>
				</port>
			</input>
			<output>
				<port id="2" precision="FP32">
					<dim>1</dim>
					<dim>48</dim>
					<dim>1</dim>
					<dim>1</dim>
				</port>
			</output>
		</layer>
		<layer id="77" name="/stages/stages.0/stages.0.0/conv2_kxk/conv/Conv" type="Add" version="opset1">
			<data auto_broadcast="numpy" />
			<input>
				<port id="0" precision="FP32">
					<dim>1</dim>
					<dim>48</dim>
					<dim>128</dim>
					<dim>128</dim>
				</port>
				<port id="1" precision="FP32">
					<dim>1</dim>
					<dim>48</dim>
					<dim>1</dim>
					<dim>1</dim>
				</port>
			</input>
			<output>
				<port id="2" precision="FP32" names="/stages/stages.0/stages.0.0/conv2_kxk/conv/Conv_output_0">
					<dim>1</dim>
					<dim>48</dim>
					<dim>128</dim>
					<dim>128</dim>
				</port>
			</output>
		</layer>
		<layer id="78" name="Constant_32141" type="Const" version="opset1">
			<data element_type="f32" shape="1, 1, 1, 1" offset="2880" size="4" />
			<output>
				<port id="0" precision="FP32">
					<dim>1</dim>
					<dim>1</dim>
					<dim>1</dim>
					<dim>1</dim>
				</port>
			</output>
		</layer>
		<layer id="79" name="Constant_32142" type="Const" version="opset1">
			<data element_type="f32" shape="1, 1, 1, 1" offset="2884" size="4" />
			<output>
				<port id="0" precision="FP32">
					<dim>1</dim>
					<dim>1</dim>
					<dim>1</dim>
					<dim>1</dim>
				</port>
			</output>
		</layer>
		<layer id="80" name="Constant_32143" type="Const" version="opset1">
			<data element_type="f32" shape="1, 1, 1, 1" offset="2880" size="4" />
			<output>
				<port id="0" precision="FP32">
					<dim>1</dim>
					<dim>1</dim>
					<dim>1</dim>
					<dim>1</dim>
				</port>
			</output>
		</layer>
		<layer id="81" name="Constant_32144" type="Const" version="opset1">
			<data element_type="f32" shape="1, 1, 1, 1" offset="2884" size="4" />
			<output>
				<port id="0" precision="FP32">
					<dim>1</dim>
					<dim>1</dim>
					<dim>1</dim>
					<dim>1</dim>
				</port>
			</output>
		</layer>
		<layer id="82" name="/stages/stages.0/stages.0.0/conv2_kxk/conv/Conv_output_0_DequantizeLinear" type="FakeQuantize" version="opset1">
			<data levels="256" auto_broadcast="numpy" />
			<input>
				<port id="0" precision="FP32">
					<dim>1</dim>
					<dim>48</dim>
					<dim>128</dim>
					<dim>128</dim>
				</port>
				<port id="1" precision="FP32">
					<dim>1</dim>
					<dim>1</dim>
					<dim>1</dim>
					<dim>1</dim>
				</port>
				<port id="2" precision="FP32">
					<dim>1</dim>
					<dim>1</dim>
					<dim>1</dim>
					<dim>1</dim>
				</port>
				<port id="3" precision="FP32">
					<dim>1</dim>
					<dim>1</dim>
					<dim>1</dim>
					<dim>1</dim>
				</port>
				<port id="4" precision="FP32">
					<dim>1</dim>
					<dim>1</dim>
					<dim>1</dim>
					<dim>1</dim>
				</port>
			</input>
			<output>
				<port id="5" precision="FP32" names="/stages/stages.0/stages.0.0/conv2_kxk/conv/Conv_output_0_DequantizeLinear_Output">
					<dim>1</dim>
					<dim>48</dim>
					<dim>128</dim>
					<dim>128</dim>
				</port>
			</output>
		</layer>
		<layer id="83" name="/stages/stages.0/stages.0.0/conv2_kxk/bn/act/Sigmoid" type="Sigmoid" version="opset1">
			<input>
				<port id="0" precision="FP32">
					<dim>1</dim>
					<dim>48</dim>
					<dim>128</dim>
					<dim>128</dim>
				</port>
			</input>
			<output>
				<port id="1" precision="FP32" names="/stages/stages.0/stages.0.0/conv2_kxk/bn/act/Sigmoid_output_0">
					<dim>1</dim>
					<dim>48</dim>
					<dim>128</dim>
					<dim>128</dim>
				</port>
			</output>
		</layer>
		<layer id="84" name="Constant_32145" type="Const" version="opset1">
			<data element_type="f32" shape="1, 1, 1, 1" offset="800" size="4" />
			<output>
				<port id="0" precision="FP32">
					<dim>1</dim>
					<dim>1</dim>
					<dim>1</dim>
					<dim>1</dim>
				</port>
			</output>
		</layer>
		<layer id="85" name="Constant_32146" type="Const" version="opset1">
			<data element_type="f32" shape="1, 1, 1, 1" offset="804" size="4" />
			<output>
				<port id="0" precision="FP32">
					<dim>1</dim>
					<dim>1</dim>
					<dim>1</dim>
					<dim>1</dim>
				</port>
			</output>
		</layer>
		<layer id="86" name="Constant_32147" type="Const" version="opset1">
			<data element_type="f32" shape="1, 1, 1, 1" offset="800" size="4" />
			<output>
				<port id="0" precision="FP32">
					<dim>1</dim>
					<dim>1</dim>
					<dim>1</dim>
					<dim>1</dim>
				</port>
			</output>
		</layer>
		<layer id="87" name="Constant_32148" type="Const" version="opset1">
			<data element_type="f32" shape="1, 1, 1, 1" offset="804" size="4" />
			<output>
				<port id="0" precision="FP32">
					<dim>1</dim>
					<dim>1</dim>
					<dim>1</dim>
					<dim>1</dim>
				</port>
			</output>
		</layer>
		<layer id="88" name="/stages/stages.0/stages.0.0/conv2_kxk/bn/act/Sigmoid_output_0_DequantizeLinear" type="FakeQuantize" version="opset1">
			<data levels="256" auto_broadcast="numpy" />
			<input>
				<port id="0" precision="FP32">
					<dim>1</dim>
					<dim>48</dim>
					<dim>128</dim>
					<dim>128</dim>
				</port>
				<port id="1" precision="FP32">
					<dim>1</dim>
					<dim>1</dim>
					<dim>1</dim>
					<dim>1</dim>
				</port>
				<port id="2" precision="FP32">
					<dim>1</dim>
					<dim>1</dim>
					<dim>1</dim>
					<dim>1</dim>
				</port>
				<port id="3" precision="FP32">
					<dim>1</dim>
					<dim>1</dim>
					<dim>1</dim>
					<dim>1</dim>
				</port>
				<port id="4" precision="FP32">
					<dim>1</dim>
					<dim>1</dim>
					<dim>1</dim>
					<dim>1</dim>
				</port>
			</input>
			<output>
				<port id="5" precision="FP32" names="/stages/stages.0/stages.0.0/conv2_kxk/bn/act/Sigmoid_output_0_DequantizeLinear_Output">
					<dim>1</dim>
					<dim>48</dim>
					<dim>128</dim>
					<dim>128</dim>
				</port>
			</output>
		</layer>
		<layer id="89" name="/stages/stages.0/stages.0.0/conv2_kxk/bn/act/Mul" type="Multiply" version="opset1">
			<data auto_broadcast="numpy" />
			<input>
				<port id="0" precision="FP32">
					<dim>1</dim>
					<dim>48</dim>
					<dim>128</dim>
					<dim>128</dim>
				</port>
				<port id="1" precision="FP32">
					<dim>1</dim>
					<dim>48</dim>
					<dim>128</dim>
					<dim>128</dim>
				</port>
			</input>
			<output>
				<port id="2" precision="FP32" names="/stages/stages.0/stages.0.0/conv2_kxk/bn/act/Mul_output_0">
					<dim>1</dim>
					<dim>48</dim>
					<dim>128</dim>
					<dim>128</dim>
				</port>
			</output>
		</layer>
		<layer id="90" name="Constant_32149" type="Const" version="opset1">
			<data element_type="f32" shape="1, 1, 1, 1" offset="800" size="4" />
			<output>
				<port id="0" precision="FP32">
					<dim>1</dim>
					<dim>1</dim>
					<dim>1</dim>
					<dim>1</dim>
				</port>
			</output>
		</layer>
		<layer id="91" name="Constant_32150" type="Const" version="opset1">
			<data element_type="f32" shape="1, 1, 1, 1" offset="2888" size="4" />
			<output>
				<port id="0" precision="FP32">
					<dim>1</dim>
					<dim>1</dim>
					<dim>1</dim>
					<dim>1</dim>
				</port>
			</output>
		</layer>
		<layer id="92" name="Constant_32151" type="Const" version="opset1">
			<data element_type="f32" shape="1, 1, 1, 1" offset="800" size="4" />
			<output>
				<port id="0" precision="FP32">
					<dim>1</dim>
					<dim>1</dim>
					<dim>1</dim>
					<dim>1</dim>
				</port>
			</output>
		</layer>
		<layer id="93" name="Constant_32152" type="Const" version="opset1">
			<data element_type="f32" shape="1, 1, 1, 1" offset="2888" size="4" />
			<output>
				<port id="0" precision="FP32">
					<dim>1</dim>
					<dim>1</dim>
					<dim>1</dim>
					<dim>1</dim>
				</port>
			</output>
		</layer>
		<layer id="94" name="/stages/stages.0/stages.0.0/conv2_kxk/bn/act/Mul_output_0_DequantizeLinear" type="FakeQuantize" version="opset1">
			<data levels="256" auto_broadcast="numpy" />
			<input>
				<port id="0" precision="FP32">
					<dim>1</dim>
					<dim>48</dim>
					<dim>128</dim>
					<dim>128</dim>
				</port>
				<port id="1" precision="FP32">
					<dim>1</dim>
					<dim>1</dim>
					<dim>1</dim>
					<dim>1</dim>
				</port>
				<port id="2" precision="FP32">
					<dim>1</dim>
					<dim>1</dim>
					<dim>1</dim>
					<dim>1</dim>
				</port>
				<port id="3" precision="FP32">
					<dim>1</dim>
					<dim>1</dim>
					<dim>1</dim>
					<dim>1</dim>
				</port>
				<port id="4" precision="FP32">
					<dim>1</dim>
					<dim>1</dim>
					<dim>1</dim>
					<dim>1</dim>
				</port>
			</input>
			<output>
				<port id="5" precision="FP32" names="/stages/stages.0/stages.0.0/conv2_kxk/bn/act/Mul_output_0_DequantizeLinear_Output">
					<dim>1</dim>
					<dim>48</dim>
					<dim>128</dim>
					<dim>128</dim>
				</port>
			</output>
		</layer>
		<layer id="95" name="onnx::Conv_984_quantized" type="Const" version="opset1">
			<data element_type="i8" shape="48, 48, 1, 1" offset="2892" size="2304" />
			<output>
				<port id="0" precision="I8" names="onnx::Conv_984_quantized">
					<dim>48</dim>
					<dim>48</dim>
					<dim>1</dim>
					<dim>1</dim>
				</port>
			</output>
		</layer>
		<layer id="96" name="Convert_1749" type="Convert" version="opset1">
			<data destination_type="f32" />
			<input>
				<port id="0" precision="I8">
					<dim>48</dim>
					<dim>48</dim>
					<dim>1</dim>
					<dim>1</dim>
				</port>
			</input>
			<output>
				<port id="1" precision="FP32">
					<dim>48</dim>
					<dim>48</dim>
					<dim>1</dim>
					<dim>1</dim>
				</port>
			</output>
		</layer>
		<layer id="97" name="Constant_32153" type="Const" version="opset1">
			<data element_type="f32" shape="1, 1, 1, 1" offset="5196" size="4" />
			<output>
				<port id="0" precision="FP32">
					<dim>1</dim>
					<dim>1</dim>
					<dim>1</dim>
					<dim>1</dim>
				</port>
			</output>
		</layer>
		<layer id="98" name="onnx::Conv_984_DequantizeLinear" type="Multiply" version="opset1">
			<data auto_broadcast="numpy" />
			<input>
				<port id="0" precision="FP32">
					<dim>48</dim>
					<dim>48</dim>
					<dim>1</dim>
					<dim>1</dim>
				</port>
				<port id="1" precision="FP32">
					<dim>1</dim>
					<dim>1</dim>
					<dim>1</dim>
					<dim>1</dim>
				</port>
			</input>
			<output>
				<port id="2" precision="FP32" names="onnx::Conv_984_DequantizeLinear_Output">
					<dim>48</dim>
					<dim>48</dim>
					<dim>1</dim>
					<dim>1</dim>
				</port>
			</output>
		</layer>
		<layer id="99" name="/stages/stages.0/stages.0.0/conv3_1x1/conv/Conv/WithoutBiases" type="Convolution" version="opset1">
			<data strides="1, 1" dilations="1, 1" pads_begin="0, 0" pads_end="0, 0" auto_pad="explicit" />
			<input>
				<port id="0" precision="FP32">
					<dim>1</dim>
					<dim>48</dim>
					<dim>128</dim>
					<dim>128</dim>
				</port>
				<port id="1" precision="FP32">
					<dim>48</dim>
					<dim>48</dim>
					<dim>1</dim>
					<dim>1</dim>
				</port>
			</input>
			<output>
				<port id="2" precision="FP32">
					<dim>1</dim>
					<dim>48</dim>
					<dim>128</dim>
					<dim>128</dim>
				</port>
			</output>
		</layer>
		<layer id="100" name="onnx::Conv_985_quantized" type="Const" version="opset1">
			<data element_type="i32" shape="48" offset="5200" size="192" />
			<output>
				<port id="0" precision="I32" names="onnx::Conv_985_quantized">
					<dim>48</dim>
				</port>
			</output>
		</layer>
		<layer id="101" name="Convert_1754" type="Convert" version="opset1">
			<data destination_type="f32" />
			<input>
				<port id="0" precision="I32">
					<dim>48</dim>
				</port>
			</input>
			<output>
				<port id="1" precision="FP32">
					<dim>48</dim>
				</port>
			</output>
		</layer>
		<layer id="102" name="onnx::Conv_985_quantized_scale" type="Const" version="opset1">
			<data element_type="f32" shape="1" offset="5392" size="4" />
			<output>
				<port id="0" precision="FP32" names="onnx::Conv_985_quantized_scale">
					<dim>1</dim>
				</port>
			</output>
		</layer>
		<layer id="103" name="onnx::Conv_985_DequantizeLinear" type="Multiply" version="opset1">
			<data auto_broadcast="numpy" />
			<input>
				<port id="0" precision="FP32">
					<dim>48</dim>
				</port>
				<port id="1" precision="FP32">
					<dim>1</dim>
				</port>
			</input>
			<output>
				<port id="2" precision="FP32" names="onnx::Conv_985">
					<dim>48</dim>
				</port>
			</output>
		</layer>
		<layer id="104" name="Concat_2532" type="Const" version="opset1">
			<data element_type="i64" shape="4" offset="2164" size="32" />
			<output>
				<port id="0" precision="I64">
					<dim>4</dim>
				</port>
			</output>
		</layer>
		<layer id="105" name="Reshape_2533" type="Reshape" version="opset1">
			<data special_zero="false" />
			<input>
				<port id="0" precision="FP32">
					<dim>48</dim>
				</port>
				<port id="1" precision="I64">
					<dim>4</dim>
				</port>
			</input>
			<output>
				<port id="2" precision="FP32">
					<dim>1</dim>
					<dim>48</dim>
					<dim>1</dim>
					<dim>1</dim>
				</port>
			</output>
		</layer>
		<layer id="106" name="/stages/stages.0/stages.0.0/conv3_1x1/conv/Conv" type="Add" version="opset1">
			<data auto_broadcast="numpy" />
			<input>
				<port id="0" precision="FP32">
					<dim>1</dim>
					<dim>48</dim>
					<dim>128</dim>
					<dim>128</dim>
				</port>
				<port id="1" precision="FP32">
					<dim>1</dim>
					<dim>48</dim>
					<dim>1</dim>
					<dim>1</dim>
				</port>
			</input>
			<output>
				<port id="2" precision="FP32" names="/stages/stages.0/stages.0.0/conv3_1x1/conv/Conv_output_0">
					<dim>1</dim>
					<dim>48</dim>
					<dim>128</dim>
					<dim>128</dim>
				</port>
			</output>
		</layer>
		<layer id="107" name="Constant_32154" type="Const" version="opset1">
			<data element_type="f32" shape="1, 1, 1, 1" offset="5396" size="4" />
			<output>
				<port id="0" precision="FP32">
					<dim>1</dim>
					<dim>1</dim>
					<dim>1</dim>
					<dim>1</dim>
				</port>
			</output>
		</layer>
		<layer id="108" name="Constant_32155" type="Const" version="opset1">
			<data element_type="f32" shape="1, 1, 1, 1" offset="5400" size="4" />
			<output>
				<port id="0" precision="FP32">
					<dim>1</dim>
					<dim>1</dim>
					<dim>1</dim>
					<dim>1</dim>
				</port>
			</output>
		</layer>
		<layer id="109" name="Constant_32156" type="Const" version="opset1">
			<data element_type="f32" shape="1, 1, 1, 1" offset="5396" size="4" />
			<output>
				<port id="0" precision="FP32">
					<dim>1</dim>
					<dim>1</dim>
					<dim>1</dim>
					<dim>1</dim>
				</port>
			</output>
		</layer>
		<layer id="110" name="Constant_32157" type="Const" version="opset1">
			<data element_type="f32" shape="1, 1, 1, 1" offset="5400" size="4" />
			<output>
				<port id="0" precision="FP32">
					<dim>1</dim>
					<dim>1</dim>
					<dim>1</dim>
					<dim>1</dim>
				</port>
			</output>
		</layer>
		<layer id="111" name="/stages/stages.0/stages.0.0/conv3_1x1/conv/Conv_output_0_DequantizeLinear" type="FakeQuantize" version="opset1">
			<data levels="256" auto_broadcast="numpy" />
			<input>
				<port id="0" precision="FP32">
					<dim>1</dim>
					<dim>48</dim>
					<dim>128</dim>
					<dim>128</dim>
				</port>
				<port id="1" precision="FP32">
					<dim>1</dim>
					<dim>1</dim>
					<dim>1</dim>
					<dim>1</dim>
				</port>
				<port id="2" precision="FP32">
					<dim>1</dim>
					<dim>1</dim>
					<dim>1</dim>
					<dim>1</dim>
				</port>
				<port id="3" precision="FP32">
					<dim>1</dim>
					<dim>1</dim>
					<dim>1</dim>
					<dim>1</dim>
				</port>
				<port id="4" precision="FP32">
					<dim>1</dim>
					<dim>1</dim>
					<dim>1</dim>
					<dim>1</dim>
				</port>
			</input>
			<output>
				<port id="5" precision="FP32" names="/stages/stages.0/stages.0.0/conv3_1x1/conv/Conv_output_0_DequantizeLinear_Output">
					<dim>1</dim>
					<dim>48</dim>
					<dim>128</dim>
					<dim>128</dim>
				</port>
			</output>
		</layer>
		<layer id="112" name="onnx::Conv_987_quantized" type="Const" version="opset1">
			<data element_type="i8" shape="96, 48, 1, 1" offset="5404" size="4608" />
			<output>
				<port id="0" precision="I8" names="onnx::Conv_987_quantized">
					<dim>96</dim>
					<dim>48</dim>
					<dim>1</dim>
					<dim>1</dim>
				</port>
			</output>
		</layer>
		<layer id="113" name="Convert_1759" type="Convert" version="opset1">
			<data destination_type="f32" />
			<input>
				<port id="0" precision="I8">
					<dim>96</dim>
					<dim>48</dim>
					<dim>1</dim>
					<dim>1</dim>
				</port>
			</input>
			<output>
				<port id="1" precision="FP32">
					<dim>96</dim>
					<dim>48</dim>
					<dim>1</dim>
					<dim>1</dim>
				</port>
			</output>
		</layer>
		<layer id="114" name="Constant_32158" type="Const" version="opset1">
			<data element_type="f32" shape="1, 1, 1, 1" offset="10012" size="4" />
			<output>
				<port id="0" precision="FP32">
					<dim>1</dim>
					<dim>1</dim>
					<dim>1</dim>
					<dim>1</dim>
				</port>
			</output>
		</layer>
		<layer id="115" name="onnx::Conv_987_DequantizeLinear" type="Multiply" version="opset1">
			<data auto_broadcast="numpy" />
			<input>
				<port id="0" precision="FP32">
					<dim>96</dim>
					<dim>48</dim>
					<dim>1</dim>
					<dim>1</dim>
				</port>
				<port id="1" precision="FP32">
					<dim>1</dim>
					<dim>1</dim>
					<dim>1</dim>
					<dim>1</dim>
				</port>
			</input>
			<output>
				<port id="2" precision="FP32" names="onnx::Conv_987_DequantizeLinear_Output">
					<dim>96</dim>
					<dim>48</dim>
					<dim>1</dim>
					<dim>1</dim>
				</port>
			</output>
		</layer>
		<layer id="116" name="/stages/stages.1/stages.1.0/conv1_1x1/conv/Conv/WithoutBiases" type="Convolution" version="opset1">
			<data strides="1, 1" dilations="1, 1" pads_begin="0, 0" pads_end="0, 0" auto_pad="explicit" />
			<input>
				<port id="0" precision="FP32">
					<dim>1</dim>
					<dim>48</dim>
					<dim>128</dim>
					<dim>128</dim>
				</port>
				<port id="1" precision="FP32">
					<dim>96</dim>
					<dim>48</dim>
					<dim>1</dim>
					<dim>1</dim>
				</port>
			</input>
			<output>
				<port id="2" precision="FP32">
					<dim>1</dim>
					<dim>96</dim>
					<dim>128</dim>
					<dim>128</dim>
				</port>
			</output>
		</layer>
		<layer id="117" name="onnx::Conv_988_quantized" type="Const" version="opset1">
			<data element_type="i32" shape="96" offset="10016" size="384" />
			<output>
				<port id="0" precision="I32" names="onnx::Conv_988_quantized">
					<dim>96</dim>
				</port>
			</output>
		</layer>
		<layer id="118" name="Convert_1764" type="Convert" version="opset1">
			<data destination_type="f32" />
			<input>
				<port id="0" precision="I32">
					<dim>96</dim>
				</port>
			</input>
			<output>
				<port id="1" precision="FP32">
					<dim>96</dim>
				</port>
			</output>
		</layer>
		<layer id="119" name="onnx::Conv_988_quantized_scale" type="Const" version="opset1">
			<data element_type="f32" shape="1" offset="10400" size="4" />
			<output>
				<port id="0" precision="FP32" names="onnx::Conv_988_quantized_scale">
					<dim>1</dim>
				</port>
			</output>
		</layer>
		<layer id="120" name="onnx::Conv_988_DequantizeLinear" type="Multiply" version="opset1">
			<data auto_broadcast="numpy" />
			<input>
				<port id="0" precision="FP32">
					<dim>96</dim>
				</port>
				<port id="1" precision="FP32">
					<dim>1</dim>
				</port>
			</input>
			<output>
				<port id="2" precision="FP32" names="onnx::Conv_988">
					<dim>96</dim>
				</port>
			</output>
		</layer>
		<layer id="121" name="Concat_2561" type="Const" version="opset1">
			<data element_type="i64" shape="4" offset="10404" size="32" />
			<output>
				<port id="0" precision="I64">
					<dim>4</dim>
				</port>
			</output>
		</layer>
		<layer id="122" name="Reshape_2562" type="Reshape" version="opset1">
			<data special_zero="false" />
			<input>
				<port id="0" precision="FP32">
					<dim>96</dim>
				</port>
				<port id="1" precision="I64">
					<dim>4</dim>
				</port>
			</input>
			<output>
				<port id="2" precision="FP32">
					<dim>1</dim>
					<dim>96</dim>
					<dim>1</dim>
					<dim>1</dim>
				</port>
			</output>
		</layer>
		<layer id="123" name="/stages/stages.1/stages.1.0/conv1_1x1/conv/Conv" type="Add" version="opset1">
			<data auto_broadcast="numpy" />
			<input>
				<port id="0" precision="FP32">
					<dim>1</dim>
					<dim>96</dim>
					<dim>128</dim>
					<dim>128</dim>
				</port>
				<port id="1" precision="FP32">
					<dim>1</dim>
					<dim>96</dim>
					<dim>1</dim>
					<dim>1</dim>
				</port>
			</input>
			<output>
				<port id="2" precision="FP32" names="/stages/stages.1/stages.1.0/conv1_1x1/conv/Conv_output_0">
					<dim>1</dim>
					<dim>96</dim>
					<dim>128</dim>
					<dim>128</dim>
				</port>
			</output>
		</layer>
		<layer id="124" name="Constant_32159" type="Const" version="opset1">
			<data element_type="f32" shape="1, 1, 1, 1" offset="10436" size="4" />
			<output>
				<port id="0" precision="FP32">
					<dim>1</dim>
					<dim>1</dim>
					<dim>1</dim>
					<dim>1</dim>
				</port>
			</output>
		</layer>
		<layer id="125" name="Constant_32160" type="Const" version="opset1">
			<data element_type="f32" shape="1, 1, 1, 1" offset="10440" size="4" />
			<output>
				<port id="0" precision="FP32">
					<dim>1</dim>
					<dim>1</dim>
					<dim>1</dim>
					<dim>1</dim>
				</port>
			</output>
		</layer>
		<layer id="126" name="Constant_32161" type="Const" version="opset1">
			<data element_type="f32" shape="1, 1, 1, 1" offset="10436" size="4" />
			<output>
				<port id="0" precision="FP32">
					<dim>1</dim>
					<dim>1</dim>
					<dim>1</dim>
					<dim>1</dim>
				</port>
			</output>
		</layer>
		<layer id="127" name="Constant_32162" type="Const" version="opset1">
			<data element_type="f32" shape="1, 1, 1, 1" offset="10440" size="4" />
			<output>
				<port id="0" precision="FP32">
					<dim>1</dim>
					<dim>1</dim>
					<dim>1</dim>
					<dim>1</dim>
				</port>
			</output>
		</layer>
		<layer id="128" name="/stages/stages.1/stages.1.0/conv1_1x1/conv/Conv_output_0_DequantizeLinear" type="FakeQuantize" version="opset1">
			<data levels="256" auto_broadcast="numpy" />
			<input>
				<port id="0" precision="FP32">
					<dim>1</dim>
					<dim>96</dim>
					<dim>128</dim>
					<dim>128</dim>
				</port>
				<port id="1" precision="FP32">
					<dim>1</dim>
					<dim>1</dim>
					<dim>1</dim>
					<dim>1</dim>
				</port>
				<port id="2" precision="FP32">
					<dim>1</dim>
					<dim>1</dim>
					<dim>1</dim>
					<dim>1</dim>
				</port>
				<port id="3" precision="FP32">
					<dim>1</dim>
					<dim>1</dim>
					<dim>1</dim>
					<dim>1</dim>
				</port>
				<port id="4" precision="FP32">
					<dim>1</dim>
					<dim>1</dim>
					<dim>1</dim>
					<dim>1</dim>
				</port>
			</input>
			<output>
				<port id="5" precision="FP32" names="/stages/stages.1/stages.1.0/conv1_1x1/conv/Conv_output_0_DequantizeLinear_Output">
					<dim>1</dim>
					<dim>96</dim>
					<dim>128</dim>
					<dim>128</dim>
				</port>
			</output>
		</layer>
		<layer id="129" name="/stages/stages.1/stages.1.0/conv1_1x1/bn/act/Sigmoid" type="Sigmoid" version="opset1">
			<input>
				<port id="0" precision="FP32">
					<dim>1</dim>
					<dim>96</dim>
					<dim>128</dim>
					<dim>128</dim>
				</port>
			</input>
			<output>
				<port id="1" precision="FP32" names="/stages/stages.1/stages.1.0/conv1_1x1/bn/act/Sigmoid_output_0">
					<dim>1</dim>
					<dim>96</dim>
					<dim>128</dim>
					<dim>128</dim>
				</port>
			</output>
		</layer>
		<layer id="130" name="Constant_32163" type="Const" version="opset1">
			<data element_type="f32" shape="1, 1, 1, 1" offset="800" size="4" />
			<output>
				<port id="0" precision="FP32">
					<dim>1</dim>
					<dim>1</dim>
					<dim>1</dim>
					<dim>1</dim>
				</port>
			</output>
		</layer>
		<layer id="131" name="Constant_32164" type="Const" version="opset1">
			<data element_type="f32" shape="1, 1, 1, 1" offset="804" size="4" />
			<output>
				<port id="0" precision="FP32">
					<dim>1</dim>
					<dim>1</dim>
					<dim>1</dim>
					<dim>1</dim>
				</port>
			</output>
		</layer>
		<layer id="132" name="Constant_32165" type="Const" version="opset1">
			<data element_type="f32" shape="1, 1, 1, 1" offset="800" size="4" />
			<output>
				<port id="0" precision="FP32">
					<dim>1</dim>
					<dim>1</dim>
					<dim>1</dim>
					<dim>1</dim>
				</port>
			</output>
		</layer>
		<layer id="133" name="Constant_32166" type="Const" version="opset1">
			<data element_type="f32" shape="1, 1, 1, 1" offset="804" size="4" />
			<output>
				<port id="0" precision="FP32">
					<dim>1</dim>
					<dim>1</dim>
					<dim>1</dim>
					<dim>1</dim>
				</port>
			</output>
		</layer>
		<layer id="134" name="/stages/stages.1/stages.1.0/conv1_1x1/bn/act/Sigmoid_output_0_DequantizeLinear" type="FakeQuantize" version="opset1">
			<data levels="256" auto_broadcast="numpy" />
			<input>
				<port id="0" precision="FP32">
					<dim>1</dim>
					<dim>96</dim>
					<dim>128</dim>
					<dim>128</dim>
				</port>
				<port id="1" precision="FP32">
					<dim>1</dim>
					<dim>1</dim>
					<dim>1</dim>
					<dim>1</dim>
				</port>
				<port id="2" precision="FP32">
					<dim>1</dim>
					<dim>1</dim>
					<dim>1</dim>
					<dim>1</dim>
				</port>
				<port id="3" precision="FP32">
					<dim>1</dim>
					<dim>1</dim>
					<dim>1</dim>
					<dim>1</dim>
				</port>
				<port id="4" precision="FP32">
					<dim>1</dim>
					<dim>1</dim>
					<dim>1</dim>
					<dim>1</dim>
				</port>
			</input>
			<output>
				<port id="5" precision="FP32" names="/stages/stages.1/stages.1.0/conv1_1x1/bn/act/Sigmoid_output_0_DequantizeLinear_Output">
					<dim>1</dim>
					<dim>96</dim>
					<dim>128</dim>
					<dim>128</dim>
				</port>
			</output>
		</layer>
		<layer id="135" name="/stages/stages.1/stages.1.0/conv1_1x1/bn/act/Mul" type="Multiply" version="opset1">
			<data auto_broadcast="numpy" />
			<input>
				<port id="0" precision="FP32">
					<dim>1</dim>
					<dim>96</dim>
					<dim>128</dim>
					<dim>128</dim>
				</port>
				<port id="1" precision="FP32">
					<dim>1</dim>
					<dim>96</dim>
					<dim>128</dim>
					<dim>128</dim>
				</port>
			</input>
			<output>
				<port id="2" precision="FP32" names="/stages/stages.1/stages.1.0/conv1_1x1/bn/act/Mul_output_0">
					<dim>1</dim>
					<dim>96</dim>
					<dim>128</dim>
					<dim>128</dim>
				</port>
			</output>
		</layer>
		<layer id="136" name="Constant_32167" type="Const" version="opset1">
			<data element_type="f32" shape="1, 1, 1, 1" offset="800" size="4" />
			<output>
				<port id="0" precision="FP32">
					<dim>1</dim>
					<dim>1</dim>
					<dim>1</dim>
					<dim>1</dim>
				</port>
			</output>
		</layer>
		<layer id="137" name="Constant_32168" type="Const" version="opset1">
			<data element_type="f32" shape="1, 1, 1, 1" offset="10444" size="4" />
			<output>
				<port id="0" precision="FP32">
					<dim>1</dim>
					<dim>1</dim>
					<dim>1</dim>
					<dim>1</dim>
				</port>
			</output>
		</layer>
		<layer id="138" name="Constant_32169" type="Const" version="opset1">
			<data element_type="f32" shape="1, 1, 1, 1" offset="800" size="4" />
			<output>
				<port id="0" precision="FP32">
					<dim>1</dim>
					<dim>1</dim>
					<dim>1</dim>
					<dim>1</dim>
				</port>
			</output>
		</layer>
		<layer id="139" name="Constant_32170" type="Const" version="opset1">
			<data element_type="f32" shape="1, 1, 1, 1" offset="10444" size="4" />
			<output>
				<port id="0" precision="FP32">
					<dim>1</dim>
					<dim>1</dim>
					<dim>1</dim>
					<dim>1</dim>
				</port>
			</output>
		</layer>
		<layer id="140" name="/stages/stages.1/stages.1.0/conv1_1x1/bn/act/Mul_output_0_DequantizeLinear" type="FakeQuantize" version="opset1">
			<data levels="256" auto_broadcast="numpy" />
			<input>
				<port id="0" precision="FP32">
					<dim>1</dim>
					<dim>96</dim>
					<dim>128</dim>
					<dim>128</dim>
				</port>
				<port id="1" precision="FP32">
					<dim>1</dim>
					<dim>1</dim>
					<dim>1</dim>
					<dim>1</dim>
				</port>
				<port id="2" precision="FP32">
					<dim>1</dim>
					<dim>1</dim>
					<dim>1</dim>
					<dim>1</dim>
				</port>
				<port id="3" precision="FP32">
					<dim>1</dim>
					<dim>1</dim>
					<dim>1</dim>
					<dim>1</dim>
				</port>
				<port id="4" precision="FP32">
					<dim>1</dim>
					<dim>1</dim>
					<dim>1</dim>
					<dim>1</dim>
				</port>
			</input>
			<output>
				<port id="5" precision="FP32" names="/stages/stages.1/stages.1.0/conv1_1x1/bn/act/Mul_output_0_DequantizeLinear_Output">
					<dim>1</dim>
					<dim>96</dim>
					<dim>128</dim>
					<dim>128</dim>
				</port>
			</output>
		</layer>
		<layer id="141" name="onnx::Conv_990_quantized" type="Const" version="opset1">
			<data element_type="i8" shape="96, 1, 3, 3" offset="10448" size="864" />
			<output>
				<port id="0" precision="I8" names="onnx::Conv_990_quantized">
					<dim>96</dim>
					<dim>1</dim>
					<dim>3</dim>
					<dim>3</dim>
				</port>
			</output>
		</layer>
		<layer id="142" name="Convert_1769" type="Convert" version="opset1">
			<data destination_type="f32" />
			<input>
				<port id="0" precision="I8">
					<dim>96</dim>
					<dim>1</dim>
					<dim>3</dim>
					<dim>3</dim>
				</port>
			</input>
			<output>
				<port id="1" precision="FP32">
					<dim>96</dim>
					<dim>1</dim>
					<dim>3</dim>
					<dim>3</dim>
				</port>
			</output>
		</layer>
		<layer id="143" name="Constant_32171" type="Const" version="opset1">
			<data element_type="f32" shape="1, 1, 1, 1" offset="11312" size="4" />
			<output>
				<port id="0" precision="FP32">
					<dim>1</dim>
					<dim>1</dim>
					<dim>1</dim>
					<dim>1</dim>
				</port>
			</output>
		</layer>
		<layer id="144" name="onnx::Conv_990_DequantizeLinear" type="Multiply" version="opset1">
			<data auto_broadcast="numpy" />
			<input>
				<port id="0" precision="FP32">
					<dim>96</dim>
					<dim>1</dim>
					<dim>3</dim>
					<dim>3</dim>
				</port>
				<port id="1" precision="FP32">
					<dim>1</dim>
					<dim>1</dim>
					<dim>1</dim>
					<dim>1</dim>
				</port>
			</input>
			<output>
				<port id="2" precision="FP32" names="onnx::Conv_990_DequantizeLinear_Output">
					<dim>96</dim>
					<dim>1</dim>
					<dim>3</dim>
					<dim>3</dim>
				</port>
			</output>
		</layer>
		<layer id="145" name="Constant_34236" type="Const" version="opset1">
			<data element_type="i64" shape="5" offset="11316" size="40" />
			<output>
				<port id="0" precision="I64">
					<dim>5</dim>
				</port>
			</output>
		</layer>
		<layer id="146" name="Reshape_2621" type="Reshape" version="opset1">
			<data special_zero="true" />
			<input>
				<port id="0" precision="FP32">
					<dim>96</dim>
					<dim>1</dim>
					<dim>3</dim>
					<dim>3</dim>
				</port>
				<port id="1" precision="I64">
					<dim>5</dim>
				</port>
			</input>
			<output>
				<port id="2" precision="FP32">
					<dim>96</dim>
					<dim>1</dim>
					<dim>1</dim>
					<dim>3</dim>
					<dim>3</dim>
				</port>
			</output>
		</layer>
		<layer id="147" name="/stages/stages.1/stages.1.0/conv2_kxk/conv/Conv/WithoutBiases" type="GroupConvolution" version="opset1">
			<data strides="2, 2" pads_begin="1, 1" pads_end="1, 1" dilations="1, 1" auto_pad="explicit" />
			<input>
				<port id="0" precision="FP32">
					<dim>1</dim>
					<dim>96</dim>
					<dim>128</dim>
					<dim>128</dim>
				</port>
				<port id="1" precision="FP32">
					<dim>96</dim>
					<dim>1</dim>
					<dim>1</dim>
					<dim>3</dim>
					<dim>3</dim>
				</port>
			</input>
			<output>
				<port id="2" precision="FP32">
					<dim>1</dim>
					<dim>96</dim>
					<dim>64</dim>
					<dim>64</dim>
				</port>
			</output>
		</layer>
		<layer id="148" name="onnx::Conv_991_quantized" type="Const" version="opset1">
			<data element_type="i32" shape="96" offset="11356" size="384" />
			<output>
				<port id="0" precision="I32" names="onnx::Conv_991_quantized">
					<dim>96</dim>
				</port>
			</output>
		</layer>
		<layer id="149" name="Convert_1774" type="Convert" version="opset1">
			<data destination_type="f32" />
			<input>
				<port id="0" precision="I32">
					<dim>96</dim>
				</port>
			</input>
			<output>
				<port id="1" precision="FP32">
					<dim>96</dim>
				</port>
			</output>
		</layer>
		<layer id="150" name="onnx::Conv_991_quantized_scale" type="Const" version="opset1">
			<data element_type="f32" shape="1" offset="11740" size="4" />
			<output>
				<port id="0" precision="FP32" names="onnx::Conv_991_quantized_scale">
					<dim>1</dim>
				</port>
			</output>
		</layer>
		<layer id="151" name="onnx::Conv_991_DequantizeLinear" type="Multiply" version="opset1">
			<data auto_broadcast="numpy" />
			<input>
				<port id="0" precision="FP32">
					<dim>96</dim>
				</port>
				<port id="1" precision="FP32">
					<dim>1</dim>
				</port>
			</input>
			<output>
				<port id="2" precision="FP32" names="onnx::Conv_991">
					<dim>96</dim>
				</port>
			</output>
		</layer>
		<layer id="152" name="Concat_2670" type="Const" version="opset1">
			<data element_type="i64" shape="4" offset="10404" size="32" />
			<output>
				<port id="0" precision="I64">
					<dim>4</dim>
				</port>
			</output>
		</layer>
		<layer id="153" name="Reshape_2671" type="Reshape" version="opset1">
			<data special_zero="false" />
			<input>
				<port id="0" precision="FP32">
					<dim>96</dim>
				</port>
				<port id="1" precision="I64">
					<dim>4</dim>
				</port>
			</input>
			<output>
				<port id="2" precision="FP32">
					<dim>1</dim>
					<dim>96</dim>
					<dim>1</dim>
					<dim>1</dim>
				</port>
			</output>
		</layer>
		<layer id="154" name="/stages/stages.1/stages.1.0/conv2_kxk/conv/Conv" type="Add" version="opset1">
			<data auto_broadcast="numpy" />
			<input>
				<port id="0" precision="FP32">
					<dim>1</dim>
					<dim>96</dim>
					<dim>64</dim>
					<dim>64</dim>
				</port>
				<port id="1" precision="FP32">
					<dim>1</dim>
					<dim>96</dim>
					<dim>1</dim>
					<dim>1</dim>
				</port>
			</input>
			<output>
				<port id="2" precision="FP32" names="/stages/stages.1/stages.1.0/conv2_kxk/conv/Conv_output_0">
					<dim>1</dim>
					<dim>96</dim>
					<dim>64</dim>
					<dim>64</dim>
				</port>
			</output>
		</layer>
		<layer id="155" name="Constant_32172" type="Const" version="opset1">
			<data element_type="f32" shape="1, 1, 1, 1" offset="11744" size="4" />
			<output>
				<port id="0" precision="FP32">
					<dim>1</dim>
					<dim>1</dim>
					<dim>1</dim>
					<dim>1</dim>
				</port>
			</output>
		</layer>
		<layer id="156" name="Constant_32173" type="Const" version="opset1">
			<data element_type="f32" shape="1, 1, 1, 1" offset="11748" size="4" />
			<output>
				<port id="0" precision="FP32">
					<dim>1</dim>
					<dim>1</dim>
					<dim>1</dim>
					<dim>1</dim>
				</port>
			</output>
		</layer>
		<layer id="157" name="Constant_32174" type="Const" version="opset1">
			<data element_type="f32" shape="1, 1, 1, 1" offset="11744" size="4" />
			<output>
				<port id="0" precision="FP32">
					<dim>1</dim>
					<dim>1</dim>
					<dim>1</dim>
					<dim>1</dim>
				</port>
			</output>
		</layer>
		<layer id="158" name="Constant_32175" type="Const" version="opset1">
			<data element_type="f32" shape="1, 1, 1, 1" offset="11748" size="4" />
			<output>
				<port id="0" precision="FP32">
					<dim>1</dim>
					<dim>1</dim>
					<dim>1</dim>
					<dim>1</dim>
				</port>
			</output>
		</layer>
		<layer id="159" name="/stages/stages.1/stages.1.0/conv2_kxk/conv/Conv_output_0_DequantizeLinear" type="FakeQuantize" version="opset1">
			<data levels="256" auto_broadcast="numpy" />
			<input>
				<port id="0" precision="FP32">
					<dim>1</dim>
					<dim>96</dim>
					<dim>64</dim>
					<dim>64</dim>
				</port>
				<port id="1" precision="FP32">
					<dim>1</dim>
					<dim>1</dim>
					<dim>1</dim>
					<dim>1</dim>
				</port>
				<port id="2" precision="FP32">
					<dim>1</dim>
					<dim>1</dim>
					<dim>1</dim>
					<dim>1</dim>
				</port>
				<port id="3" precision="FP32">
					<dim>1</dim>
					<dim>1</dim>
					<dim>1</dim>
					<dim>1</dim>
				</port>
				<port id="4" precision="FP32">
					<dim>1</dim>
					<dim>1</dim>
					<dim>1</dim>
					<dim>1</dim>
				</port>
			</input>
			<output>
				<port id="5" precision="FP32" names="/stages/stages.1/stages.1.0/conv2_kxk/conv/Conv_output_0_DequantizeLinear_Output">
					<dim>1</dim>
					<dim>96</dim>
					<dim>64</dim>
					<dim>64</dim>
				</port>
			</output>
		</layer>
		<layer id="160" name="/stages/stages.1/stages.1.0/conv2_kxk/bn/act/Sigmoid" type="Sigmoid" version="opset1">
			<input>
				<port id="0" precision="FP32">
					<dim>1</dim>
					<dim>96</dim>
					<dim>64</dim>
					<dim>64</dim>
				</port>
			</input>
			<output>
				<port id="1" precision="FP32" names="/stages/stages.1/stages.1.0/conv2_kxk/bn/act/Sigmoid_output_0">
					<dim>1</dim>
					<dim>96</dim>
					<dim>64</dim>
					<dim>64</dim>
				</port>
			</output>
		</layer>
		<layer id="161" name="Constant_32176" type="Const" version="opset1">
			<data element_type="f32" shape="1, 1, 1, 1" offset="800" size="4" />
			<output>
				<port id="0" precision="FP32">
					<dim>1</dim>
					<dim>1</dim>
					<dim>1</dim>
					<dim>1</dim>
				</port>
			</output>
		</layer>
		<layer id="162" name="Constant_32177" type="Const" version="opset1">
			<data element_type="f32" shape="1, 1, 1, 1" offset="804" size="4" />
			<output>
				<port id="0" precision="FP32">
					<dim>1</dim>
					<dim>1</dim>
					<dim>1</dim>
					<dim>1</dim>
				</port>
			</output>
		</layer>
		<layer id="163" name="Constant_32178" type="Const" version="opset1">
			<data element_type="f32" shape="1, 1, 1, 1" offset="800" size="4" />
			<output>
				<port id="0" precision="FP32">
					<dim>1</dim>
					<dim>1</dim>
					<dim>1</dim>
					<dim>1</dim>
				</port>
			</output>
		</layer>
		<layer id="164" name="Constant_32179" type="Const" version="opset1">
			<data element_type="f32" shape="1, 1, 1, 1" offset="804" size="4" />
			<output>
				<port id="0" precision="FP32">
					<dim>1</dim>
					<dim>1</dim>
					<dim>1</dim>
					<dim>1</dim>
				</port>
			</output>
		</layer>
		<layer id="165" name="/stages/stages.1/stages.1.0/conv2_kxk/bn/act/Sigmoid_output_0_DequantizeLinear" type="FakeQuantize" version="opset1">
			<data levels="256" auto_broadcast="numpy" />
			<input>
				<port id="0" precision="FP32">
					<dim>1</dim>
					<dim>96</dim>
					<dim>64</dim>
					<dim>64</dim>
				</port>
				<port id="1" precision="FP32">
					<dim>1</dim>
					<dim>1</dim>
					<dim>1</dim>
					<dim>1</dim>
				</port>
				<port id="2" precision="FP32">
					<dim>1</dim>
					<dim>1</dim>
					<dim>1</dim>
					<dim>1</dim>
				</port>
				<port id="3" precision="FP32">
					<dim>1</dim>
					<dim>1</dim>
					<dim>1</dim>
					<dim>1</dim>
				</port>
				<port id="4" precision="FP32">
					<dim>1</dim>
					<dim>1</dim>
					<dim>1</dim>
					<dim>1</dim>
				</port>
			</input>
			<output>
				<port id="5" precision="FP32" names="/stages/stages.1/stages.1.0/conv2_kxk/bn/act/Sigmoid_output_0_DequantizeLinear_Output">
					<dim>1</dim>
					<dim>96</dim>
					<dim>64</dim>
					<dim>64</dim>
				</port>
			</output>
		</layer>
		<layer id="166" name="/stages/stages.1/stages.1.0/conv2_kxk/bn/act/Mul" type="Multiply" version="opset1">
			<data auto_broadcast="numpy" />
			<input>
				<port id="0" precision="FP32">
					<dim>1</dim>
					<dim>96</dim>
					<dim>64</dim>
					<dim>64</dim>
				</port>
				<port id="1" precision="FP32">
					<dim>1</dim>
					<dim>96</dim>
					<dim>64</dim>
					<dim>64</dim>
				</port>
			</input>
			<output>
				<port id="2" precision="FP32" names="/stages/stages.1/stages.1.0/conv2_kxk/bn/act/Mul_output_0">
					<dim>1</dim>
					<dim>96</dim>
					<dim>64</dim>
					<dim>64</dim>
				</port>
			</output>
		</layer>
		<layer id="167" name="Constant_32180" type="Const" version="opset1">
			<data element_type="f32" shape="1, 1, 1, 1" offset="800" size="4" />
			<output>
				<port id="0" precision="FP32">
					<dim>1</dim>
					<dim>1</dim>
					<dim>1</dim>
					<dim>1</dim>
				</port>
			</output>
		</layer>
		<layer id="168" name="Constant_32181" type="Const" version="opset1">
			<data element_type="f32" shape="1, 1, 1, 1" offset="11752" size="4" />
			<output>
				<port id="0" precision="FP32">
					<dim>1</dim>
					<dim>1</dim>
					<dim>1</dim>
					<dim>1</dim>
				</port>
			</output>
		</layer>
		<layer id="169" name="Constant_32182" type="Const" version="opset1">
			<data element_type="f32" shape="1, 1, 1, 1" offset="800" size="4" />
			<output>
				<port id="0" precision="FP32">
					<dim>1</dim>
					<dim>1</dim>
					<dim>1</dim>
					<dim>1</dim>
				</port>
			</output>
		</layer>
		<layer id="170" name="Constant_32183" type="Const" version="opset1">
			<data element_type="f32" shape="1, 1, 1, 1" offset="11752" size="4" />
			<output>
				<port id="0" precision="FP32">
					<dim>1</dim>
					<dim>1</dim>
					<dim>1</dim>
					<dim>1</dim>
				</port>
			</output>
		</layer>
		<layer id="171" name="/stages/stages.1/stages.1.0/conv2_kxk/bn/act/Mul_output_0_DequantizeLinear" type="FakeQuantize" version="opset1">
			<data levels="256" auto_broadcast="numpy" />
			<input>
				<port id="0" precision="FP32">
					<dim>1</dim>
					<dim>96</dim>
					<dim>64</dim>
					<dim>64</dim>
				</port>
				<port id="1" precision="FP32">
					<dim>1</dim>
					<dim>1</dim>
					<dim>1</dim>
					<dim>1</dim>
				</port>
				<port id="2" precision="FP32">
					<dim>1</dim>
					<dim>1</dim>
					<dim>1</dim>
					<dim>1</dim>
				</port>
				<port id="3" precision="FP32">
					<dim>1</dim>
					<dim>1</dim>
					<dim>1</dim>
					<dim>1</dim>
				</port>
				<port id="4" precision="FP32">
					<dim>1</dim>
					<dim>1</dim>
					<dim>1</dim>
					<dim>1</dim>
				</port>
			</input>
			<output>
				<port id="5" precision="FP32" names="/stages/stages.1/stages.1.0/conv2_kxk/bn/act/Mul_output_0_DequantizeLinear_Output">
					<dim>1</dim>
					<dim>96</dim>
					<dim>64</dim>
					<dim>64</dim>
				</port>
			</output>
		</layer>
		<layer id="172" name="onnx::Conv_993_quantized" type="Const" version="opset1">
			<data element_type="i8" shape="96, 96, 1, 1" offset="11756" size="9216" />
			<output>
				<port id="0" precision="I8" names="onnx::Conv_993_quantized">
					<dim>96</dim>
					<dim>96</dim>
					<dim>1</dim>
					<dim>1</dim>
				</port>
			</output>
		</layer>
		<layer id="173" name="Convert_1779" type="Convert" version="opset1">
			<data destination_type="f32" />
			<input>
				<port id="0" precision="I8">
					<dim>96</dim>
					<dim>96</dim>
					<dim>1</dim>
					<dim>1</dim>
				</port>
			</input>
			<output>
				<port id="1" precision="FP32">
					<dim>96</dim>
					<dim>96</dim>
					<dim>1</dim>
					<dim>1</dim>
				</port>
			</output>
		</layer>
		<layer id="174" name="Constant_32184" type="Const" version="opset1">
			<data element_type="f32" shape="1, 1, 1, 1" offset="20972" size="4" />
			<output>
				<port id="0" precision="FP32">
					<dim>1</dim>
					<dim>1</dim>
					<dim>1</dim>
					<dim>1</dim>
				</port>
			</output>
		</layer>
		<layer id="175" name="onnx::Conv_993_DequantizeLinear" type="Multiply" version="opset1">
			<data auto_broadcast="numpy" />
			<input>
				<port id="0" precision="FP32">
					<dim>96</dim>
					<dim>96</dim>
					<dim>1</dim>
					<dim>1</dim>
				</port>
				<port id="1" precision="FP32">
					<dim>1</dim>
					<dim>1</dim>
					<dim>1</dim>
					<dim>1</dim>
				</port>
			</input>
			<output>
				<port id="2" precision="FP32" names="onnx::Conv_993_DequantizeLinear_Output">
					<dim>96</dim>
					<dim>96</dim>
					<dim>1</dim>
					<dim>1</dim>
				</port>
			</output>
		</layer>
		<layer id="176" name="/stages/stages.1/stages.1.0/conv3_1x1/conv/Conv/WithoutBiases" type="Convolution" version="opset1">
			<data strides="1, 1" dilations="1, 1" pads_begin="0, 0" pads_end="0, 0" auto_pad="explicit" />
			<input>
				<port id="0" precision="FP32">
					<dim>1</dim>
					<dim>96</dim>
					<dim>64</dim>
					<dim>64</dim>
				</port>
				<port id="1" precision="FP32">
					<dim>96</dim>
					<dim>96</dim>
					<dim>1</dim>
					<dim>1</dim>
				</port>
			</input>
			<output>
				<port id="2" precision="FP32">
					<dim>1</dim>
					<dim>96</dim>
					<dim>64</dim>
					<dim>64</dim>
				</port>
			</output>
		</layer>
		<layer id="177" name="onnx::Conv_994_quantized" type="Const" version="opset1">
			<data element_type="i32" shape="96" offset="20976" size="384" />
			<output>
				<port id="0" precision="I32" names="onnx::Conv_994_quantized">
					<dim>96</dim>
				</port>
			</output>
		</layer>
		<layer id="178" name="Convert_1784" type="Convert" version="opset1">
			<data destination_type="f32" />
			<input>
				<port id="0" precision="I32">
					<dim>96</dim>
				</port>
			</input>
			<output>
				<port id="1" precision="FP32">
					<dim>96</dim>
				</port>
			</output>
		</layer>
		<layer id="179" name="onnx::Conv_994_quantized_scale" type="Const" version="opset1">
			<data element_type="f32" shape="1" offset="21360" size="4" />
			<output>
				<port id="0" precision="FP32" names="onnx::Conv_994_quantized_scale">
					<dim>1</dim>
				</port>
			</output>
		</layer>
		<layer id="180" name="onnx::Conv_994_DequantizeLinear" type="Multiply" version="opset1">
			<data auto_broadcast="numpy" />
			<input>
				<port id="0" precision="FP32">
					<dim>96</dim>
				</port>
				<port id="1" precision="FP32">
					<dim>1</dim>
				</port>
			</input>
			<output>
				<port id="2" precision="FP32" names="onnx::Conv_994">
					<dim>96</dim>
				</port>
			</output>
		</layer>
		<layer id="181" name="Concat_2733" type="Const" version="opset1">
			<data element_type="i64" shape="4" offset="10404" size="32" />
			<output>
				<port id="0" precision="I64">
					<dim>4</dim>
				</port>
			</output>
		</layer>
		<layer id="182" name="Reshape_2734" type="Reshape" version="opset1">
			<data special_zero="false" />
			<input>
				<port id="0" precision="FP32">
					<dim>96</dim>
				</port>
				<port id="1" precision="I64">
					<dim>4</dim>
				</port>
			</input>
			<output>
				<port id="2" precision="FP32">
					<dim>1</dim>
					<dim>96</dim>
					<dim>1</dim>
					<dim>1</dim>
				</port>
			</output>
		</layer>
		<layer id="183" name="/stages/stages.1/stages.1.0/conv3_1x1/conv/Conv" type="Add" version="opset1">
			<data auto_broadcast="numpy" />
			<input>
				<port id="0" precision="FP32">
					<dim>1</dim>
					<dim>96</dim>
					<dim>64</dim>
					<dim>64</dim>
				</port>
				<port id="1" precision="FP32">
					<dim>1</dim>
					<dim>96</dim>
					<dim>1</dim>
					<dim>1</dim>
				</port>
			</input>
			<output>
				<port id="2" precision="FP32" names="/stages/stages.1/stages.1.0/conv3_1x1/conv/Conv_output_0">
					<dim>1</dim>
					<dim>96</dim>
					<dim>64</dim>
					<dim>64</dim>
				</port>
			</output>
		</layer>
		<layer id="184" name="Constant_32185" type="Const" version="opset1">
			<data element_type="f32" shape="1, 1, 1, 1" offset="21364" size="4" />
			<output>
				<port id="0" precision="FP32">
					<dim>1</dim>
					<dim>1</dim>
					<dim>1</dim>
					<dim>1</dim>
				</port>
			</output>
		</layer>
		<layer id="185" name="Constant_32186" type="Const" version="opset1">
			<data element_type="f32" shape="1, 1, 1, 1" offset="21368" size="4" />
			<output>
				<port id="0" precision="FP32">
					<dim>1</dim>
					<dim>1</dim>
					<dim>1</dim>
					<dim>1</dim>
				</port>
			</output>
		</layer>
		<layer id="186" name="Constant_32187" type="Const" version="opset1">
			<data element_type="f32" shape="1, 1, 1, 1" offset="21364" size="4" />
			<output>
				<port id="0" precision="FP32">
					<dim>1</dim>
					<dim>1</dim>
					<dim>1</dim>
					<dim>1</dim>
				</port>
			</output>
		</layer>
		<layer id="187" name="Constant_32188" type="Const" version="opset1">
			<data element_type="f32" shape="1, 1, 1, 1" offset="21368" size="4" />
			<output>
				<port id="0" precision="FP32">
					<dim>1</dim>
					<dim>1</dim>
					<dim>1</dim>
					<dim>1</dim>
				</port>
			</output>
		</layer>
		<layer id="188" name="/stages/stages.1/stages.1.0/conv3_1x1/conv/Conv_output_0_DequantizeLinear" type="FakeQuantize" version="opset1">
			<data levels="256" auto_broadcast="numpy" />
			<input>
				<port id="0" precision="FP32">
					<dim>1</dim>
					<dim>96</dim>
					<dim>64</dim>
					<dim>64</dim>
				</port>
				<port id="1" precision="FP32">
					<dim>1</dim>
					<dim>1</dim>
					<dim>1</dim>
					<dim>1</dim>
				</port>
				<port id="2" precision="FP32">
					<dim>1</dim>
					<dim>1</dim>
					<dim>1</dim>
					<dim>1</dim>
				</port>
				<port id="3" precision="FP32">
					<dim>1</dim>
					<dim>1</dim>
					<dim>1</dim>
					<dim>1</dim>
				</port>
				<port id="4" precision="FP32">
					<dim>1</dim>
					<dim>1</dim>
					<dim>1</dim>
					<dim>1</dim>
				</port>
			</input>
			<output>
				<port id="5" precision="FP32" names="/stages/stages.1/stages.1.0/conv3_1x1/conv/Conv_output_0_DequantizeLinear_Output">
					<dim>1</dim>
					<dim>96</dim>
					<dim>64</dim>
					<dim>64</dim>
				</port>
			</output>
		</layer>
		<layer id="189" name="onnx::Conv_996_quantized" type="Const" version="opset1">
			<data element_type="i8" shape="192, 96, 1, 1" offset="21372" size="18432" />
			<output>
				<port id="0" precision="I8" names="onnx::Conv_996_quantized">
					<dim>192</dim>
					<dim>96</dim>
					<dim>1</dim>
					<dim>1</dim>
				</port>
			</output>
		</layer>
		<layer id="190" name="Convert_1789" type="Convert" version="opset1">
			<data destination_type="f32" />
			<input>
				<port id="0" precision="I8">
					<dim>192</dim>
					<dim>96</dim>
					<dim>1</dim>
					<dim>1</dim>
				</port>
			</input>
			<output>
				<port id="1" precision="FP32">
					<dim>192</dim>
					<dim>96</dim>
					<dim>1</dim>
					<dim>1</dim>
				</port>
			</output>
		</layer>
		<layer id="191" name="Constant_32189" type="Const" version="opset1">
			<data element_type="f32" shape="1, 1, 1, 1" offset="39804" size="4" />
			<output>
				<port id="0" precision="FP32">
					<dim>1</dim>
					<dim>1</dim>
					<dim>1</dim>
					<dim>1</dim>
				</port>
			</output>
		</layer>
		<layer id="192" name="onnx::Conv_996_DequantizeLinear" type="Multiply" version="opset1">
			<data auto_broadcast="numpy" />
			<input>
				<port id="0" precision="FP32">
					<dim>192</dim>
					<dim>96</dim>
					<dim>1</dim>
					<dim>1</dim>
				</port>
				<port id="1" precision="FP32">
					<dim>1</dim>
					<dim>1</dim>
					<dim>1</dim>
					<dim>1</dim>
				</port>
			</input>
			<output>
				<port id="2" precision="FP32" names="onnx::Conv_996_DequantizeLinear_Output">
					<dim>192</dim>
					<dim>96</dim>
					<dim>1</dim>
					<dim>1</dim>
				</port>
			</output>
		</layer>
		<layer id="193" name="/stages/stages.1/stages.1.1/conv1_1x1/conv/Conv/WithoutBiases" type="Convolution" version="opset1">
			<data strides="1, 1" dilations="1, 1" pads_begin="0, 0" pads_end="0, 0" auto_pad="explicit" />
			<input>
				<port id="0" precision="FP32">
					<dim>1</dim>
					<dim>96</dim>
					<dim>64</dim>
					<dim>64</dim>
				</port>
				<port id="1" precision="FP32">
					<dim>192</dim>
					<dim>96</dim>
					<dim>1</dim>
					<dim>1</dim>
				</port>
			</input>
			<output>
				<port id="2" precision="FP32">
					<dim>1</dim>
					<dim>192</dim>
					<dim>64</dim>
					<dim>64</dim>
				</port>
			</output>
		</layer>
		<layer id="194" name="onnx::Conv_997_quantized" type="Const" version="opset1">
			<data element_type="i32" shape="192" offset="39808" size="768" />
			<output>
				<port id="0" precision="I32" names="onnx::Conv_997_quantized">
					<dim>192</dim>
				</port>
			</output>
		</layer>
		<layer id="195" name="Convert_1794" type="Convert" version="opset1">
			<data destination_type="f32" />
			<input>
				<port id="0" precision="I32">
					<dim>192</dim>
				</port>
			</input>
			<output>
				<port id="1" precision="FP32">
					<dim>192</dim>
				</port>
			</output>
		</layer>
		<layer id="196" name="onnx::Conv_997_quantized_scale" type="Const" version="opset1">
			<data element_type="f32" shape="1" offset="40576" size="4" />
			<output>
				<port id="0" precision="FP32" names="onnx::Conv_997_quantized_scale">
					<dim>1</dim>
				</port>
			</output>
		</layer>
		<layer id="197" name="onnx::Conv_997_DequantizeLinear" type="Multiply" version="opset1">
			<data auto_broadcast="numpy" />
			<input>
				<port id="0" precision="FP32">
					<dim>192</dim>
				</port>
				<port id="1" precision="FP32">
					<dim>1</dim>
				</port>
			</input>
			<output>
				<port id="2" precision="FP32" names="onnx::Conv_997">
					<dim>192</dim>
				</port>
			</output>
		</layer>
		<layer id="198" name="Concat_2762" type="Const" version="opset1">
			<data element_type="i64" shape="4" offset="40580" size="32" />
			<output>
				<port id="0" precision="I64">
					<dim>4</dim>
				</port>
			</output>
		</layer>
		<layer id="199" name="Reshape_2763" type="Reshape" version="opset1">
			<data special_zero="false" />
			<input>
				<port id="0" precision="FP32">
					<dim>192</dim>
				</port>
				<port id="1" precision="I64">
					<dim>4</dim>
				</port>
			</input>
			<output>
				<port id="2" precision="FP32">
					<dim>1</dim>
					<dim>192</dim>
					<dim>1</dim>
					<dim>1</dim>
				</port>
			</output>
		</layer>
		<layer id="200" name="/stages/stages.1/stages.1.1/conv1_1x1/conv/Conv" type="Add" version="opset1">
			<data auto_broadcast="numpy" />
			<input>
				<port id="0" precision="FP32">
					<dim>1</dim>
					<dim>192</dim>
					<dim>64</dim>
					<dim>64</dim>
				</port>
				<port id="1" precision="FP32">
					<dim>1</dim>
					<dim>192</dim>
					<dim>1</dim>
					<dim>1</dim>
				</port>
			</input>
			<output>
				<port id="2" precision="FP32" names="/stages/stages.1/stages.1.1/conv1_1x1/conv/Conv_output_0">
					<dim>1</dim>
					<dim>192</dim>
					<dim>64</dim>
					<dim>64</dim>
				</port>
			</output>
		</layer>
		<layer id="201" name="Constant_32190" type="Const" version="opset1">
			<data element_type="f32" shape="1, 1, 1, 1" offset="40612" size="4" />
			<output>
				<port id="0" precision="FP32">
					<dim>1</dim>
					<dim>1</dim>
					<dim>1</dim>
					<dim>1</dim>
				</port>
			</output>
		</layer>
		<layer id="202" name="Constant_32191" type="Const" version="opset1">
			<data element_type="f32" shape="1, 1, 1, 1" offset="40616" size="4" />
			<output>
				<port id="0" precision="FP32">
					<dim>1</dim>
					<dim>1</dim>
					<dim>1</dim>
					<dim>1</dim>
				</port>
			</output>
		</layer>
		<layer id="203" name="Constant_32192" type="Const" version="opset1">
			<data element_type="f32" shape="1, 1, 1, 1" offset="40612" size="4" />
			<output>
				<port id="0" precision="FP32">
					<dim>1</dim>
					<dim>1</dim>
					<dim>1</dim>
					<dim>1</dim>
				</port>
			</output>
		</layer>
		<layer id="204" name="Constant_32193" type="Const" version="opset1">
			<data element_type="f32" shape="1, 1, 1, 1" offset="40616" size="4" />
			<output>
				<port id="0" precision="FP32">
					<dim>1</dim>
					<dim>1</dim>
					<dim>1</dim>
					<dim>1</dim>
				</port>
			</output>
		</layer>
		<layer id="205" name="/stages/stages.1/stages.1.1/conv1_1x1/conv/Conv_output_0_DequantizeLinear" type="FakeQuantize" version="opset1">
			<data levels="256" auto_broadcast="numpy" />
			<input>
				<port id="0" precision="FP32">
					<dim>1</dim>
					<dim>192</dim>
					<dim>64</dim>
					<dim>64</dim>
				</port>
				<port id="1" precision="FP32">
					<dim>1</dim>
					<dim>1</dim>
					<dim>1</dim>
					<dim>1</dim>
				</port>
				<port id="2" precision="FP32">
					<dim>1</dim>
					<dim>1</dim>
					<dim>1</dim>
					<dim>1</dim>
				</port>
				<port id="3" precision="FP32">
					<dim>1</dim>
					<dim>1</dim>
					<dim>1</dim>
					<dim>1</dim>
				</port>
				<port id="4" precision="FP32">
					<dim>1</dim>
					<dim>1</dim>
					<dim>1</dim>
					<dim>1</dim>
				</port>
			</input>
			<output>
				<port id="5" precision="FP32" names="/stages/stages.1/stages.1.1/conv1_1x1/conv/Conv_output_0_DequantizeLinear_Output">
					<dim>1</dim>
					<dim>192</dim>
					<dim>64</dim>
					<dim>64</dim>
				</port>
			</output>
		</layer>
		<layer id="206" name="/stages/stages.1/stages.1.1/conv1_1x1/bn/act/Sigmoid" type="Sigmoid" version="opset1">
			<input>
				<port id="0" precision="FP32">
					<dim>1</dim>
					<dim>192</dim>
					<dim>64</dim>
					<dim>64</dim>
				</port>
			</input>
			<output>
				<port id="1" precision="FP32" names="/stages/stages.1/stages.1.1/conv1_1x1/bn/act/Sigmoid_output_0">
					<dim>1</dim>
					<dim>192</dim>
					<dim>64</dim>
					<dim>64</dim>
				</port>
			</output>
		</layer>
		<layer id="207" name="Constant_32194" type="Const" version="opset1">
			<data element_type="f32" shape="1, 1, 1, 1" offset="800" size="4" />
			<output>
				<port id="0" precision="FP32">
					<dim>1</dim>
					<dim>1</dim>
					<dim>1</dim>
					<dim>1</dim>
				</port>
			</output>
		</layer>
		<layer id="208" name="Constant_32195" type="Const" version="opset1">
			<data element_type="f32" shape="1, 1, 1, 1" offset="804" size="4" />
			<output>
				<port id="0" precision="FP32">
					<dim>1</dim>
					<dim>1</dim>
					<dim>1</dim>
					<dim>1</dim>
				</port>
			</output>
		</layer>
		<layer id="209" name="Constant_32196" type="Const" version="opset1">
			<data element_type="f32" shape="1, 1, 1, 1" offset="800" size="4" />
			<output>
				<port id="0" precision="FP32">
					<dim>1</dim>
					<dim>1</dim>
					<dim>1</dim>
					<dim>1</dim>
				</port>
			</output>
		</layer>
		<layer id="210" name="Constant_32197" type="Const" version="opset1">
			<data element_type="f32" shape="1, 1, 1, 1" offset="804" size="4" />
			<output>
				<port id="0" precision="FP32">
					<dim>1</dim>
					<dim>1</dim>
					<dim>1</dim>
					<dim>1</dim>
				</port>
			</output>
		</layer>
		<layer id="211" name="/stages/stages.1/stages.1.1/conv1_1x1/bn/act/Sigmoid_output_0_DequantizeLinear" type="FakeQuantize" version="opset1">
			<data levels="256" auto_broadcast="numpy" />
			<input>
				<port id="0" precision="FP32">
					<dim>1</dim>
					<dim>192</dim>
					<dim>64</dim>
					<dim>64</dim>
				</port>
				<port id="1" precision="FP32">
					<dim>1</dim>
					<dim>1</dim>
					<dim>1</dim>
					<dim>1</dim>
				</port>
				<port id="2" precision="FP32">
					<dim>1</dim>
					<dim>1</dim>
					<dim>1</dim>
					<dim>1</dim>
				</port>
				<port id="3" precision="FP32">
					<dim>1</dim>
					<dim>1</dim>
					<dim>1</dim>
					<dim>1</dim>
				</port>
				<port id="4" precision="FP32">
					<dim>1</dim>
					<dim>1</dim>
					<dim>1</dim>
					<dim>1</dim>
				</port>
			</input>
			<output>
				<port id="5" precision="FP32" names="/stages/stages.1/stages.1.1/conv1_1x1/bn/act/Sigmoid_output_0_DequantizeLinear_Output">
					<dim>1</dim>
					<dim>192</dim>
					<dim>64</dim>
					<dim>64</dim>
				</port>
			</output>
		</layer>
		<layer id="212" name="/stages/stages.1/stages.1.1/conv1_1x1/bn/act/Mul" type="Multiply" version="opset1">
			<data auto_broadcast="numpy" />
			<input>
				<port id="0" precision="FP32">
					<dim>1</dim>
					<dim>192</dim>
					<dim>64</dim>
					<dim>64</dim>
				</port>
				<port id="1" precision="FP32">
					<dim>1</dim>
					<dim>192</dim>
					<dim>64</dim>
					<dim>64</dim>
				</port>
			</input>
			<output>
				<port id="2" precision="FP32" names="/stages/stages.1/stages.1.1/conv1_1x1/bn/act/Mul_output_0">
					<dim>1</dim>
					<dim>192</dim>
					<dim>64</dim>
					<dim>64</dim>
				</port>
			</output>
		</layer>
		<layer id="213" name="Constant_32198" type="Const" version="opset1">
			<data element_type="f32" shape="1, 1, 1, 1" offset="800" size="4" />
			<output>
				<port id="0" precision="FP32">
					<dim>1</dim>
					<dim>1</dim>
					<dim>1</dim>
					<dim>1</dim>
				</port>
			</output>
		</layer>
		<layer id="214" name="Constant_32199" type="Const" version="opset1">
			<data element_type="f32" shape="1, 1, 1, 1" offset="40620" size="4" />
			<output>
				<port id="0" precision="FP32">
					<dim>1</dim>
					<dim>1</dim>
					<dim>1</dim>
					<dim>1</dim>
				</port>
			</output>
		</layer>
		<layer id="215" name="Constant_32200" type="Const" version="opset1">
			<data element_type="f32" shape="1, 1, 1, 1" offset="800" size="4" />
			<output>
				<port id="0" precision="FP32">
					<dim>1</dim>
					<dim>1</dim>
					<dim>1</dim>
					<dim>1</dim>
				</port>
			</output>
		</layer>
		<layer id="216" name="Constant_32201" type="Const" version="opset1">
			<data element_type="f32" shape="1, 1, 1, 1" offset="40620" size="4" />
			<output>
				<port id="0" precision="FP32">
					<dim>1</dim>
					<dim>1</dim>
					<dim>1</dim>
					<dim>1</dim>
				</port>
			</output>
		</layer>
		<layer id="217" name="/stages/stages.1/stages.1.1/conv1_1x1/bn/act/Mul_output_0_DequantizeLinear" type="FakeQuantize" version="opset1">
			<data levels="256" auto_broadcast="numpy" />
			<input>
				<port id="0" precision="FP32">
					<dim>1</dim>
					<dim>192</dim>
					<dim>64</dim>
					<dim>64</dim>
				</port>
				<port id="1" precision="FP32">
					<dim>1</dim>
					<dim>1</dim>
					<dim>1</dim>
					<dim>1</dim>
				</port>
				<port id="2" precision="FP32">
					<dim>1</dim>
					<dim>1</dim>
					<dim>1</dim>
					<dim>1</dim>
				</port>
				<port id="3" precision="FP32">
					<dim>1</dim>
					<dim>1</dim>
					<dim>1</dim>
					<dim>1</dim>
				</port>
				<port id="4" precision="FP32">
					<dim>1</dim>
					<dim>1</dim>
					<dim>1</dim>
					<dim>1</dim>
				</port>
			</input>
			<output>
				<port id="5" precision="FP32" names="/stages/stages.1/stages.1.1/conv1_1x1/bn/act/Mul_output_0_DequantizeLinear_Output">
					<dim>1</dim>
					<dim>192</dim>
					<dim>64</dim>
					<dim>64</dim>
				</port>
			</output>
		</layer>
		<layer id="218" name="onnx::Conv_999_quantized" type="Const" version="opset1">
			<data element_type="i8" shape="192, 1, 3, 3" offset="40624" size="1728" />
			<output>
				<port id="0" precision="I8" names="onnx::Conv_999_quantized">
					<dim>192</dim>
					<dim>1</dim>
					<dim>3</dim>
					<dim>3</dim>
				</port>
			</output>
		</layer>
		<layer id="219" name="Convert_1799" type="Convert" version="opset1">
			<data destination_type="f32" />
			<input>
				<port id="0" precision="I8">
					<dim>192</dim>
					<dim>1</dim>
					<dim>3</dim>
					<dim>3</dim>
				</port>
			</input>
			<output>
				<port id="1" precision="FP32">
					<dim>192</dim>
					<dim>1</dim>
					<dim>3</dim>
					<dim>3</dim>
				</port>
			</output>
		</layer>
		<layer id="220" name="Constant_32202" type="Const" version="opset1">
			<data element_type="f32" shape="1, 1, 1, 1" offset="42352" size="4" />
			<output>
				<port id="0" precision="FP32">
					<dim>1</dim>
					<dim>1</dim>
					<dim>1</dim>
					<dim>1</dim>
				</port>
			</output>
		</layer>
		<layer id="221" name="onnx::Conv_999_DequantizeLinear" type="Multiply" version="opset1">
			<data auto_broadcast="numpy" />
			<input>
				<port id="0" precision="FP32">
					<dim>192</dim>
					<dim>1</dim>
					<dim>3</dim>
					<dim>3</dim>
				</port>
				<port id="1" precision="FP32">
					<dim>1</dim>
					<dim>1</dim>
					<dim>1</dim>
					<dim>1</dim>
				</port>
			</input>
			<output>
				<port id="2" precision="FP32" names="onnx::Conv_999_DequantizeLinear_Output">
					<dim>192</dim>
					<dim>1</dim>
					<dim>3</dim>
					<dim>3</dim>
				</port>
			</output>
		</layer>
		<layer id="222" name="Constant_34237" type="Const" version="opset1">
			<data element_type="i64" shape="5" offset="42356" size="40" />
			<output>
				<port id="0" precision="I64">
					<dim>5</dim>
				</port>
			</output>
		</layer>
		<layer id="223" name="Reshape_2822" type="Reshape" version="opset1">
			<data special_zero="true" />
			<input>
				<port id="0" precision="FP32">
					<dim>192</dim>
					<dim>1</dim>
					<dim>3</dim>
					<dim>3</dim>
				</port>
				<port id="1" precision="I64">
					<dim>5</dim>
				</port>
			</input>
			<output>
				<port id="2" precision="FP32">
					<dim>192</dim>
					<dim>1</dim>
					<dim>1</dim>
					<dim>3</dim>
					<dim>3</dim>
				</port>
			</output>
		</layer>
		<layer id="224" name="/stages/stages.1/stages.1.1/conv2_kxk/conv/Conv/WithoutBiases" type="GroupConvolution" version="opset1">
			<data strides="1, 1" pads_begin="1, 1" pads_end="1, 1" dilations="1, 1" auto_pad="explicit" />
			<input>
				<port id="0" precision="FP32">
					<dim>1</dim>
					<dim>192</dim>
					<dim>64</dim>
					<dim>64</dim>
				</port>
				<port id="1" precision="FP32">
					<dim>192</dim>
					<dim>1</dim>
					<dim>1</dim>
					<dim>3</dim>
					<dim>3</dim>
				</port>
			</input>
			<output>
				<port id="2" precision="FP32">
					<dim>1</dim>
					<dim>192</dim>
					<dim>64</dim>
					<dim>64</dim>
				</port>
			</output>
		</layer>
		<layer id="225" name="onnx::Conv_1000_quantized" type="Const" version="opset1">
			<data element_type="i32" shape="192" offset="42396" size="768" />
			<output>
				<port id="0" precision="I32" names="onnx::Conv_1000_quantized">
					<dim>192</dim>
				</port>
			</output>
		</layer>
		<layer id="226" name="Convert_1554" type="Convert" version="opset1">
			<data destination_type="f32" />
			<input>
				<port id="0" precision="I32">
					<dim>192</dim>
				</port>
			</input>
			<output>
				<port id="1" precision="FP32">
					<dim>192</dim>
				</port>
			</output>
		</layer>
		<layer id="227" name="onnx::Conv_1000_quantized_scale" type="Const" version="opset1">
			<data element_type="f32" shape="1" offset="43164" size="4" />
			<output>
				<port id="0" precision="FP32" names="onnx::Conv_1000_quantized_scale">
					<dim>1</dim>
				</port>
			</output>
		</layer>
		<layer id="228" name="onnx::Conv_1000_DequantizeLinear" type="Multiply" version="opset1">
			<data auto_broadcast="numpy" />
			<input>
				<port id="0" precision="FP32">
					<dim>192</dim>
				</port>
				<port id="1" precision="FP32">
					<dim>1</dim>
				</port>
			</input>
			<output>
				<port id="2" precision="FP32" names="onnx::Conv_1000">
					<dim>192</dim>
				</port>
			</output>
		</layer>
		<layer id="229" name="Concat_2871" type="Const" version="opset1">
			<data element_type="i64" shape="4" offset="40580" size="32" />
			<output>
				<port id="0" precision="I64">
					<dim>4</dim>
				</port>
			</output>
		</layer>
		<layer id="230" name="Reshape_2872" type="Reshape" version="opset1">
			<data special_zero="false" />
			<input>
				<port id="0" precision="FP32">
					<dim>192</dim>
				</port>
				<port id="1" precision="I64">
					<dim>4</dim>
				</port>
			</input>
			<output>
				<port id="2" precision="FP32">
					<dim>1</dim>
					<dim>192</dim>
					<dim>1</dim>
					<dim>1</dim>
				</port>
			</output>
		</layer>
		<layer id="231" name="/stages/stages.1/stages.1.1/conv2_kxk/conv/Conv" type="Add" version="opset1">
			<data auto_broadcast="numpy" />
			<input>
				<port id="0" precision="FP32">
					<dim>1</dim>
					<dim>192</dim>
					<dim>64</dim>
					<dim>64</dim>
				</port>
				<port id="1" precision="FP32">
					<dim>1</dim>
					<dim>192</dim>
					<dim>1</dim>
					<dim>1</dim>
				</port>
			</input>
			<output>
				<port id="2" precision="FP32" names="/stages/stages.1/stages.1.1/conv2_kxk/conv/Conv_output_0">
					<dim>1</dim>
					<dim>192</dim>
					<dim>64</dim>
					<dim>64</dim>
				</port>
			</output>
		</layer>
		<layer id="232" name="Constant_32203" type="Const" version="opset1">
			<data element_type="f32" shape="1, 1, 1, 1" offset="43168" size="4" />
			<output>
				<port id="0" precision="FP32">
					<dim>1</dim>
					<dim>1</dim>
					<dim>1</dim>
					<dim>1</dim>
				</port>
			</output>
		</layer>
		<layer id="233" name="Constant_32204" type="Const" version="opset1">
			<data element_type="f32" shape="1, 1, 1, 1" offset="43172" size="4" />
			<output>
				<port id="0" precision="FP32">
					<dim>1</dim>
					<dim>1</dim>
					<dim>1</dim>
					<dim>1</dim>
				</port>
			</output>
		</layer>
		<layer id="234" name="Constant_32205" type="Const" version="opset1">
			<data element_type="f32" shape="1, 1, 1, 1" offset="43168" size="4" />
			<output>
				<port id="0" precision="FP32">
					<dim>1</dim>
					<dim>1</dim>
					<dim>1</dim>
					<dim>1</dim>
				</port>
			</output>
		</layer>
		<layer id="235" name="Constant_32206" type="Const" version="opset1">
			<data element_type="f32" shape="1, 1, 1, 1" offset="43172" size="4" />
			<output>
				<port id="0" precision="FP32">
					<dim>1</dim>
					<dim>1</dim>
					<dim>1</dim>
					<dim>1</dim>
				</port>
			</output>
		</layer>
		<layer id="236" name="/stages/stages.1/stages.1.1/conv2_kxk/conv/Conv_output_0_DequantizeLinear" type="FakeQuantize" version="opset1">
			<data levels="256" auto_broadcast="numpy" />
			<input>
				<port id="0" precision="FP32">
					<dim>1</dim>
					<dim>192</dim>
					<dim>64</dim>
					<dim>64</dim>
				</port>
				<port id="1" precision="FP32">
					<dim>1</dim>
					<dim>1</dim>
					<dim>1</dim>
					<dim>1</dim>
				</port>
				<port id="2" precision="FP32">
					<dim>1</dim>
					<dim>1</dim>
					<dim>1</dim>
					<dim>1</dim>
				</port>
				<port id="3" precision="FP32">
					<dim>1</dim>
					<dim>1</dim>
					<dim>1</dim>
					<dim>1</dim>
				</port>
				<port id="4" precision="FP32">
					<dim>1</dim>
					<dim>1</dim>
					<dim>1</dim>
					<dim>1</dim>
				</port>
			</input>
			<output>
				<port id="5" precision="FP32" names="/stages/stages.1/stages.1.1/conv2_kxk/conv/Conv_output_0_DequantizeLinear_Output">
					<dim>1</dim>
					<dim>192</dim>
					<dim>64</dim>
					<dim>64</dim>
				</port>
			</output>
		</layer>
		<layer id="237" name="/stages/stages.1/stages.1.1/conv2_kxk/bn/act/Sigmoid" type="Sigmoid" version="opset1">
			<input>
				<port id="0" precision="FP32">
					<dim>1</dim>
					<dim>192</dim>
					<dim>64</dim>
					<dim>64</dim>
				</port>
			</input>
			<output>
				<port id="1" precision="FP32" names="/stages/stages.1/stages.1.1/conv2_kxk/bn/act/Sigmoid_output_0">
					<dim>1</dim>
					<dim>192</dim>
					<dim>64</dim>
					<dim>64</dim>
				</port>
			</output>
		</layer>
		<layer id="238" name="Constant_32207" type="Const" version="opset1">
			<data element_type="f32" shape="1, 1, 1, 1" offset="800" size="4" />
			<output>
				<port id="0" precision="FP32">
					<dim>1</dim>
					<dim>1</dim>
					<dim>1</dim>
					<dim>1</dim>
				</port>
			</output>
		</layer>
		<layer id="239" name="Constant_32208" type="Const" version="opset1">
			<data element_type="f32" shape="1, 1, 1, 1" offset="804" size="4" />
			<output>
				<port id="0" precision="FP32">
					<dim>1</dim>
					<dim>1</dim>
					<dim>1</dim>
					<dim>1</dim>
				</port>
			</output>
		</layer>
		<layer id="240" name="Constant_32209" type="Const" version="opset1">
			<data element_type="f32" shape="1, 1, 1, 1" offset="800" size="4" />
			<output>
				<port id="0" precision="FP32">
					<dim>1</dim>
					<dim>1</dim>
					<dim>1</dim>
					<dim>1</dim>
				</port>
			</output>
		</layer>
		<layer id="241" name="Constant_32210" type="Const" version="opset1">
			<data element_type="f32" shape="1, 1, 1, 1" offset="804" size="4" />
			<output>
				<port id="0" precision="FP32">
					<dim>1</dim>
					<dim>1</dim>
					<dim>1</dim>
					<dim>1</dim>
				</port>
			</output>
		</layer>
		<layer id="242" name="/stages/stages.1/stages.1.1/conv2_kxk/bn/act/Sigmoid_output_0_DequantizeLinear" type="FakeQuantize" version="opset1">
			<data levels="256" auto_broadcast="numpy" />
			<input>
				<port id="0" precision="FP32">
					<dim>1</dim>
					<dim>192</dim>
					<dim>64</dim>
					<dim>64</dim>
				</port>
				<port id="1" precision="FP32">
					<dim>1</dim>
					<dim>1</dim>
					<dim>1</dim>
					<dim>1</dim>
				</port>
				<port id="2" precision="FP32">
					<dim>1</dim>
					<dim>1</dim>
					<dim>1</dim>
					<dim>1</dim>
				</port>
				<port id="3" precision="FP32">
					<dim>1</dim>
					<dim>1</dim>
					<dim>1</dim>
					<dim>1</dim>
				</port>
				<port id="4" precision="FP32">
					<dim>1</dim>
					<dim>1</dim>
					<dim>1</dim>
					<dim>1</dim>
				</port>
			</input>
			<output>
				<port id="5" precision="FP32" names="/stages/stages.1/stages.1.1/conv2_kxk/bn/act/Sigmoid_output_0_DequantizeLinear_Output">
					<dim>1</dim>
					<dim>192</dim>
					<dim>64</dim>
					<dim>64</dim>
				</port>
			</output>
		</layer>
		<layer id="243" name="/stages/stages.1/stages.1.1/conv2_kxk/bn/act/Mul" type="Multiply" version="opset1">
			<data auto_broadcast="numpy" />
			<input>
				<port id="0" precision="FP32">
					<dim>1</dim>
					<dim>192</dim>
					<dim>64</dim>
					<dim>64</dim>
				</port>
				<port id="1" precision="FP32">
					<dim>1</dim>
					<dim>192</dim>
					<dim>64</dim>
					<dim>64</dim>
				</port>
			</input>
			<output>
				<port id="2" precision="FP32" names="/stages/stages.1/stages.1.1/conv2_kxk/bn/act/Mul_output_0">
					<dim>1</dim>
					<dim>192</dim>
					<dim>64</dim>
					<dim>64</dim>
				</port>
			</output>
		</layer>
		<layer id="244" name="Constant_32211" type="Const" version="opset1">
			<data element_type="f32" shape="1, 1, 1, 1" offset="800" size="4" />
			<output>
				<port id="0" precision="FP32">
					<dim>1</dim>
					<dim>1</dim>
					<dim>1</dim>
					<dim>1</dim>
				</port>
			</output>
		</layer>
		<layer id="245" name="Constant_32212" type="Const" version="opset1">
			<data element_type="f32" shape="1, 1, 1, 1" offset="43176" size="4" />
			<output>
				<port id="0" precision="FP32">
					<dim>1</dim>
					<dim>1</dim>
					<dim>1</dim>
					<dim>1</dim>
				</port>
			</output>
		</layer>
		<layer id="246" name="Constant_32213" type="Const" version="opset1">
			<data element_type="f32" shape="1, 1, 1, 1" offset="800" size="4" />
			<output>
				<port id="0" precision="FP32">
					<dim>1</dim>
					<dim>1</dim>
					<dim>1</dim>
					<dim>1</dim>
				</port>
			</output>
		</layer>
		<layer id="247" name="Constant_32214" type="Const" version="opset1">
			<data element_type="f32" shape="1, 1, 1, 1" offset="43176" size="4" />
			<output>
				<port id="0" precision="FP32">
					<dim>1</dim>
					<dim>1</dim>
					<dim>1</dim>
					<dim>1</dim>
				</port>
			</output>
		</layer>
		<layer id="248" name="/stages/stages.1/stages.1.1/conv2_kxk/bn/act/Mul_output_0_DequantizeLinear" type="FakeQuantize" version="opset1">
			<data levels="256" auto_broadcast="numpy" />
			<input>
				<port id="0" precision="FP32">
					<dim>1</dim>
					<dim>192</dim>
					<dim>64</dim>
					<dim>64</dim>
				</port>
				<port id="1" precision="FP32">
					<dim>1</dim>
					<dim>1</dim>
					<dim>1</dim>
					<dim>1</dim>
				</port>
				<port id="2" precision="FP32">
					<dim>1</dim>
					<dim>1</dim>
					<dim>1</dim>
					<dim>1</dim>
				</port>
				<port id="3" precision="FP32">
					<dim>1</dim>
					<dim>1</dim>
					<dim>1</dim>
					<dim>1</dim>
				</port>
				<port id="4" precision="FP32">
					<dim>1</dim>
					<dim>1</dim>
					<dim>1</dim>
					<dim>1</dim>
				</port>
			</input>
			<output>
				<port id="5" precision="FP32" names="/stages/stages.1/stages.1.1/conv2_kxk/bn/act/Mul_output_0_DequantizeLinear_Output">
					<dim>1</dim>
					<dim>192</dim>
					<dim>64</dim>
					<dim>64</dim>
				</port>
			</output>
		</layer>
		<layer id="249" name="onnx::Conv_1002_quantized" type="Const" version="opset1">
			<data element_type="i8" shape="96, 192, 1, 1" offset="43180" size="18432" />
			<output>
				<port id="0" precision="I8" names="onnx::Conv_1002_quantized">
					<dim>96</dim>
					<dim>192</dim>
					<dim>1</dim>
					<dim>1</dim>
				</port>
			</output>
		</layer>
		<layer id="250" name="Convert_1559" type="Convert" version="opset1">
			<data destination_type="f32" />
			<input>
				<port id="0" precision="I8">
					<dim>96</dim>
					<dim>192</dim>
					<dim>1</dim>
					<dim>1</dim>
				</port>
			</input>
			<output>
				<port id="1" precision="FP32">
					<dim>96</dim>
					<dim>192</dim>
					<dim>1</dim>
					<dim>1</dim>
				</port>
			</output>
		</layer>
		<layer id="251" name="Constant_32215" type="Const" version="opset1">
			<data element_type="f32" shape="1, 1, 1, 1" offset="61612" size="4" />
			<output>
				<port id="0" precision="FP32">
					<dim>1</dim>
					<dim>1</dim>
					<dim>1</dim>
					<dim>1</dim>
				</port>
			</output>
		</layer>
		<layer id="252" name="onnx::Conv_1002_DequantizeLinear" type="Multiply" version="opset1">
			<data auto_broadcast="numpy" />
			<input>
				<port id="0" precision="FP32">
					<dim>96</dim>
					<dim>192</dim>
					<dim>1</dim>
					<dim>1</dim>
				</port>
				<port id="1" precision="FP32">
					<dim>1</dim>
					<dim>1</dim>
					<dim>1</dim>
					<dim>1</dim>
				</port>
			</input>
			<output>
				<port id="2" precision="FP32" names="onnx::Conv_1002_DequantizeLinear_Output">
					<dim>96</dim>
					<dim>192</dim>
					<dim>1</dim>
					<dim>1</dim>
				</port>
			</output>
		</layer>
		<layer id="253" name="/stages/stages.1/stages.1.1/conv3_1x1/conv/Conv/WithoutBiases" type="Convolution" version="opset1">
			<data strides="1, 1" dilations="1, 1" pads_begin="0, 0" pads_end="0, 0" auto_pad="explicit" />
			<input>
				<port id="0" precision="FP32">
					<dim>1</dim>
					<dim>192</dim>
					<dim>64</dim>
					<dim>64</dim>
				</port>
				<port id="1" precision="FP32">
					<dim>96</dim>
					<dim>192</dim>
					<dim>1</dim>
					<dim>1</dim>
				</port>
			</input>
			<output>
				<port id="2" precision="FP32">
					<dim>1</dim>
					<dim>96</dim>
					<dim>64</dim>
					<dim>64</dim>
				</port>
			</output>
		</layer>
		<layer id="254" name="onnx::Conv_1003_quantized" type="Const" version="opset1">
			<data element_type="i32" shape="96" offset="61616" size="384" />
			<output>
				<port id="0" precision="I32" names="onnx::Conv_1003_quantized">
					<dim>96</dim>
				</port>
			</output>
		</layer>
		<layer id="255" name="Convert_1564" type="Convert" version="opset1">
			<data destination_type="f32" />
			<input>
				<port id="0" precision="I32">
					<dim>96</dim>
				</port>
			</input>
			<output>
				<port id="1" precision="FP32">
					<dim>96</dim>
				</port>
			</output>
		</layer>
		<layer id="256" name="onnx::Conv_1003_quantized_scale" type="Const" version="opset1">
			<data element_type="f32" shape="1" offset="62000" size="4" />
			<output>
				<port id="0" precision="FP32" names="onnx::Conv_1003_quantized_scale">
					<dim>1</dim>
				</port>
			</output>
		</layer>
		<layer id="257" name="onnx::Conv_1003_DequantizeLinear" type="Multiply" version="opset1">
			<data auto_broadcast="numpy" />
			<input>
				<port id="0" precision="FP32">
					<dim>96</dim>
				</port>
				<port id="1" precision="FP32">
					<dim>1</dim>
				</port>
			</input>
			<output>
				<port id="2" precision="FP32" names="onnx::Conv_1003">
					<dim>96</dim>
				</port>
			</output>
		</layer>
		<layer id="258" name="Concat_2934" type="Const" version="opset1">
			<data element_type="i64" shape="4" offset="10404" size="32" />
			<output>
				<port id="0" precision="I64">
					<dim>4</dim>
				</port>
			</output>
		</layer>
		<layer id="259" name="Reshape_2935" type="Reshape" version="opset1">
			<data special_zero="false" />
			<input>
				<port id="0" precision="FP32">
					<dim>96</dim>
				</port>
				<port id="1" precision="I64">
					<dim>4</dim>
				</port>
			</input>
			<output>
				<port id="2" precision="FP32">
					<dim>1</dim>
					<dim>96</dim>
					<dim>1</dim>
					<dim>1</dim>
				</port>
			</output>
		</layer>
		<layer id="260" name="/stages/stages.1/stages.1.1/conv3_1x1/conv/Conv" type="Add" version="opset1">
			<data auto_broadcast="numpy" />
			<input>
				<port id="0" precision="FP32">
					<dim>1</dim>
					<dim>96</dim>
					<dim>64</dim>
					<dim>64</dim>
				</port>
				<port id="1" precision="FP32">
					<dim>1</dim>
					<dim>96</dim>
					<dim>1</dim>
					<dim>1</dim>
				</port>
			</input>
			<output>
				<port id="2" precision="FP32" names="/stages/stages.1/stages.1.1/conv3_1x1/conv/Conv_output_0">
					<dim>1</dim>
					<dim>96</dim>
					<dim>64</dim>
					<dim>64</dim>
				</port>
			</output>
		</layer>
		<layer id="261" name="Constant_32216" type="Const" version="opset1">
			<data element_type="f32" shape="1, 1, 1, 1" offset="62004" size="4" />
			<output>
				<port id="0" precision="FP32">
					<dim>1</dim>
					<dim>1</dim>
					<dim>1</dim>
					<dim>1</dim>
				</port>
			</output>
		</layer>
		<layer id="262" name="Constant_32217" type="Const" version="opset1">
			<data element_type="f32" shape="1, 1, 1, 1" offset="62008" size="4" />
			<output>
				<port id="0" precision="FP32">
					<dim>1</dim>
					<dim>1</dim>
					<dim>1</dim>
					<dim>1</dim>
				</port>
			</output>
		</layer>
		<layer id="263" name="Constant_32218" type="Const" version="opset1">
			<data element_type="f32" shape="1, 1, 1, 1" offset="62004" size="4" />
			<output>
				<port id="0" precision="FP32">
					<dim>1</dim>
					<dim>1</dim>
					<dim>1</dim>
					<dim>1</dim>
				</port>
			</output>
		</layer>
		<layer id="264" name="Constant_32219" type="Const" version="opset1">
			<data element_type="f32" shape="1, 1, 1, 1" offset="62008" size="4" />
			<output>
				<port id="0" precision="FP32">
					<dim>1</dim>
					<dim>1</dim>
					<dim>1</dim>
					<dim>1</dim>
				</port>
			</output>
		</layer>
		<layer id="265" name="/stages/stages.1/stages.1.1/conv3_1x1/conv/Conv_output_0_DequantizeLinear" type="FakeQuantize" version="opset1">
			<data levels="256" auto_broadcast="numpy" />
			<input>
				<port id="0" precision="FP32">
					<dim>1</dim>
					<dim>96</dim>
					<dim>64</dim>
					<dim>64</dim>
				</port>
				<port id="1" precision="FP32">
					<dim>1</dim>
					<dim>1</dim>
					<dim>1</dim>
					<dim>1</dim>
				</port>
				<port id="2" precision="FP32">
					<dim>1</dim>
					<dim>1</dim>
					<dim>1</dim>
					<dim>1</dim>
				</port>
				<port id="3" precision="FP32">
					<dim>1</dim>
					<dim>1</dim>
					<dim>1</dim>
					<dim>1</dim>
				</port>
				<port id="4" precision="FP32">
					<dim>1</dim>
					<dim>1</dim>
					<dim>1</dim>
					<dim>1</dim>
				</port>
			</input>
			<output>
				<port id="5" precision="FP32" names="/stages/stages.1/stages.1.1/conv3_1x1/conv/Conv_output_0_DequantizeLinear_Output">
					<dim>1</dim>
					<dim>96</dim>
					<dim>64</dim>
					<dim>64</dim>
				</port>
			</output>
		</layer>
		<layer id="266" name="/stages/stages.1/stages.1.1/Add" type="Add" version="opset1">
			<data auto_broadcast="numpy" />
			<input>
				<port id="0" precision="FP32">
					<dim>1</dim>
					<dim>96</dim>
					<dim>64</dim>
					<dim>64</dim>
				</port>
				<port id="1" precision="FP32">
					<dim>1</dim>
					<dim>96</dim>
					<dim>64</dim>
					<dim>64</dim>
				</port>
			</input>
			<output>
				<port id="2" precision="FP32" names="/stages/stages.1/stages.1.1/Add_output_0">
					<dim>1</dim>
					<dim>96</dim>
					<dim>64</dim>
					<dim>64</dim>
				</port>
			</output>
		</layer>
		<layer id="267" name="Constant_32220" type="Const" version="opset1">
			<data element_type="f32" shape="1, 1, 1, 1" offset="62012" size="4" />
			<output>
				<port id="0" precision="FP32">
					<dim>1</dim>
					<dim>1</dim>
					<dim>1</dim>
					<dim>1</dim>
				</port>
			</output>
		</layer>
		<layer id="268" name="Constant_32221" type="Const" version="opset1">
			<data element_type="f32" shape="1, 1, 1, 1" offset="62016" size="4" />
			<output>
				<port id="0" precision="FP32">
					<dim>1</dim>
					<dim>1</dim>
					<dim>1</dim>
					<dim>1</dim>
				</port>
			</output>
		</layer>
		<layer id="269" name="Constant_32222" type="Const" version="opset1">
			<data element_type="f32" shape="1, 1, 1, 1" offset="62012" size="4" />
			<output>
				<port id="0" precision="FP32">
					<dim>1</dim>
					<dim>1</dim>
					<dim>1</dim>
					<dim>1</dim>
				</port>
			</output>
		</layer>
		<layer id="270" name="Constant_32223" type="Const" version="opset1">
			<data element_type="f32" shape="1, 1, 1, 1" offset="62016" size="4" />
			<output>
				<port id="0" precision="FP32">
					<dim>1</dim>
					<dim>1</dim>
					<dim>1</dim>
					<dim>1</dim>
				</port>
			</output>
		</layer>
		<layer id="271" name="/stages/stages.1/stages.1.1/Add_output_0_DequantizeLinear" type="FakeQuantize" version="opset1">
			<data levels="256" auto_broadcast="numpy" />
			<input>
				<port id="0" precision="FP32">
					<dim>1</dim>
					<dim>96</dim>
					<dim>64</dim>
					<dim>64</dim>
				</port>
				<port id="1" precision="FP32">
					<dim>1</dim>
					<dim>1</dim>
					<dim>1</dim>
					<dim>1</dim>
				</port>
				<port id="2" precision="FP32">
					<dim>1</dim>
					<dim>1</dim>
					<dim>1</dim>
					<dim>1</dim>
				</port>
				<port id="3" precision="FP32">
					<dim>1</dim>
					<dim>1</dim>
					<dim>1</dim>
					<dim>1</dim>
				</port>
				<port id="4" precision="FP32">
					<dim>1</dim>
					<dim>1</dim>
					<dim>1</dim>
					<dim>1</dim>
				</port>
			</input>
			<output>
				<port id="5" precision="FP32" names="/stages/stages.1/stages.1.1/Add_output_0_DequantizeLinear_Output">
					<dim>1</dim>
					<dim>96</dim>
					<dim>64</dim>
					<dim>64</dim>
				</port>
			</output>
		</layer>
		<layer id="272" name="onnx::Conv_1005_quantized" type="Const" version="opset1">
			<data element_type="i8" shape="192, 96, 1, 1" offset="62020" size="18432" />
			<output>
				<port id="0" precision="I8" names="onnx::Conv_1005_quantized">
					<dim>192</dim>
					<dim>96</dim>
					<dim>1</dim>
					<dim>1</dim>
				</port>
			</output>
		</layer>
		<layer id="273" name="Convert_1569" type="Convert" version="opset1">
			<data destination_type="f32" />
			<input>
				<port id="0" precision="I8">
					<dim>192</dim>
					<dim>96</dim>
					<dim>1</dim>
					<dim>1</dim>
				</port>
			</input>
			<output>
				<port id="1" precision="FP32">
					<dim>192</dim>
					<dim>96</dim>
					<dim>1</dim>
					<dim>1</dim>
				</port>
			</output>
		</layer>
		<layer id="274" name="Constant_32224" type="Const" version="opset1">
			<data element_type="f32" shape="1, 1, 1, 1" offset="80452" size="4" />
			<output>
				<port id="0" precision="FP32">
					<dim>1</dim>
					<dim>1</dim>
					<dim>1</dim>
					<dim>1</dim>
				</port>
			</output>
		</layer>
		<layer id="275" name="onnx::Conv_1005_DequantizeLinear" type="Multiply" version="opset1">
			<data auto_broadcast="numpy" />
			<input>
				<port id="0" precision="FP32">
					<dim>192</dim>
					<dim>96</dim>
					<dim>1</dim>
					<dim>1</dim>
				</port>
				<port id="1" precision="FP32">
					<dim>1</dim>
					<dim>1</dim>
					<dim>1</dim>
					<dim>1</dim>
				</port>
			</input>
			<output>
				<port id="2" precision="FP32" names="onnx::Conv_1005_DequantizeLinear_Output">
					<dim>192</dim>
					<dim>96</dim>
					<dim>1</dim>
					<dim>1</dim>
				</port>
			</output>
		</layer>
		<layer id="276" name="/stages/stages.2/stages.2.0/conv1_1x1/conv/Conv/WithoutBiases" type="Convolution" version="opset1">
			<data strides="1, 1" dilations="1, 1" pads_begin="0, 0" pads_end="0, 0" auto_pad="explicit" />
			<input>
				<port id="0" precision="FP32">
					<dim>1</dim>
					<dim>96</dim>
					<dim>64</dim>
					<dim>64</dim>
				</port>
				<port id="1" precision="FP32">
					<dim>192</dim>
					<dim>96</dim>
					<dim>1</dim>
					<dim>1</dim>
				</port>
			</input>
			<output>
				<port id="2" precision="FP32">
					<dim>1</dim>
					<dim>192</dim>
					<dim>64</dim>
					<dim>64</dim>
				</port>
			</output>
		</layer>
		<layer id="277" name="onnx::Conv_1006_quantized" type="Const" version="opset1">
			<data element_type="i32" shape="192" offset="80456" size="768" />
			<output>
				<port id="0" precision="I32" names="onnx::Conv_1006_quantized">
					<dim>192</dim>
				</port>
			</output>
		</layer>
		<layer id="278" name="Convert_1574" type="Convert" version="opset1">
			<data destination_type="f32" />
			<input>
				<port id="0" precision="I32">
					<dim>192</dim>
				</port>
			</input>
			<output>
				<port id="1" precision="FP32">
					<dim>192</dim>
				</port>
			</output>
		</layer>
		<layer id="279" name="onnx::Conv_1006_quantized_scale" type="Const" version="opset1">
			<data element_type="f32" shape="1" offset="81224" size="4" />
			<output>
				<port id="0" precision="FP32" names="onnx::Conv_1006_quantized_scale">
					<dim>1</dim>
				</port>
			</output>
		</layer>
		<layer id="280" name="onnx::Conv_1006_DequantizeLinear" type="Multiply" version="opset1">
			<data auto_broadcast="numpy" />
			<input>
				<port id="0" precision="FP32">
					<dim>192</dim>
				</port>
				<port id="1" precision="FP32">
					<dim>1</dim>
				</port>
			</input>
			<output>
				<port id="2" precision="FP32" names="onnx::Conv_1006">
					<dim>192</dim>
				</port>
			</output>
		</layer>
		<layer id="281" name="Concat_2980" type="Const" version="opset1">
			<data element_type="i64" shape="4" offset="40580" size="32" />
			<output>
				<port id="0" precision="I64">
					<dim>4</dim>
				</port>
			</output>
		</layer>
		<layer id="282" name="Reshape_2981" type="Reshape" version="opset1">
			<data special_zero="false" />
			<input>
				<port id="0" precision="FP32">
					<dim>192</dim>
				</port>
				<port id="1" precision="I64">
					<dim>4</dim>
				</port>
			</input>
			<output>
				<port id="2" precision="FP32">
					<dim>1</dim>
					<dim>192</dim>
					<dim>1</dim>
					<dim>1</dim>
				</port>
			</output>
		</layer>
		<layer id="283" name="/stages/stages.2/stages.2.0/conv1_1x1/conv/Conv" type="Add" version="opset1">
			<data auto_broadcast="numpy" />
			<input>
				<port id="0" precision="FP32">
					<dim>1</dim>
					<dim>192</dim>
					<dim>64</dim>
					<dim>64</dim>
				</port>
				<port id="1" precision="FP32">
					<dim>1</dim>
					<dim>192</dim>
					<dim>1</dim>
					<dim>1</dim>
				</port>
			</input>
			<output>
				<port id="2" precision="FP32" names="/stages/stages.2/stages.2.0/conv1_1x1/conv/Conv_output_0">
					<dim>1</dim>
					<dim>192</dim>
					<dim>64</dim>
					<dim>64</dim>
				</port>
			</output>
		</layer>
		<layer id="284" name="Constant_32225" type="Const" version="opset1">
			<data element_type="f32" shape="1, 1, 1, 1" offset="81228" size="4" />
			<output>
				<port id="0" precision="FP32">
					<dim>1</dim>
					<dim>1</dim>
					<dim>1</dim>
					<dim>1</dim>
				</port>
			</output>
		</layer>
		<layer id="285" name="Constant_32226" type="Const" version="opset1">
			<data element_type="f32" shape="1, 1, 1, 1" offset="81232" size="4" />
			<output>
				<port id="0" precision="FP32">
					<dim>1</dim>
					<dim>1</dim>
					<dim>1</dim>
					<dim>1</dim>
				</port>
			</output>
		</layer>
		<layer id="286" name="Constant_32227" type="Const" version="opset1">
			<data element_type="f32" shape="1, 1, 1, 1" offset="81228" size="4" />
			<output>
				<port id="0" precision="FP32">
					<dim>1</dim>
					<dim>1</dim>
					<dim>1</dim>
					<dim>1</dim>
				</port>
			</output>
		</layer>
		<layer id="287" name="Constant_32228" type="Const" version="opset1">
			<data element_type="f32" shape="1, 1, 1, 1" offset="81232" size="4" />
			<output>
				<port id="0" precision="FP32">
					<dim>1</dim>
					<dim>1</dim>
					<dim>1</dim>
					<dim>1</dim>
				</port>
			</output>
		</layer>
		<layer id="288" name="/stages/stages.2/stages.2.0/conv1_1x1/conv/Conv_output_0_DequantizeLinear" type="FakeQuantize" version="opset1">
			<data levels="256" auto_broadcast="numpy" />
			<input>
				<port id="0" precision="FP32">
					<dim>1</dim>
					<dim>192</dim>
					<dim>64</dim>
					<dim>64</dim>
				</port>
				<port id="1" precision="FP32">
					<dim>1</dim>
					<dim>1</dim>
					<dim>1</dim>
					<dim>1</dim>
				</port>
				<port id="2" precision="FP32">
					<dim>1</dim>
					<dim>1</dim>
					<dim>1</dim>
					<dim>1</dim>
				</port>
				<port id="3" precision="FP32">
					<dim>1</dim>
					<dim>1</dim>
					<dim>1</dim>
					<dim>1</dim>
				</port>
				<port id="4" precision="FP32">
					<dim>1</dim>
					<dim>1</dim>
					<dim>1</dim>
					<dim>1</dim>
				</port>
			</input>
			<output>
				<port id="5" precision="FP32" names="/stages/stages.2/stages.2.0/conv1_1x1/conv/Conv_output_0_DequantizeLinear_Output">
					<dim>1</dim>
					<dim>192</dim>
					<dim>64</dim>
					<dim>64</dim>
				</port>
			</output>
		</layer>
		<layer id="289" name="/stages/stages.2/stages.2.0/conv1_1x1/bn/act/Sigmoid" type="Sigmoid" version="opset1">
			<input>
				<port id="0" precision="FP32">
					<dim>1</dim>
					<dim>192</dim>
					<dim>64</dim>
					<dim>64</dim>
				</port>
			</input>
			<output>
				<port id="1" precision="FP32" names="/stages/stages.2/stages.2.0/conv1_1x1/bn/act/Sigmoid_output_0">
					<dim>1</dim>
					<dim>192</dim>
					<dim>64</dim>
					<dim>64</dim>
				</port>
			</output>
		</layer>
		<layer id="290" name="Constant_32229" type="Const" version="opset1">
			<data element_type="f32" shape="1, 1, 1, 1" offset="800" size="4" />
			<output>
				<port id="0" precision="FP32">
					<dim>1</dim>
					<dim>1</dim>
					<dim>1</dim>
					<dim>1</dim>
				</port>
			</output>
		</layer>
		<layer id="291" name="Constant_32230" type="Const" version="opset1">
			<data element_type="f32" shape="1, 1, 1, 1" offset="804" size="4" />
			<output>
				<port id="0" precision="FP32">
					<dim>1</dim>
					<dim>1</dim>
					<dim>1</dim>
					<dim>1</dim>
				</port>
			</output>
		</layer>
		<layer id="292" name="Constant_32231" type="Const" version="opset1">
			<data element_type="f32" shape="1, 1, 1, 1" offset="800" size="4" />
			<output>
				<port id="0" precision="FP32">
					<dim>1</dim>
					<dim>1</dim>
					<dim>1</dim>
					<dim>1</dim>
				</port>
			</output>
		</layer>
		<layer id="293" name="Constant_32232" type="Const" version="opset1">
			<data element_type="f32" shape="1, 1, 1, 1" offset="804" size="4" />
			<output>
				<port id="0" precision="FP32">
					<dim>1</dim>
					<dim>1</dim>
					<dim>1</dim>
					<dim>1</dim>
				</port>
			</output>
		</layer>
		<layer id="294" name="/stages/stages.2/stages.2.0/conv1_1x1/bn/act/Sigmoid_output_0_DequantizeLinear" type="FakeQuantize" version="opset1">
			<data levels="256" auto_broadcast="numpy" />
			<input>
				<port id="0" precision="FP32">
					<dim>1</dim>
					<dim>192</dim>
					<dim>64</dim>
					<dim>64</dim>
				</port>
				<port id="1" precision="FP32">
					<dim>1</dim>
					<dim>1</dim>
					<dim>1</dim>
					<dim>1</dim>
				</port>
				<port id="2" precision="FP32">
					<dim>1</dim>
					<dim>1</dim>
					<dim>1</dim>
					<dim>1</dim>
				</port>
				<port id="3" precision="FP32">
					<dim>1</dim>
					<dim>1</dim>
					<dim>1</dim>
					<dim>1</dim>
				</port>
				<port id="4" precision="FP32">
					<dim>1</dim>
					<dim>1</dim>
					<dim>1</dim>
					<dim>1</dim>
				</port>
			</input>
			<output>
				<port id="5" precision="FP32" names="/stages/stages.2/stages.2.0/conv1_1x1/bn/act/Sigmoid_output_0_DequantizeLinear_Output">
					<dim>1</dim>
					<dim>192</dim>
					<dim>64</dim>
					<dim>64</dim>
				</port>
			</output>
		</layer>
		<layer id="295" name="/stages/stages.2/stages.2.0/conv1_1x1/bn/act/Mul" type="Multiply" version="opset1">
			<data auto_broadcast="numpy" />
			<input>
				<port id="0" precision="FP32">
					<dim>1</dim>
					<dim>192</dim>
					<dim>64</dim>
					<dim>64</dim>
				</port>
				<port id="1" precision="FP32">
					<dim>1</dim>
					<dim>192</dim>
					<dim>64</dim>
					<dim>64</dim>
				</port>
			</input>
			<output>
				<port id="2" precision="FP32" names="/stages/stages.2/stages.2.0/conv1_1x1/bn/act/Mul_output_0">
					<dim>1</dim>
					<dim>192</dim>
					<dim>64</dim>
					<dim>64</dim>
				</port>
			</output>
		</layer>
		<layer id="296" name="Constant_32233" type="Const" version="opset1">
			<data element_type="f32" shape="1, 1, 1, 1" offset="800" size="4" />
			<output>
				<port id="0" precision="FP32">
					<dim>1</dim>
					<dim>1</dim>
					<dim>1</dim>
					<dim>1</dim>
				</port>
			</output>
		</layer>
		<layer id="297" name="Constant_32234" type="Const" version="opset1">
			<data element_type="f32" shape="1, 1, 1, 1" offset="81236" size="4" />
			<output>
				<port id="0" precision="FP32">
					<dim>1</dim>
					<dim>1</dim>
					<dim>1</dim>
					<dim>1</dim>
				</port>
			</output>
		</layer>
		<layer id="298" name="Constant_32235" type="Const" version="opset1">
			<data element_type="f32" shape="1, 1, 1, 1" offset="800" size="4" />
			<output>
				<port id="0" precision="FP32">
					<dim>1</dim>
					<dim>1</dim>
					<dim>1</dim>
					<dim>1</dim>
				</port>
			</output>
		</layer>
		<layer id="299" name="Constant_32236" type="Const" version="opset1">
			<data element_type="f32" shape="1, 1, 1, 1" offset="81236" size="4" />
			<output>
				<port id="0" precision="FP32">
					<dim>1</dim>
					<dim>1</dim>
					<dim>1</dim>
					<dim>1</dim>
				</port>
			</output>
		</layer>
		<layer id="300" name="/stages/stages.2/stages.2.0/conv1_1x1/bn/act/Mul_output_0_DequantizeLinear" type="FakeQuantize" version="opset1">
			<data levels="256" auto_broadcast="numpy" />
			<input>
				<port id="0" precision="FP32">
					<dim>1</dim>
					<dim>192</dim>
					<dim>64</dim>
					<dim>64</dim>
				</port>
				<port id="1" precision="FP32">
					<dim>1</dim>
					<dim>1</dim>
					<dim>1</dim>
					<dim>1</dim>
				</port>
				<port id="2" precision="FP32">
					<dim>1</dim>
					<dim>1</dim>
					<dim>1</dim>
					<dim>1</dim>
				</port>
				<port id="3" precision="FP32">
					<dim>1</dim>
					<dim>1</dim>
					<dim>1</dim>
					<dim>1</dim>
				</port>
				<port id="4" precision="FP32">
					<dim>1</dim>
					<dim>1</dim>
					<dim>1</dim>
					<dim>1</dim>
				</port>
			</input>
			<output>
				<port id="5" precision="FP32" names="/stages/stages.2/stages.2.0/conv1_1x1/bn/act/Mul_output_0_DequantizeLinear_Output">
					<dim>1</dim>
					<dim>192</dim>
					<dim>64</dim>
					<dim>64</dim>
				</port>
			</output>
		</layer>
		<layer id="301" name="onnx::Conv_1008_quantized" type="Const" version="opset1">
			<data element_type="i8" shape="192, 1, 3, 3" offset="81240" size="1728" />
			<output>
				<port id="0" precision="I8" names="onnx::Conv_1008_quantized">
					<dim>192</dim>
					<dim>1</dim>
					<dim>3</dim>
					<dim>3</dim>
				</port>
			</output>
		</layer>
		<layer id="302" name="Convert_1579" type="Convert" version="opset1">
			<data destination_type="f32" />
			<input>
				<port id="0" precision="I8">
					<dim>192</dim>
					<dim>1</dim>
					<dim>3</dim>
					<dim>3</dim>
				</port>
			</input>
			<output>
				<port id="1" precision="FP32">
					<dim>192</dim>
					<dim>1</dim>
					<dim>3</dim>
					<dim>3</dim>
				</port>
			</output>
		</layer>
		<layer id="303" name="Constant_32237" type="Const" version="opset1">
			<data element_type="f32" shape="1, 1, 1, 1" offset="82968" size="4" />
			<output>
				<port id="0" precision="FP32">
					<dim>1</dim>
					<dim>1</dim>
					<dim>1</dim>
					<dim>1</dim>
				</port>
			</output>
		</layer>
		<layer id="304" name="onnx::Conv_1008_DequantizeLinear" type="Multiply" version="opset1">
			<data auto_broadcast="numpy" />
			<input>
				<port id="0" precision="FP32">
					<dim>192</dim>
					<dim>1</dim>
					<dim>3</dim>
					<dim>3</dim>
				</port>
				<port id="1" precision="FP32">
					<dim>1</dim>
					<dim>1</dim>
					<dim>1</dim>
					<dim>1</dim>
				</port>
			</input>
			<output>
				<port id="2" precision="FP32" names="onnx::Conv_1008_DequantizeLinear_Output">
					<dim>192</dim>
					<dim>1</dim>
					<dim>3</dim>
					<dim>3</dim>
				</port>
			</output>
		</layer>
		<layer id="305" name="Constant_34238" type="Const" version="opset1">
			<data element_type="i64" shape="5" offset="42356" size="40" />
			<output>
				<port id="0" precision="I64">
					<dim>5</dim>
				</port>
			</output>
		</layer>
		<layer id="306" name="Reshape_3040" type="Reshape" version="opset1">
			<data special_zero="true" />
			<input>
				<port id="0" precision="FP32">
					<dim>192</dim>
					<dim>1</dim>
					<dim>3</dim>
					<dim>3</dim>
				</port>
				<port id="1" precision="I64">
					<dim>5</dim>
				</port>
			</input>
			<output>
				<port id="2" precision="FP32">
					<dim>192</dim>
					<dim>1</dim>
					<dim>1</dim>
					<dim>3</dim>
					<dim>3</dim>
				</port>
			</output>
		</layer>
		<layer id="307" name="/stages/stages.2/stages.2.0/conv2_kxk/conv/Conv/WithoutBiases" type="GroupConvolution" version="opset1">
			<data strides="2, 2" pads_begin="1, 1" pads_end="1, 1" dilations="1, 1" auto_pad="explicit" />
			<input>
				<port id="0" precision="FP32">
					<dim>1</dim>
					<dim>192</dim>
					<dim>64</dim>
					<dim>64</dim>
				</port>
				<port id="1" precision="FP32">
					<dim>192</dim>
					<dim>1</dim>
					<dim>1</dim>
					<dim>3</dim>
					<dim>3</dim>
				</port>
			</input>
			<output>
				<port id="2" precision="FP32">
					<dim>1</dim>
					<dim>192</dim>
					<dim>32</dim>
					<dim>32</dim>
				</port>
			</output>
		</layer>
		<layer id="308" name="onnx::Conv_1009_quantized" type="Const" version="opset1">
			<data element_type="i32" shape="192" offset="82972" size="768" />
			<output>
				<port id="0" precision="I32" names="onnx::Conv_1009_quantized">
					<dim>192</dim>
				</port>
			</output>
		</layer>
		<layer id="309" name="Convert_1584" type="Convert" version="opset1">
			<data destination_type="f32" />
			<input>
				<port id="0" precision="I32">
					<dim>192</dim>
				</port>
			</input>
			<output>
				<port id="1" precision="FP32">
					<dim>192</dim>
				</port>
			</output>
		</layer>
		<layer id="310" name="onnx::Conv_1009_quantized_scale" type="Const" version="opset1">
			<data element_type="f32" shape="1" offset="83740" size="4" />
			<output>
				<port id="0" precision="FP32" names="onnx::Conv_1009_quantized_scale">
					<dim>1</dim>
				</port>
			</output>
		</layer>
		<layer id="311" name="onnx::Conv_1009_DequantizeLinear" type="Multiply" version="opset1">
			<data auto_broadcast="numpy" />
			<input>
				<port id="0" precision="FP32">
					<dim>192</dim>
				</port>
				<port id="1" precision="FP32">
					<dim>1</dim>
				</port>
			</input>
			<output>
				<port id="2" precision="FP32" names="onnx::Conv_1009">
					<dim>192</dim>
				</port>
			</output>
		</layer>
		<layer id="312" name="Concat_3089" type="Const" version="opset1">
			<data element_type="i64" shape="4" offset="40580" size="32" />
			<output>
				<port id="0" precision="I64">
					<dim>4</dim>
				</port>
			</output>
		</layer>
		<layer id="313" name="Reshape_3090" type="Reshape" version="opset1">
			<data special_zero="false" />
			<input>
				<port id="0" precision="FP32">
					<dim>192</dim>
				</port>
				<port id="1" precision="I64">
					<dim>4</dim>
				</port>
			</input>
			<output>
				<port id="2" precision="FP32">
					<dim>1</dim>
					<dim>192</dim>
					<dim>1</dim>
					<dim>1</dim>
				</port>
			</output>
		</layer>
		<layer id="314" name="/stages/stages.2/stages.2.0/conv2_kxk/conv/Conv" type="Add" version="opset1">
			<data auto_broadcast="numpy" />
			<input>
				<port id="0" precision="FP32">
					<dim>1</dim>
					<dim>192</dim>
					<dim>32</dim>
					<dim>32</dim>
				</port>
				<port id="1" precision="FP32">
					<dim>1</dim>
					<dim>192</dim>
					<dim>1</dim>
					<dim>1</dim>
				</port>
			</input>
			<output>
				<port id="2" precision="FP32" names="/stages/stages.2/stages.2.0/conv2_kxk/conv/Conv_output_0">
					<dim>1</dim>
					<dim>192</dim>
					<dim>32</dim>
					<dim>32</dim>
				</port>
			</output>
		</layer>
		<layer id="315" name="Constant_32238" type="Const" version="opset1">
			<data element_type="f32" shape="1, 1, 1, 1" offset="83744" size="4" />
			<output>
				<port id="0" precision="FP32">
					<dim>1</dim>
					<dim>1</dim>
					<dim>1</dim>
					<dim>1</dim>
				</port>
			</output>
		</layer>
		<layer id="316" name="Constant_32239" type="Const" version="opset1">
			<data element_type="f32" shape="1, 1, 1, 1" offset="83748" size="4" />
			<output>
				<port id="0" precision="FP32">
					<dim>1</dim>
					<dim>1</dim>
					<dim>1</dim>
					<dim>1</dim>
				</port>
			</output>
		</layer>
		<layer id="317" name="Constant_32240" type="Const" version="opset1">
			<data element_type="f32" shape="1, 1, 1, 1" offset="83744" size="4" />
			<output>
				<port id="0" precision="FP32">
					<dim>1</dim>
					<dim>1</dim>
					<dim>1</dim>
					<dim>1</dim>
				</port>
			</output>
		</layer>
		<layer id="318" name="Constant_32241" type="Const" version="opset1">
			<data element_type="f32" shape="1, 1, 1, 1" offset="83748" size="4" />
			<output>
				<port id="0" precision="FP32">
					<dim>1</dim>
					<dim>1</dim>
					<dim>1</dim>
					<dim>1</dim>
				</port>
			</output>
		</layer>
		<layer id="319" name="/stages/stages.2/stages.2.0/conv2_kxk/conv/Conv_output_0_DequantizeLinear" type="FakeQuantize" version="opset1">
			<data levels="256" auto_broadcast="numpy" />
			<input>
				<port id="0" precision="FP32">
					<dim>1</dim>
					<dim>192</dim>
					<dim>32</dim>
					<dim>32</dim>
				</port>
				<port id="1" precision="FP32">
					<dim>1</dim>
					<dim>1</dim>
					<dim>1</dim>
					<dim>1</dim>
				</port>
				<port id="2" precision="FP32">
					<dim>1</dim>
					<dim>1</dim>
					<dim>1</dim>
					<dim>1</dim>
				</port>
				<port id="3" precision="FP32">
					<dim>1</dim>
					<dim>1</dim>
					<dim>1</dim>
					<dim>1</dim>
				</port>
				<port id="4" precision="FP32">
					<dim>1</dim>
					<dim>1</dim>
					<dim>1</dim>
					<dim>1</dim>
				</port>
			</input>
			<output>
				<port id="5" precision="FP32" names="/stages/stages.2/stages.2.0/conv2_kxk/conv/Conv_output_0_DequantizeLinear_Output">
					<dim>1</dim>
					<dim>192</dim>
					<dim>32</dim>
					<dim>32</dim>
				</port>
			</output>
		</layer>
		<layer id="320" name="/stages/stages.2/stages.2.0/conv2_kxk/bn/act/Sigmoid" type="Sigmoid" version="opset1">
			<input>
				<port id="0" precision="FP32">
					<dim>1</dim>
					<dim>192</dim>
					<dim>32</dim>
					<dim>32</dim>
				</port>
			</input>
			<output>
				<port id="1" precision="FP32" names="/stages/stages.2/stages.2.0/conv2_kxk/bn/act/Sigmoid_output_0">
					<dim>1</dim>
					<dim>192</dim>
					<dim>32</dim>
					<dim>32</dim>
				</port>
			</output>
		</layer>
		<layer id="321" name="Constant_32242" type="Const" version="opset1">
			<data element_type="f32" shape="1, 1, 1, 1" offset="800" size="4" />
			<output>
				<port id="0" precision="FP32">
					<dim>1</dim>
					<dim>1</dim>
					<dim>1</dim>
					<dim>1</dim>
				</port>
			</output>
		</layer>
		<layer id="322" name="Constant_32243" type="Const" version="opset1">
			<data element_type="f32" shape="1, 1, 1, 1" offset="804" size="4" />
			<output>
				<port id="0" precision="FP32">
					<dim>1</dim>
					<dim>1</dim>
					<dim>1</dim>
					<dim>1</dim>
				</port>
			</output>
		</layer>
		<layer id="323" name="Constant_32244" type="Const" version="opset1">
			<data element_type="f32" shape="1, 1, 1, 1" offset="800" size="4" />
			<output>
				<port id="0" precision="FP32">
					<dim>1</dim>
					<dim>1</dim>
					<dim>1</dim>
					<dim>1</dim>
				</port>
			</output>
		</layer>
		<layer id="324" name="Constant_32245" type="Const" version="opset1">
			<data element_type="f32" shape="1, 1, 1, 1" offset="804" size="4" />
			<output>
				<port id="0" precision="FP32">
					<dim>1</dim>
					<dim>1</dim>
					<dim>1</dim>
					<dim>1</dim>
				</port>
			</output>
		</layer>
		<layer id="325" name="/stages/stages.2/stages.2.0/conv2_kxk/bn/act/Sigmoid_output_0_DequantizeLinear" type="FakeQuantize" version="opset1">
			<data levels="256" auto_broadcast="numpy" />
			<input>
				<port id="0" precision="FP32">
					<dim>1</dim>
					<dim>192</dim>
					<dim>32</dim>
					<dim>32</dim>
				</port>
				<port id="1" precision="FP32">
					<dim>1</dim>
					<dim>1</dim>
					<dim>1</dim>
					<dim>1</dim>
				</port>
				<port id="2" precision="FP32">
					<dim>1</dim>
					<dim>1</dim>
					<dim>1</dim>
					<dim>1</dim>
				</port>
				<port id="3" precision="FP32">
					<dim>1</dim>
					<dim>1</dim>
					<dim>1</dim>
					<dim>1</dim>
				</port>
				<port id="4" precision="FP32">
					<dim>1</dim>
					<dim>1</dim>
					<dim>1</dim>
					<dim>1</dim>
				</port>
			</input>
			<output>
				<port id="5" precision="FP32" names="/stages/stages.2/stages.2.0/conv2_kxk/bn/act/Sigmoid_output_0_DequantizeLinear_Output">
					<dim>1</dim>
					<dim>192</dim>
					<dim>32</dim>
					<dim>32</dim>
				</port>
			</output>
		</layer>
		<layer id="326" name="/stages/stages.2/stages.2.0/conv2_kxk/bn/act/Mul" type="Multiply" version="opset1">
			<data auto_broadcast="numpy" />
			<input>
				<port id="0" precision="FP32">
					<dim>1</dim>
					<dim>192</dim>
					<dim>32</dim>
					<dim>32</dim>
				</port>
				<port id="1" precision="FP32">
					<dim>1</dim>
					<dim>192</dim>
					<dim>32</dim>
					<dim>32</dim>
				</port>
			</input>
			<output>
				<port id="2" precision="FP32" names="/stages/stages.2/stages.2.0/conv2_kxk/bn/act/Mul_output_0">
					<dim>1</dim>
					<dim>192</dim>
					<dim>32</dim>
					<dim>32</dim>
				</port>
			</output>
		</layer>
		<layer id="327" name="Constant_32246" type="Const" version="opset1">
			<data element_type="f32" shape="1, 1, 1, 1" offset="800" size="4" />
			<output>
				<port id="0" precision="FP32">
					<dim>1</dim>
					<dim>1</dim>
					<dim>1</dim>
					<dim>1</dim>
				</port>
			</output>
		</layer>
		<layer id="328" name="Constant_32247" type="Const" version="opset1">
			<data element_type="f32" shape="1, 1, 1, 1" offset="83752" size="4" />
			<output>
				<port id="0" precision="FP32">
					<dim>1</dim>
					<dim>1</dim>
					<dim>1</dim>
					<dim>1</dim>
				</port>
			</output>
		</layer>
		<layer id="329" name="Constant_32248" type="Const" version="opset1">
			<data element_type="f32" shape="1, 1, 1, 1" offset="800" size="4" />
			<output>
				<port id="0" precision="FP32">
					<dim>1</dim>
					<dim>1</dim>
					<dim>1</dim>
					<dim>1</dim>
				</port>
			</output>
		</layer>
		<layer id="330" name="Constant_32249" type="Const" version="opset1">
			<data element_type="f32" shape="1, 1, 1, 1" offset="83752" size="4" />
			<output>
				<port id="0" precision="FP32">
					<dim>1</dim>
					<dim>1</dim>
					<dim>1</dim>
					<dim>1</dim>
				</port>
			</output>
		</layer>
		<layer id="331" name="/stages/stages.2/stages.2.0/conv2_kxk/bn/act/Mul_output_0_DequantizeLinear" type="FakeQuantize" version="opset1">
			<data levels="256" auto_broadcast="numpy" />
			<input>
				<port id="0" precision="FP32">
					<dim>1</dim>
					<dim>192</dim>
					<dim>32</dim>
					<dim>32</dim>
				</port>
				<port id="1" precision="FP32">
					<dim>1</dim>
					<dim>1</dim>
					<dim>1</dim>
					<dim>1</dim>
				</port>
				<port id="2" precision="FP32">
					<dim>1</dim>
					<dim>1</dim>
					<dim>1</dim>
					<dim>1</dim>
				</port>
				<port id="3" precision="FP32">
					<dim>1</dim>
					<dim>1</dim>
					<dim>1</dim>
					<dim>1</dim>
				</port>
				<port id="4" precision="FP32">
					<dim>1</dim>
					<dim>1</dim>
					<dim>1</dim>
					<dim>1</dim>
				</port>
			</input>
			<output>
				<port id="5" precision="FP32" names="/stages/stages.2/stages.2.0/conv2_kxk/bn/act/Mul_output_0_DequantizeLinear_Output">
					<dim>1</dim>
					<dim>192</dim>
					<dim>32</dim>
					<dim>32</dim>
				</port>
			</output>
		</layer>
		<layer id="332" name="onnx::Conv_1011_quantized" type="Const" version="opset1">
			<data element_type="i8" shape="192, 192, 1, 1" offset="83756" size="36864" />
			<output>
				<port id="0" precision="I8" names="onnx::Conv_1011_quantized">
					<dim>192</dim>
					<dim>192</dim>
					<dim>1</dim>
					<dim>1</dim>
				</port>
			</output>
		</layer>
		<layer id="333" name="Convert_1589" type="Convert" version="opset1">
			<data destination_type="f32" />
			<input>
				<port id="0" precision="I8">
					<dim>192</dim>
					<dim>192</dim>
					<dim>1</dim>
					<dim>1</dim>
				</port>
			</input>
			<output>
				<port id="1" precision="FP32">
					<dim>192</dim>
					<dim>192</dim>
					<dim>1</dim>
					<dim>1</dim>
				</port>
			</output>
		</layer>
		<layer id="334" name="Constant_32250" type="Const" version="opset1">
			<data element_type="f32" shape="1, 1, 1, 1" offset="120620" size="4" />
			<output>
				<port id="0" precision="FP32">
					<dim>1</dim>
					<dim>1</dim>
					<dim>1</dim>
					<dim>1</dim>
				</port>
			</output>
		</layer>
		<layer id="335" name="onnx::Conv_1011_DequantizeLinear" type="Multiply" version="opset1">
			<data auto_broadcast="numpy" />
			<input>
				<port id="0" precision="FP32">
					<dim>192</dim>
					<dim>192</dim>
					<dim>1</dim>
					<dim>1</dim>
				</port>
				<port id="1" precision="FP32">
					<dim>1</dim>
					<dim>1</dim>
					<dim>1</dim>
					<dim>1</dim>
				</port>
			</input>
			<output>
				<port id="2" precision="FP32" names="onnx::Conv_1011_DequantizeLinear_Output">
					<dim>192</dim>
					<dim>192</dim>
					<dim>1</dim>
					<dim>1</dim>
				</port>
			</output>
		</layer>
		<layer id="336" name="/stages/stages.2/stages.2.0/conv3_1x1/conv/Conv/WithoutBiases" type="Convolution" version="opset1">
			<data strides="1, 1" dilations="1, 1" pads_begin="0, 0" pads_end="0, 0" auto_pad="explicit" />
			<input>
				<port id="0" precision="FP32">
					<dim>1</dim>
					<dim>192</dim>
					<dim>32</dim>
					<dim>32</dim>
				</port>
				<port id="1" precision="FP32">
					<dim>192</dim>
					<dim>192</dim>
					<dim>1</dim>
					<dim>1</dim>
				</port>
			</input>
			<output>
				<port id="2" precision="FP32">
					<dim>1</dim>
					<dim>192</dim>
					<dim>32</dim>
					<dim>32</dim>
				</port>
			</output>
		</layer>
		<layer id="337" name="onnx::Conv_1012_quantized" type="Const" version="opset1">
			<data element_type="i32" shape="192" offset="120624" size="768" />
			<output>
				<port id="0" precision="I32" names="onnx::Conv_1012_quantized">
					<dim>192</dim>
				</port>
			</output>
		</layer>
		<layer id="338" name="Convert_1594" type="Convert" version="opset1">
			<data destination_type="f32" />
			<input>
				<port id="0" precision="I32">
					<dim>192</dim>
				</port>
			</input>
			<output>
				<port id="1" precision="FP32">
					<dim>192</dim>
				</port>
			</output>
		</layer>
		<layer id="339" name="onnx::Conv_1012_quantized_scale" type="Const" version="opset1">
			<data element_type="f32" shape="1" offset="121392" size="4" />
			<output>
				<port id="0" precision="FP32" names="onnx::Conv_1012_quantized_scale">
					<dim>1</dim>
				</port>
			</output>
		</layer>
		<layer id="340" name="onnx::Conv_1012_DequantizeLinear" type="Multiply" version="opset1">
			<data auto_broadcast="numpy" />
			<input>
				<port id="0" precision="FP32">
					<dim>192</dim>
				</port>
				<port id="1" precision="FP32">
					<dim>1</dim>
				</port>
			</input>
			<output>
				<port id="2" precision="FP32" names="onnx::Conv_1012">
					<dim>192</dim>
				</port>
			</output>
		</layer>
		<layer id="341" name="Concat_3152" type="Const" version="opset1">
			<data element_type="i64" shape="4" offset="40580" size="32" />
			<output>
				<port id="0" precision="I64">
					<dim>4</dim>
				</port>
			</output>
		</layer>
		<layer id="342" name="Reshape_3153" type="Reshape" version="opset1">
			<data special_zero="false" />
			<input>
				<port id="0" precision="FP32">
					<dim>192</dim>
				</port>
				<port id="1" precision="I64">
					<dim>4</dim>
				</port>
			</input>
			<output>
				<port id="2" precision="FP32">
					<dim>1</dim>
					<dim>192</dim>
					<dim>1</dim>
					<dim>1</dim>
				</port>
			</output>
		</layer>
		<layer id="343" name="/stages/stages.2/stages.2.0/conv3_1x1/conv/Conv" type="Add" version="opset1">
			<data auto_broadcast="numpy" />
			<input>
				<port id="0" precision="FP32">
					<dim>1</dim>
					<dim>192</dim>
					<dim>32</dim>
					<dim>32</dim>
				</port>
				<port id="1" precision="FP32">
					<dim>1</dim>
					<dim>192</dim>
					<dim>1</dim>
					<dim>1</dim>
				</port>
			</input>
			<output>
				<port id="2" precision="FP32" names="/stages/stages.2/stages.2.0/conv3_1x1/conv/Conv_output_0">
					<dim>1</dim>
					<dim>192</dim>
					<dim>32</dim>
					<dim>32</dim>
				</port>
			</output>
		</layer>
		<layer id="344" name="Constant_32251" type="Const" version="opset1">
			<data element_type="f32" shape="1, 1, 1, 1" offset="121396" size="4" />
			<output>
				<port id="0" precision="FP32">
					<dim>1</dim>
					<dim>1</dim>
					<dim>1</dim>
					<dim>1</dim>
				</port>
			</output>
		</layer>
		<layer id="345" name="Constant_32252" type="Const" version="opset1">
			<data element_type="f32" shape="1, 1, 1, 1" offset="121400" size="4" />
			<output>
				<port id="0" precision="FP32">
					<dim>1</dim>
					<dim>1</dim>
					<dim>1</dim>
					<dim>1</dim>
				</port>
			</output>
		</layer>
		<layer id="346" name="Constant_32253" type="Const" version="opset1">
			<data element_type="f32" shape="1, 1, 1, 1" offset="121396" size="4" />
			<output>
				<port id="0" precision="FP32">
					<dim>1</dim>
					<dim>1</dim>
					<dim>1</dim>
					<dim>1</dim>
				</port>
			</output>
		</layer>
		<layer id="347" name="Constant_32254" type="Const" version="opset1">
			<data element_type="f32" shape="1, 1, 1, 1" offset="121400" size="4" />
			<output>
				<port id="0" precision="FP32">
					<dim>1</dim>
					<dim>1</dim>
					<dim>1</dim>
					<dim>1</dim>
				</port>
			</output>
		</layer>
		<layer id="348" name="/stages/stages.2/stages.2.0/conv3_1x1/conv/Conv_output_0_DequantizeLinear" type="FakeQuantize" version="opset1">
			<data levels="256" auto_broadcast="numpy" />
			<input>
…
		<edge from-layer="2679" from-port="0" to-layer="2682" to-port="2" />
		<edge from-layer="2680" from-port="0" to-layer="2682" to-port="3" />
		<edge from-layer="2681" from-port="0" to-layer="2682" to-port="4" />
		<edge from-layer="2682" from-port="5" to-layer="2689" to-port="0" />
		<edge from-layer="2682" from-port="5" to-layer="2683" to-port="0" />
		<edge from-layer="2683" from-port="1" to-layer="2688" to-port="0" />
		<edge from-layer="2684" from-port="0" to-layer="2688" to-port="1" />
		<edge from-layer="2685" from-port="0" to-layer="2688" to-port="2" />
		<edge from-layer="2686" from-port="0" to-layer="2688" to-port="3" />
		<edge from-layer="2687" from-port="0" to-layer="2688" to-port="4" />
		<edge from-layer="2688" from-port="5" to-layer="2689" to-port="1" />
		<edge from-layer="2689" from-port="2" to-layer="2694" to-port="0" />
		<edge from-layer="2690" from-port="0" to-layer="2694" to-port="1" />
		<edge from-layer="2691" from-port="0" to-layer="2694" to-port="2" />
		<edge from-layer="2692" from-port="0" to-layer="2694" to-port="3" />
		<edge from-layer="2693" from-port="0" to-layer="2694" to-port="4" />
		<edge from-layer="2694" from-port="5" to-layer="2699" to-port="0" />
		<edge from-layer="2695" from-port="0" to-layer="2696" to-port="0" />
		<edge from-layer="2696" from-port="1" to-layer="2698" to-port="0" />
		<edge from-layer="2697" from-port="0" to-layer="2698" to-port="1" />
		<edge from-layer="2698" from-port="2" to-layer="2699" to-port="1" />
		<edge from-layer="2699" from-port="2" to-layer="2706" to-port="0" />
		<edge from-layer="2700" from-port="0" to-layer="2701" to-port="0" />
		<edge from-layer="2701" from-port="1" to-layer="2703" to-port="0" />
		<edge from-layer="2702" from-port="0" to-layer="2703" to-port="1" />
		<edge from-layer="2703" from-port="2" to-layer="2705" to-port="0" />
		<edge from-layer="2704" from-port="0" to-layer="2705" to-port="1" />
		<edge from-layer="2705" from-port="2" to-layer="2706" to-port="1" />
		<edge from-layer="2706" from-port="2" to-layer="2711" to-port="0" />
		<edge from-layer="2707" from-port="0" to-layer="2711" to-port="1" />
		<edge from-layer="2708" from-port="0" to-layer="2711" to-port="2" />
		<edge from-layer="2709" from-port="0" to-layer="2711" to-port="3" />
		<edge from-layer="2710" from-port="0" to-layer="2711" to-port="4" />
		<edge from-layer="2711" from-port="5" to-layer="2712" to-port="1" />
		<edge from-layer="2712" from-port="2" to-layer="2717" to-port="0" />
		<edge from-layer="2713" from-port="0" to-layer="2717" to-port="1" />
		<edge from-layer="2714" from-port="0" to-layer="2717" to-port="2" />
		<edge from-layer="2715" from-port="0" to-layer="2717" to-port="3" />
		<edge from-layer="2716" from-port="0" to-layer="2717" to-port="4" />
		<edge from-layer="2717" from-port="5" to-layer="2719" to-port="0" />
		<edge from-layer="2717" from-port="5" to-layer="2860" to-port="0" />
		<edge from-layer="2718" from-port="0" to-layer="2719" to-port="1" />
		<edge from-layer="2719" from-port="2" to-layer="2724" to-port="0" />
		<edge from-layer="2720" from-port="0" to-layer="2724" to-port="1" />
		<edge from-layer="2721" from-port="0" to-layer="2724" to-port="2" />
		<edge from-layer="2722" from-port="0" to-layer="2724" to-port="3" />
		<edge from-layer="2723" from-port="0" to-layer="2724" to-port="4" />
		<edge from-layer="2724" from-port="5" to-layer="2726" to-port="0" />
		<edge from-layer="2725" from-port="0" to-layer="2726" to-port="1" />
		<edge from-layer="2726" from-port="2" to-layer="2733" to-port="0" />
		<edge from-layer="2727" from-port="0" to-layer="2728" to-port="0" />
		<edge from-layer="2728" from-port="1" to-layer="2730" to-port="0" />
		<edge from-layer="2729" from-port="0" to-layer="2730" to-port="1" />
		<edge from-layer="2730" from-port="2" to-layer="2732" to-port="0" />
		<edge from-layer="2731" from-port="0" to-layer="2732" to-port="1" />
		<edge from-layer="2732" from-port="2" to-layer="2733" to-port="1" />
		<edge from-layer="2733" from-port="2" to-layer="2740" to-port="0" />
		<edge from-layer="2734" from-port="0" to-layer="2735" to-port="0" />
		<edge from-layer="2735" from-port="1" to-layer="2737" to-port="0" />
		<edge from-layer="2736" from-port="0" to-layer="2737" to-port="1" />
		<edge from-layer="2737" from-port="2" to-layer="2739" to-port="0" />
		<edge from-layer="2738" from-port="0" to-layer="2739" to-port="1" />
		<edge from-layer="2739" from-port="2" to-layer="2740" to-port="1" />
		<edge from-layer="2740" from-port="2" to-layer="2745" to-port="0" />
		<edge from-layer="2741" from-port="0" to-layer="2745" to-port="1" />
		<edge from-layer="2742" from-port="0" to-layer="2745" to-port="2" />
		<edge from-layer="2743" from-port="0" to-layer="2745" to-port="3" />
		<edge from-layer="2744" from-port="0" to-layer="2745" to-port="4" />
		<edge from-layer="2745" from-port="5" to-layer="2747" to-port="0" />
		<edge from-layer="2746" from-port="0" to-layer="2747" to-port="1" />
		<edge from-layer="2747" from-port="2" to-layer="2752" to-port="0" />
		<edge from-layer="2748" from-port="0" to-layer="2752" to-port="1" />
		<edge from-layer="2749" from-port="0" to-layer="2752" to-port="2" />
		<edge from-layer="2750" from-port="0" to-layer="2752" to-port="3" />
		<edge from-layer="2751" from-port="0" to-layer="2752" to-port="4" />
		<edge from-layer="2752" from-port="5" to-layer="2760" to-port="0" />
		<edge from-layer="2753" from-port="0" to-layer="2754" to-port="0" />
		<edge from-layer="2754" from-port="1" to-layer="2757" to-port="0" />
		<edge from-layer="2755" from-port="0" to-layer="2756" to-port="0" />
		<edge from-layer="2756" from-port="1" to-layer="2757" to-port="1" />
		<edge from-layer="2757" from-port="2" to-layer="2759" to-port="0" />
		<edge from-layer="2758" from-port="0" to-layer="2759" to-port="1" />
		<edge from-layer="2759" from-port="2" to-layer="2760" to-port="1" />
		<edge from-layer="2760" from-port="2" to-layer="2765" to-port="0" />
		<edge from-layer="2761" from-port="0" to-layer="2765" to-port="1" />
		<edge from-layer="2762" from-port="0" to-layer="2765" to-port="2" />
		<edge from-layer="2763" from-port="0" to-layer="2765" to-port="3" />
		<edge from-layer="2764" from-port="0" to-layer="2765" to-port="4" />
		<edge from-layer="2765" from-port="5" to-layer="2773" to-port="0" />
		<edge from-layer="2766" from-port="0" to-layer="2767" to-port="0" />
		<edge from-layer="2767" from-port="1" to-layer="2770" to-port="0" />
		<edge from-layer="2768" from-port="0" to-layer="2769" to-port="0" />
		<edge from-layer="2769" from-port="1" to-layer="2770" to-port="1" />
		<edge from-layer="2770" from-port="2" to-layer="2772" to-port="0" />
		<edge from-layer="2771" from-port="0" to-layer="2772" to-port="1" />
		<edge from-layer="2772" from-port="2" to-layer="2773" to-port="1" />
		<edge from-layer="2773" from-port="2" to-layer="2778" to-port="0" />
		<edge from-layer="2774" from-port="0" to-layer="2778" to-port="1" />
		<edge from-layer="2775" from-port="0" to-layer="2778" to-port="2" />
		<edge from-layer="2776" from-port="0" to-layer="2778" to-port="3" />
		<edge from-layer="2777" from-port="0" to-layer="2778" to-port="4" />
		<edge from-layer="2778" from-port="5" to-layer="2783" to-port="0" />
		<edge from-layer="2779" from-port="0" to-layer="2780" to-port="0" />
		<edge from-layer="2780" from-port="1" to-layer="2782" to-port="0" />
		<edge from-layer="2781" from-port="0" to-layer="2782" to-port="1" />
		<edge from-layer="2782" from-port="2" to-layer="2783" to-port="1" />
		<edge from-layer="2783" from-port="2" to-layer="2790" to-port="0" />
		<edge from-layer="2784" from-port="0" to-layer="2785" to-port="0" />
		<edge from-layer="2785" from-port="1" to-layer="2787" to-port="0" />
		<edge from-layer="2786" from-port="0" to-layer="2787" to-port="1" />
		<edge from-layer="2787" from-port="2" to-layer="2789" to-port="0" />
		<edge from-layer="2788" from-port="0" to-layer="2789" to-port="1" />
		<edge from-layer="2789" from-port="2" to-layer="2790" to-port="1" />
		<edge from-layer="2790" from-port="2" to-layer="2795" to-port="0" />
		<edge from-layer="2791" from-port="0" to-layer="2795" to-port="1" />
		<edge from-layer="2792" from-port="0" to-layer="2795" to-port="2" />
		<edge from-layer="2793" from-port="0" to-layer="2795" to-port="3" />
		<edge from-layer="2794" from-port="0" to-layer="2795" to-port="4" />
		<edge from-layer="2795" from-port="5" to-layer="2797" to-port="0" />
		<edge from-layer="2796" from-port="0" to-layer="2797" to-port="1" />
		<edge from-layer="2797" from-port="4" to-layer="2812" to-port="0" />
		<edge from-layer="2797" from-port="3" to-layer="2817" to-port="0" />
		<edge from-layer="2797" from-port="5" to-layer="2802" to-port="0" />
		<edge from-layer="2798" from-port="0" to-layer="2802" to-port="1" />
		<edge from-layer="2799" from-port="0" to-layer="2802" to-port="2" />
		<edge from-layer="2800" from-port="0" to-layer="2802" to-port="3" />
		<edge from-layer="2801" from-port="0" to-layer="2802" to-port="4" />
		<edge from-layer="2802" from-port="5" to-layer="2807" to-port="0" />
		<edge from-layer="2803" from-port="0" to-layer="2807" to-port="1" />
		<edge from-layer="2804" from-port="0" to-layer="2807" to-port="2" />
		<edge from-layer="2805" from-port="0" to-layer="2807" to-port="3" />
		<edge from-layer="2806" from-port="0" to-layer="2807" to-port="4" />
		<edge from-layer="2807" from-port="5" to-layer="2837" to-port="0" />
		<edge from-layer="2808" from-port="0" to-layer="2812" to-port="1" />
		<edge from-layer="2809" from-port="0" to-layer="2812" to-port="2" />
		<edge from-layer="2810" from-port="0" to-layer="2812" to-port="3" />
		<edge from-layer="2811" from-port="0" to-layer="2812" to-port="4" />
		<edge from-layer="2812" from-port="5" to-layer="2824" to-port="0" />
		<edge from-layer="2813" from-port="0" to-layer="2817" to-port="1" />
		<edge from-layer="2814" from-port="0" to-layer="2817" to-port="2" />
		<edge from-layer="2815" from-port="0" to-layer="2817" to-port="3" />
		<edge from-layer="2816" from-port="0" to-layer="2817" to-port="4" />
		<edge from-layer="2817" from-port="5" to-layer="2818" to-port="0" />
		<edge from-layer="2818" from-port="1" to-layer="2823" to-port="0" />
		<edge from-layer="2819" from-port="0" to-layer="2823" to-port="1" />
		<edge from-layer="2820" from-port="0" to-layer="2823" to-port="2" />
		<edge from-layer="2821" from-port="0" to-layer="2823" to-port="3" />
		<edge from-layer="2822" from-port="0" to-layer="2823" to-port="4" />
		<edge from-layer="2823" from-port="5" to-layer="2824" to-port="1" />
		<edge from-layer="2824" from-port="2" to-layer="2829" to-port="0" />
		<edge from-layer="2825" from-port="0" to-layer="2829" to-port="1" />
		<edge from-layer="2826" from-port="0" to-layer="2829" to-port="2" />
		<edge from-layer="2827" from-port="0" to-layer="2829" to-port="3" />
		<edge from-layer="2828" from-port="0" to-layer="2829" to-port="4" />
		<edge from-layer="2829" from-port="5" to-layer="2830" to-port="0" />
		<edge from-layer="2830" from-port="2" to-layer="2831" to-port="0" />
		<edge from-layer="2831" from-port="2" to-layer="2836" to-port="0" />
		<edge from-layer="2832" from-port="0" to-layer="2836" to-port="1" />
		<edge from-layer="2833" from-port="0" to-layer="2836" to-port="2" />
		<edge from-layer="2834" from-port="0" to-layer="2836" to-port="3" />
		<edge from-layer="2835" from-port="0" to-layer="2836" to-port="4" />
		<edge from-layer="2836" from-port="5" to-layer="2837" to-port="1" />
		<edge from-layer="2837" from-port="2" to-layer="2842" to-port="0" />
		<edge from-layer="2838" from-port="0" to-layer="2842" to-port="1" />
		<edge from-layer="2839" from-port="0" to-layer="2842" to-port="2" />
		<edge from-layer="2840" from-port="0" to-layer="2842" to-port="3" />
		<edge from-layer="2841" from-port="0" to-layer="2842" to-port="4" />
		<edge from-layer="2842" from-port="5" to-layer="2847" to-port="0" />
		<edge from-layer="2843" from-port="0" to-layer="2844" to-port="0" />
		<edge from-layer="2844" from-port="1" to-layer="2846" to-port="0" />
		<edge from-layer="2845" from-port="0" to-layer="2846" to-port="1" />
		<edge from-layer="2846" from-port="2" to-layer="2847" to-port="1" />
		<edge from-layer="2847" from-port="2" to-layer="2854" to-port="0" />
		<edge from-layer="2848" from-port="0" to-layer="2849" to-port="0" />
		<edge from-layer="2849" from-port="1" to-layer="2851" to-port="0" />
		<edge from-layer="2850" from-port="0" to-layer="2851" to-port="1" />
		<edge from-layer="2851" from-port="2" to-layer="2853" to-port="0" />
		<edge from-layer="2852" from-port="0" to-layer="2853" to-port="1" />
		<edge from-layer="2853" from-port="2" to-layer="2854" to-port="1" />
		<edge from-layer="2854" from-port="2" to-layer="2859" to-port="0" />
		<edge from-layer="2855" from-port="0" to-layer="2859" to-port="1" />
		<edge from-layer="2856" from-port="0" to-layer="2859" to-port="2" />
		<edge from-layer="2857" from-port="0" to-layer="2859" to-port="3" />
		<edge from-layer="2858" from-port="0" to-layer="2859" to-port="4" />
		<edge from-layer="2859" from-port="5" to-layer="2860" to-port="1" />
		<edge from-layer="2860" from-port="2" to-layer="2865" to-port="0" />
		<edge from-layer="2861" from-port="0" to-layer="2865" to-port="1" />
		<edge from-layer="2862" from-port="0" to-layer="2865" to-port="2" />
		<edge from-layer="2863" from-port="0" to-layer="2865" to-port="3" />
		<edge from-layer="2864" from-port="0" to-layer="2865" to-port="4" />
		<edge from-layer="2865" from-port="5" to-layer="2973" to-port="0" />
		<edge from-layer="2865" from-port="5" to-layer="2867" to-port="0" />
		<edge from-layer="2866" from-port="0" to-layer="2867" to-port="1" />
		<edge from-layer="2867" from-port="2" to-layer="2872" to-port="0" />
		<edge from-layer="2868" from-port="0" to-layer="2872" to-port="1" />
		<edge from-layer="2869" from-port="0" to-layer="2872" to-port="2" />
		<edge from-layer="2870" from-port="0" to-layer="2872" to-port="3" />
		<edge from-layer="2871" from-port="0" to-layer="2872" to-port="4" />
		<edge from-layer="2872" from-port="5" to-layer="2874" to-port="0" />
		<edge from-layer="2873" from-port="0" to-layer="2874" to-port="1" />
		<edge from-layer="2874" from-port="2" to-layer="2881" to-port="0" />
		<edge from-layer="2875" from-port="0" to-layer="2876" to-port="0" />
		<edge from-layer="2876" from-port="1" to-layer="2878" to-port="0" />
		<edge from-layer="2877" from-port="0" to-layer="2878" to-port="1" />
		<edge from-layer="2878" from-port="2" to-layer="2880" to-port="0" />
		<edge from-layer="2879" from-port="0" to-layer="2880" to-port="1" />
		<edge from-layer="2880" from-port="2" to-layer="2881" to-port="1" />
		<edge from-layer="2881" from-port="2" to-layer="2888" to-port="0" />
		<edge from-layer="2882" from-port="0" to-layer="2883" to-port="0" />
		<edge from-layer="2883" from-port="1" to-layer="2885" to-port="0" />
		<edge from-layer="2884" from-port="0" to-layer="2885" to-port="1" />
		<edge from-layer="2885" from-port="2" to-layer="2887" to-port="0" />
		<edge from-layer="2886" from-port="0" to-layer="2887" to-port="1" />
		<edge from-layer="2887" from-port="2" to-layer="2888" to-port="1" />
		<edge from-layer="2888" from-port="2" to-layer="2893" to-port="0" />
		<edge from-layer="2889" from-port="0" to-layer="2893" to-port="1" />
		<edge from-layer="2890" from-port="0" to-layer="2893" to-port="2" />
		<edge from-layer="2891" from-port="0" to-layer="2893" to-port="3" />
		<edge from-layer="2892" from-port="0" to-layer="2893" to-port="4" />
		<edge from-layer="2893" from-port="5" to-layer="2895" to-port="0" />
		<edge from-layer="2894" from-port="0" to-layer="2895" to-port="1" />
		<edge from-layer="2895" from-port="2" to-layer="2900" to-port="0" />
		<edge from-layer="2896" from-port="0" to-layer="2900" to-port="1" />
		<edge from-layer="2897" from-port="0" to-layer="2900" to-port="2" />
		<edge from-layer="2898" from-port="0" to-layer="2900" to-port="3" />
		<edge from-layer="2899" from-port="0" to-layer="2900" to-port="4" />
		<edge from-layer="2900" from-port="5" to-layer="2908" to-port="0" />
		<edge from-layer="2901" from-port="0" to-layer="2902" to-port="0" />
		<edge from-layer="2902" from-port="1" to-layer="2905" to-port="0" />
		<edge from-layer="2903" from-port="0" to-layer="2904" to-port="0" />
		<edge from-layer="2904" from-port="1" to-layer="2905" to-port="1" />
		<edge from-layer="2905" from-port="2" to-layer="2907" to-port="0" />
		<edge from-layer="2906" from-port="0" to-layer="2907" to-port="1" />
		<edge from-layer="2907" from-port="2" to-layer="2908" to-port="1" />
		<edge from-layer="2908" from-port="2" to-layer="2913" to-port="0" />
		<edge from-layer="2909" from-port="0" to-layer="2913" to-port="1" />
		<edge from-layer="2910" from-port="0" to-layer="2913" to-port="2" />
		<edge from-layer="2911" from-port="0" to-layer="2913" to-port="3" />
		<edge from-layer="2912" from-port="0" to-layer="2913" to-port="4" />
		<edge from-layer="2913" from-port="5" to-layer="2921" to-port="0" />
		<edge from-layer="2914" from-port="0" to-layer="2915" to-port="0" />
		<edge from-layer="2915" from-port="1" to-layer="2918" to-port="0" />
		<edge from-layer="2916" from-port="0" to-layer="2917" to-port="0" />
		<edge from-layer="2917" from-port="1" to-layer="2918" to-port="1" />
		<edge from-layer="2918" from-port="2" to-layer="2920" to-port="0" />
		<edge from-layer="2919" from-port="0" to-layer="2920" to-port="1" />
		<edge from-layer="2920" from-port="2" to-layer="2921" to-port="1" />
		<edge from-layer="2921" from-port="2" to-layer="2926" to-port="0" />
		<edge from-layer="2922" from-port="0" to-layer="2926" to-port="1" />
		<edge from-layer="2923" from-port="0" to-layer="2926" to-port="2" />
		<edge from-layer="2924" from-port="0" to-layer="2926" to-port="3" />
		<edge from-layer="2925" from-port="0" to-layer="2926" to-port="4" />
		<edge from-layer="2926" from-port="5" to-layer="2931" to-port="0" />
		<edge from-layer="2927" from-port="0" to-layer="2928" to-port="0" />
		<edge from-layer="2928" from-port="1" to-layer="2930" to-port="0" />
		<edge from-layer="2929" from-port="0" to-layer="2930" to-port="1" />
		<edge from-layer="2930" from-port="2" to-layer="2931" to-port="1" />
		<edge from-layer="2931" from-port="2" to-layer="2938" to-port="0" />
		<edge from-layer="2932" from-port="0" to-layer="2933" to-port="0" />
		<edge from-layer="2933" from-port="1" to-layer="2935" to-port="0" />
		<edge from-layer="2934" from-port="0" to-layer="2935" to-port="1" />
		<edge from-layer="2935" from-port="2" to-layer="2937" to-port="0" />
		<edge from-layer="2936" from-port="0" to-layer="2937" to-port="1" />
		<edge from-layer="2937" from-port="2" to-layer="2938" to-port="1" />
		<edge from-layer="2938" from-port="2" to-layer="2943" to-port="0" />
		<edge from-layer="2939" from-port="0" to-layer="2943" to-port="1" />
		<edge from-layer="2940" from-port="0" to-layer="2943" to-port="2" />
		<edge from-layer="2941" from-port="0" to-layer="2943" to-port="3" />
		<edge from-layer="2942" from-port="0" to-layer="2943" to-port="4" />
		<edge from-layer="2943" from-port="5" to-layer="2944" to-port="0" />
		<edge from-layer="2943" from-port="5" to-layer="2950" to-port="0" />
		<edge from-layer="2944" from-port="1" to-layer="2949" to-port="0" />
		<edge from-layer="2945" from-port="0" to-layer="2949" to-port="1" />
		<edge from-layer="2946" from-port="0" to-layer="2949" to-port="2" />
		<edge from-layer="2947" from-port="0" to-layer="2949" to-port="3" />
		<edge from-layer="2948" from-port="0" to-layer="2949" to-port="4" />
		<edge from-layer="2949" from-port="5" to-layer="2950" to-port="1" />
		<edge from-layer="2950" from-port="2" to-layer="2955" to-port="0" />
		<edge from-layer="2951" from-port="0" to-layer="2955" to-port="1" />
		<edge from-layer="2952" from-port="0" to-layer="2955" to-port="2" />
		<edge from-layer="2953" from-port="0" to-layer="2955" to-port="3" />
		<edge from-layer="2954" from-port="0" to-layer="2955" to-port="4" />
		<edge from-layer="2955" from-port="5" to-layer="2960" to-port="0" />
		<edge from-layer="2956" from-port="0" to-layer="2957" to-port="0" />
		<edge from-layer="2957" from-port="1" to-layer="2959" to-port="0" />
		<edge from-layer="2958" from-port="0" to-layer="2959" to-port="1" />
		<edge from-layer="2959" from-port="2" to-layer="2960" to-port="1" />
		<edge from-layer="2960" from-port="2" to-layer="2967" to-port="0" />
		<edge from-layer="2961" from-port="0" to-layer="2962" to-port="0" />
		<edge from-layer="2962" from-port="1" to-layer="2964" to-port="0" />
		<edge from-layer="2963" from-port="0" to-layer="2964" to-port="1" />
		<edge from-layer="2964" from-port="2" to-layer="2966" to-port="0" />
		<edge from-layer="2965" from-port="0" to-layer="2966" to-port="1" />
		<edge from-layer="2966" from-port="2" to-layer="2967" to-port="1" />
		<edge from-layer="2967" from-port="2" to-layer="2972" to-port="0" />
		<edge from-layer="2968" from-port="0" to-layer="2972" to-port="1" />
		<edge from-layer="2969" from-port="0" to-layer="2972" to-port="2" />
		<edge from-layer="2970" from-port="0" to-layer="2972" to-port="3" />
		<edge from-layer="2971" from-port="0" to-layer="2972" to-port="4" />
		<edge from-layer="2972" from-port="5" to-layer="2973" to-port="1" />
		<edge from-layer="2973" from-port="2" to-layer="2978" to-port="0" />
		<edge from-layer="2974" from-port="0" to-layer="2978" to-port="1" />
		<edge from-layer="2975" from-port="0" to-layer="2978" to-port="2" />
		<edge from-layer="2976" from-port="0" to-layer="2978" to-port="3" />
		<edge from-layer="2977" from-port="0" to-layer="2978" to-port="4" />
		<edge from-layer="2978" from-port="5" to-layer="2980" to-port="0" />
		<edge from-layer="2978" from-port="5" to-layer="3121" to-port="0" />
		<edge from-layer="2979" from-port="0" to-layer="2980" to-port="1" />
		<edge from-layer="2980" from-port="2" to-layer="2985" to-port="0" />
		<edge from-layer="2981" from-port="0" to-layer="2985" to-port="1" />
		<edge from-layer="2982" from-port="0" to-layer="2985" to-port="2" />
		<edge from-layer="2983" from-port="0" to-layer="2985" to-port="3" />
		<edge from-layer="2984" from-port="0" to-layer="2985" to-port="4" />
		<edge from-layer="2985" from-port="5" to-layer="2987" to-port="0" />
		<edge from-layer="2986" from-port="0" to-layer="2987" to-port="1" />
		<edge from-layer="2987" from-port="2" to-layer="2994" to-port="0" />
		<edge from-layer="2988" from-port="0" to-layer="2989" to-port="0" />
		<edge from-layer="2989" from-port="1" to-layer="2991" to-port="0" />
		<edge from-layer="2990" from-port="0" to-layer="2991" to-port="1" />
		<edge from-layer="2991" from-port="2" to-layer="2993" to-port="0" />
		<edge from-layer="2992" from-port="0" to-layer="2993" to-port="1" />
		<edge from-layer="2993" from-port="2" to-layer="2994" to-port="1" />
		<edge from-layer="2994" from-port="2" to-layer="3001" to-port="0" />
		<edge from-layer="2995" from-port="0" to-layer="2996" to-port="0" />
		<edge from-layer="2996" from-port="1" to-layer="2998" to-port="0" />
		<edge from-layer="2997" from-port="0" to-layer="2998" to-port="1" />
		<edge from-layer="2998" from-port="2" to-layer="3000" to-port="0" />
		<edge from-layer="2999" from-port="0" to-layer="3000" to-port="1" />
		<edge from-layer="3000" from-port="2" to-layer="3001" to-port="1" />
		<edge from-layer="3001" from-port="2" to-layer="3006" to-port="0" />
		<edge from-layer="3002" from-port="0" to-layer="3006" to-port="1" />
		<edge from-layer="3003" from-port="0" to-layer="3006" to-port="2" />
		<edge from-layer="3004" from-port="0" to-layer="3006" to-port="3" />
		<edge from-layer="3005" from-port="0" to-layer="3006" to-port="4" />
		<edge from-layer="3006" from-port="5" to-layer="3008" to-port="0" />
		<edge from-layer="3007" from-port="0" to-layer="3008" to-port="1" />
		<edge from-layer="3008" from-port="2" to-layer="3013" to-port="0" />
		<edge from-layer="3009" from-port="0" to-layer="3013" to-port="1" />
		<edge from-layer="3010" from-port="0" to-layer="3013" to-port="2" />
		<edge from-layer="3011" from-port="0" to-layer="3013" to-port="3" />
		<edge from-layer="3012" from-port="0" to-layer="3013" to-port="4" />
		<edge from-layer="3013" from-port="5" to-layer="3021" to-port="0" />
		<edge from-layer="3014" from-port="0" to-layer="3015" to-port="0" />
		<edge from-layer="3015" from-port="1" to-layer="3018" to-port="0" />
		<edge from-layer="3016" from-port="0" to-layer="3017" to-port="0" />
		<edge from-layer="3017" from-port="1" to-layer="3018" to-port="1" />
		<edge from-layer="3018" from-port="2" to-layer="3020" to-port="0" />
		<edge from-layer="3019" from-port="0" to-layer="3020" to-port="1" />
		<edge from-layer="3020" from-port="2" to-layer="3021" to-port="1" />
		<edge from-layer="3021" from-port="2" to-layer="3026" to-port="0" />
		<edge from-layer="3022" from-port="0" to-layer="3026" to-port="1" />
		<edge from-layer="3023" from-port="0" to-layer="3026" to-port="2" />
		<edge from-layer="3024" from-port="0" to-layer="3026" to-port="3" />
		<edge from-layer="3025" from-port="0" to-layer="3026" to-port="4" />
		<edge from-layer="3026" from-port="5" to-layer="3034" to-port="0" />
		<edge from-layer="3027" from-port="0" to-layer="3028" to-port="0" />
		<edge from-layer="3028" from-port="1" to-layer="3031" to-port="0" />
		<edge from-layer="3029" from-port="0" to-layer="3030" to-port="0" />
		<edge from-layer="3030" from-port="1" to-layer="3031" to-port="1" />
		<edge from-layer="3031" from-port="2" to-layer="3033" to-port="0" />
		<edge from-layer="3032" from-port="0" to-layer="3033" to-port="1" />
		<edge from-layer="3033" from-port="2" to-layer="3034" to-port="1" />
		<edge from-layer="3034" from-port="2" to-layer="3039" to-port="0" />
		<edge from-layer="3035" from-port="0" to-layer="3039" to-port="1" />
		<edge from-layer="3036" from-port="0" to-layer="3039" to-port="2" />
		<edge from-layer="3037" from-port="0" to-layer="3039" to-port="3" />
		<edge from-layer="3038" from-port="0" to-layer="3039" to-port="4" />
		<edge from-layer="3039" from-port="5" to-layer="3044" to-port="0" />
		<edge from-layer="3040" from-port="0" to-layer="3041" to-port="0" />
		<edge from-layer="3041" from-port="1" to-layer="3043" to-port="0" />
		<edge from-layer="3042" from-port="0" to-layer="3043" to-port="1" />
		<edge from-layer="3043" from-port="2" to-layer="3044" to-port="1" />
		<edge from-layer="3044" from-port="2" to-layer="3051" to-port="0" />
		<edge from-layer="3045" from-port="0" to-layer="3046" to-port="0" />
		<edge from-layer="3046" from-port="1" to-layer="3048" to-port="0" />
		<edge from-layer="3047" from-port="0" to-layer="3048" to-port="1" />
		<edge from-layer="3048" from-port="2" to-layer="3050" to-port="0" />
		<edge from-layer="3049" from-port="0" to-layer="3050" to-port="1" />
		<edge from-layer="3050" from-port="2" to-layer="3051" to-port="1" />
		<edge from-layer="3051" from-port="2" to-layer="3056" to-port="0" />
		<edge from-layer="3052" from-port="0" to-layer="3056" to-port="1" />
		<edge from-layer="3053" from-port="0" to-layer="3056" to-port="2" />
		<edge from-layer="3054" from-port="0" to-layer="3056" to-port="3" />
		<edge from-layer="3055" from-port="0" to-layer="3056" to-port="4" />
		<edge from-layer="3056" from-port="5" to-layer="3058" to-port="0" />
		<edge from-layer="3057" from-port="0" to-layer="3058" to-port="1" />
		<edge from-layer="3058" from-port="5" to-layer="3063" to-port="0" />
		<edge from-layer="3058" from-port="3" to-layer="3078" to-port="0" />
		<edge from-layer="3058" from-port="4" to-layer="3073" to-port="0" />
		<edge from-layer="3059" from-port="0" to-layer="3063" to-port="1" />
		<edge from-layer="3060" from-port="0" to-layer="3063" to-port="2" />
		<edge from-layer="3061" from-port="0" to-layer="3063" to-port="3" />
		<edge from-layer="3062" from-port="0" to-layer="3063" to-port="4" />
		<edge from-layer="3063" from-port="5" to-layer="3068" to-port="0" />
		<edge from-layer="3064" from-port="0" to-layer="3068" to-port="1" />
		<edge from-layer="3065" from-port="0" to-layer="3068" to-port="2" />
		<edge from-layer="3066" from-port="0" to-layer="3068" to-port="3" />
		<edge from-layer="3067" from-port="0" to-layer="3068" to-port="4" />
		<edge from-layer="3068" from-port="5" to-layer="3098" to-port="0" />
		<edge from-layer="3069" from-port="0" to-layer="3073" to-port="1" />
		<edge from-layer="3070" from-port="0" to-layer="3073" to-port="2" />
		<edge from-layer="3071" from-port="0" to-layer="3073" to-port="3" />
		<edge from-layer="3072" from-port="0" to-layer="3073" to-port="4" />
		<edge from-layer="3073" from-port="5" to-layer="3085" to-port="0" />
		<edge from-layer="3074" from-port="0" to-layer="3078" to-port="1" />
		<edge from-layer="3075" from-port="0" to-layer="3078" to-port="2" />
		<edge from-layer="3076" from-port="0" to-layer="3078" to-port="3" />
		<edge from-layer="3077" from-port="0" to-layer="3078" to-port="4" />
		<edge from-layer="3078" from-port="5" to-layer="3079" to-port="0" />
		<edge from-layer="3079" from-port="1" to-layer="3084" to-port="0" />
		<edge from-layer="3080" from-port="0" to-layer="3084" to-port="1" />
		<edge from-layer="3081" from-port="0" to-layer="3084" to-port="2" />
		<edge from-layer="3082" from-port="0" to-layer="3084" to-port="3" />
		<edge from-layer="3083" from-port="0" to-layer="3084" to-port="4" />
		<edge from-layer="3084" from-port="5" to-layer="3085" to-port="1" />
		<edge from-layer="3085" from-port="2" to-layer="3090" to-port="0" />
		<edge from-layer="3086" from-port="0" to-layer="3090" to-port="1" />
		<edge from-layer="3087" from-port="0" to-layer="3090" to-port="2" />
		<edge from-layer="3088" from-port="0" to-layer="3090" to-port="3" />
		<edge from-layer="3089" from-port="0" to-layer="3090" to-port="4" />
		<edge from-layer="3090" from-port="5" to-layer="3091" to-port="0" />
		<edge from-layer="3091" from-port="2" to-layer="3092" to-port="0" />
		<edge from-layer="3092" from-port="2" to-layer="3097" to-port="0" />
		<edge from-layer="3093" from-port="0" to-layer="3097" to-port="1" />
		<edge from-layer="3094" from-port="0" to-layer="3097" to-port="2" />
		<edge from-layer="3095" from-port="0" to-layer="3097" to-port="3" />
		<edge from-layer="3096" from-port="0" to-layer="3097" to-port="4" />
		<edge from-layer="3097" from-port="5" to-layer="3098" to-port="1" />
		<edge from-layer="3098" from-port="2" to-layer="3103" to-port="0" />
		<edge from-layer="3099" from-port="0" to-layer="3103" to-port="1" />
		<edge from-layer="3100" from-port="0" to-layer="3103" to-port="2" />
		<edge from-layer="3101" from-port="0" to-layer="3103" to-port="3" />
		<edge from-layer="3102" from-port="0" to-layer="3103" to-port="4" />
		<edge from-layer="3103" from-port="5" to-layer="3108" to-port="0" />
		<edge from-layer="3104" from-port="0" to-layer="3105" to-port="0" />
		<edge from-layer="3105" from-port="1" to-layer="3107" to-port="0" />
		<edge from-layer="3106" from-port="0" to-layer="3107" to-port="1" />
		<edge from-layer="3107" from-port="2" to-layer="3108" to-port="1" />
		<edge from-layer="3108" from-port="2" to-layer="3115" to-port="0" />
		<edge from-layer="3109" from-port="0" to-layer="3110" to-port="0" />
		<edge from-layer="3110" from-port="1" to-layer="3112" to-port="0" />
		<edge from-layer="3111" from-port="0" to-layer="3112" to-port="1" />
		<edge from-layer="3112" from-port="2" to-layer="3114" to-port="0" />
		<edge from-layer="3113" from-port="0" to-layer="3114" to-port="1" />
		<edge from-layer="3114" from-port="2" to-layer="3115" to-port="1" />
		<edge from-layer="3115" from-port="2" to-layer="3120" to-port="0" />
		<edge from-layer="3116" from-port="0" to-layer="3120" to-port="1" />
		<edge from-layer="3117" from-port="0" to-layer="3120" to-port="2" />
		<edge from-layer="3118" from-port="0" to-layer="3120" to-port="3" />
		<edge from-layer="3119" from-port="0" to-layer="3120" to-port="4" />
		<edge from-layer="3120" from-port="5" to-layer="3121" to-port="1" />
		<edge from-layer="3121" from-port="2" to-layer="3126" to-port="0" />
		<edge from-layer="3122" from-port="0" to-layer="3126" to-port="1" />
		<edge from-layer="3123" from-port="0" to-layer="3126" to-port="2" />
		<edge from-layer="3124" from-port="0" to-layer="3126" to-port="3" />
		<edge from-layer="3125" from-port="0" to-layer="3126" to-port="4" />
		<edge from-layer="3126" from-port="5" to-layer="3234" to-port="0" />
		<edge from-layer="3126" from-port="5" to-layer="3128" to-port="0" />
		<edge from-layer="3127" from-port="0" to-layer="3128" to-port="1" />
		<edge from-layer="3128" from-port="2" to-layer="3133" to-port="0" />
		<edge from-layer="3129" from-port="0" to-layer="3133" to-port="1" />
		<edge from-layer="3130" from-port="0" to-layer="3133" to-port="2" />
		<edge from-layer="3131" from-port="0" to-layer="3133" to-port="3" />
		<edge from-layer="3132" from-port="0" to-layer="3133" to-port="4" />
		<edge from-layer="3133" from-port="5" to-layer="3135" to-port="0" />
		<edge from-layer="3134" from-port="0" to-layer="3135" to-port="1" />
		<edge from-layer="3135" from-port="2" to-layer="3142" to-port="0" />
		<edge from-layer="3136" from-port="0" to-layer="3137" to-port="0" />
		<edge from-layer="3137" from-port="1" to-layer="3139" to-port="0" />
		<edge from-layer="3138" from-port="0" to-layer="3139" to-port="1" />
		<edge from-layer="3139" from-port="2" to-layer="3141" to-port="0" />
		<edge from-layer="3140" from-port="0" to-layer="3141" to-port="1" />
		<edge from-layer="3141" from-port="2" to-layer="3142" to-port="1" />
		<edge from-layer="3142" from-port="2" to-layer="3149" to-port="0" />
		<edge from-layer="3143" from-port="0" to-layer="3144" to-port="0" />
		<edge from-layer="3144" from-port="1" to-layer="3146" to-port="0" />
		<edge from-layer="3145" from-port="0" to-layer="3146" to-port="1" />
		<edge from-layer="3146" from-port="2" to-layer="3148" to-port="0" />
		<edge from-layer="3147" from-port="0" to-layer="3148" to-port="1" />
		<edge from-layer="3148" from-port="2" to-layer="3149" to-port="1" />
		<edge from-layer="3149" from-port="2" to-layer="3154" to-port="0" />
		<edge from-layer="3150" from-port="0" to-layer="3154" to-port="1" />
		<edge from-layer="3151" from-port="0" to-layer="3154" to-port="2" />
		<edge from-layer="3152" from-port="0" to-layer="3154" to-port="3" />
		<edge from-layer="3153" from-port="0" to-layer="3154" to-port="4" />
		<edge from-layer="3154" from-port="5" to-layer="3156" to-port="0" />
		<edge from-layer="3155" from-port="0" to-layer="3156" to-port="1" />
		<edge from-layer="3156" from-port="2" to-layer="3161" to-port="0" />
		<edge from-layer="3157" from-port="0" to-layer="3161" to-port="1" />
		<edge from-layer="3158" from-port="0" to-layer="3161" to-port="2" />
		<edge from-layer="3159" from-port="0" to-layer="3161" to-port="3" />
		<edge from-layer="3160" from-port="0" to-layer="3161" to-port="4" />
		<edge from-layer="3161" from-port="5" to-layer="3169" to-port="0" />
		<edge from-layer="3162" from-port="0" to-layer="3163" to-port="0" />
		<edge from-layer="3163" from-port="1" to-layer="3166" to-port="0" />
		<edge from-layer="3164" from-port="0" to-layer="3165" to-port="0" />
		<edge from-layer="3165" from-port="1" to-layer="3166" to-port="1" />
		<edge from-layer="3166" from-port="2" to-layer="3168" to-port="0" />
		<edge from-layer="3167" from-port="0" to-layer="3168" to-port="1" />
		<edge from-layer="3168" from-port="2" to-layer="3169" to-port="1" />
		<edge from-layer="3169" from-port="2" to-layer="3174" to-port="0" />
		<edge from-layer="3170" from-port="0" to-layer="3174" to-port="1" />
		<edge from-layer="3171" from-port="0" to-layer="3174" to-port="2" />
		<edge from-layer="3172" from-port="0" to-layer="3174" to-port="3" />
		<edge from-layer="3173" from-port="0" to-layer="3174" to-port="4" />
		<edge from-layer="3174" from-port="5" to-layer="3182" to-port="0" />
		<edge from-layer="3175" from-port="0" to-layer="3176" to-port="0" />
		<edge from-layer="3176" from-port="1" to-layer="3179" to-port="0" />
		<edge from-layer="3177" from-port="0" to-layer="3178" to-port="0" />
		<edge from-layer="3178" from-port="1" to-layer="3179" to-port="1" />
		<edge from-layer="3179" from-port="2" to-layer="3181" to-port="0" />
		<edge from-layer="3180" from-port="0" to-layer="3181" to-port="1" />
		<edge from-layer="3181" from-port="2" to-layer="3182" to-port="1" />
		<edge from-layer="3182" from-port="2" to-layer="3187" to-port="0" />
		<edge from-layer="3183" from-port="0" to-layer="3187" to-port="1" />
		<edge from-layer="3184" from-port="0" to-layer="3187" to-port="2" />
		<edge from-layer="3185" from-port="0" to-layer="3187" to-port="3" />
		<edge from-layer="3186" from-port="0" to-layer="3187" to-port="4" />
		<edge from-layer="3187" from-port="5" to-layer="3192" to-port="0" />
		<edge from-layer="3188" from-port="0" to-layer="3189" to-port="0" />
		<edge from-layer="3189" from-port="1" to-layer="3191" to-port="0" />
		<edge from-layer="3190" from-port="0" to-layer="3191" to-port="1" />
		<edge from-layer="3191" from-port="2" to-layer="3192" to-port="1" />
		<edge from-layer="3192" from-port="2" to-layer="3199" to-port="0" />
		<edge from-layer="3193" from-port="0" to-layer="3194" to-port="0" />
		<edge from-layer="3194" from-port="1" to-layer="3196" to-port="0" />
		<edge from-layer="3195" from-port="0" to-layer="3196" to-port="1" />
		<edge from-layer="3196" from-port="2" to-layer="3198" to-port="0" />
		<edge from-layer="3197" from-port="0" to-layer="3198" to-port="1" />
		<edge from-layer="3198" from-port="2" to-layer="3199" to-port="1" />
		<edge from-layer="3199" from-port="2" to-layer="3204" to-port="0" />
		<edge from-layer="3200" from-port="0" to-layer="3204" to-port="1" />
		<edge from-layer="3201" from-port="0" to-layer="3204" to-port="2" />
		<edge from-layer="3202" from-port="0" to-layer="3204" to-port="3" />
		<edge from-layer="3203" from-port="0" to-layer="3204" to-port="4" />
		<edge from-layer="3204" from-port="5" to-layer="3205" to-port="0" />
		<edge from-layer="3204" from-port="5" to-layer="3211" to-port="0" />
		<edge from-layer="3205" from-port="1" to-layer="3210" to-port="0" />
		<edge from-layer="3206" from-port="0" to-layer="3210" to-port="1" />
		<edge from-layer="3207" from-port="0" to-layer="3210" to-port="2" />
		<edge from-layer="3208" from-port="0" to-layer="3210" to-port="3" />
		<edge from-layer="3209" from-port="0" to-layer="3210" to-port="4" />
		<edge from-layer="3210" from-port="5" to-layer="3211" to-port="1" />
		<edge from-layer="3211" from-port="2" to-layer="3216" to-port="0" />
		<edge from-layer="3212" from-port="0" to-layer="3216" to-port="1" />
		<edge from-layer="3213" from-port="0" to-layer="3216" to-port="2" />
		<edge from-layer="3214" from-port="0" to-layer="3216" to-port="3" />
		<edge from-layer="3215" from-port="0" to-layer="3216" to-port="4" />
		<edge from-layer="3216" from-port="5" to-layer="3221" to-port="0" />
		<edge from-layer="3217" from-port="0" to-layer="3218" to-port="0" />
		<edge from-layer="3218" from-port="1" to-layer="3220" to-port="0" />
		<edge from-layer="3219" from-port="0" to-layer="3220" to-port="1" />
		<edge from-layer="3220" from-port="2" to-layer="3221" to-port="1" />
		<edge from-layer="3221" from-port="2" to-layer="3228" to-port="0" />
		<edge from-layer="3222" from-port="0" to-layer="3223" to-port="0" />
		<edge from-layer="3223" from-port="1" to-layer="3225" to-port="0" />
		<edge from-layer="3224" from-port="0" to-layer="3225" to-port="1" />
		<edge from-layer="3225" from-port="2" to-layer="3227" to-port="0" />
		<edge from-layer="3226" from-port="0" to-layer="3227" to-port="1" />
		<edge from-layer="3227" from-port="2" to-layer="3228" to-port="1" />
		<edge from-layer="3228" from-port="2" to-layer="3233" to-port="0" />
		<edge from-layer="3229" from-port="0" to-layer="3233" to-port="1" />
		<edge from-layer="3230" from-port="0" to-layer="3233" to-port="2" />
		<edge from-layer="3231" from-port="0" to-layer="3233" to-port="3" />
		<edge from-layer="3232" from-port="0" to-layer="3233" to-port="4" />
		<edge from-layer="3233" from-port="5" to-layer="3234" to-port="1" />
		<edge from-layer="3234" from-port="2" to-layer="3239" to-port="0" />
		<edge from-layer="3235" from-port="0" to-layer="3239" to-port="1" />
		<edge from-layer="3236" from-port="0" to-layer="3239" to-port="2" />
		<edge from-layer="3237" from-port="0" to-layer="3239" to-port="3" />
		<edge from-layer="3238" from-port="0" to-layer="3239" to-port="4" />
		<edge from-layer="3239" from-port="5" to-layer="3241" to-port="0" />
		<edge from-layer="3240" from-port="0" to-layer="3241" to-port="1" />
		<edge from-layer="3241" from-port="2" to-layer="3246" to-port="0" />
		<edge from-layer="3242" from-port="0" to-layer="3246" to-port="1" />
		<edge from-layer="3243" from-port="0" to-layer="3246" to-port="2" />
		<edge from-layer="3244" from-port="0" to-layer="3246" to-port="3" />
		<edge from-layer="3245" from-port="0" to-layer="3246" to-port="4" />
		<edge from-layer="3246" from-port="5" to-layer="3248" to-port="0" />
		<edge from-layer="3247" from-port="0" to-layer="3248" to-port="1" />
		<edge from-layer="3248" from-port="2" to-layer="3255" to-port="0" />
		<edge from-layer="3249" from-port="0" to-layer="3250" to-port="0" />
		<edge from-layer="3250" from-port="1" to-layer="3252" to-port="0" />
		<edge from-layer="3251" from-port="0" to-layer="3252" to-port="1" />
		<edge from-layer="3252" from-port="2" to-layer="3254" to-port="0" />
		<edge from-layer="3253" from-port="0" to-layer="3254" to-port="1" />
		<edge from-layer="3254" from-port="2" to-layer="3255" to-port="1" />
		<edge from-layer="3255" from-port="2" to-layer="3262" to-port="0" />
		<edge from-layer="3256" from-port="0" to-layer="3257" to-port="0" />
		<edge from-layer="3257" from-port="1" to-layer="3259" to-port="0" />
		<edge from-layer="3258" from-port="0" to-layer="3259" to-port="1" />
		<edge from-layer="3259" from-port="2" to-layer="3261" to-port="0" />
		<edge from-layer="3260" from-port="0" to-layer="3261" to-port="1" />
		<edge from-layer="3261" from-port="2" to-layer="3262" to-port="1" />
		<edge from-layer="3262" from-port="2" to-layer="3267" to-port="0" />
		<edge from-layer="3263" from-port="0" to-layer="3267" to-port="1" />
		<edge from-layer="3264" from-port="0" to-layer="3267" to-port="2" />
		<edge from-layer="3265" from-port="0" to-layer="3267" to-port="3" />
		<edge from-layer="3266" from-port="0" to-layer="3267" to-port="4" />
		<edge from-layer="3267" from-port="5" to-layer="3269" to-port="0" />
		<edge from-layer="3268" from-port="0" to-layer="3269" to-port="1" />
		<edge from-layer="3269" from-port="2" to-layer="3274" to-port="0" />
		<edge from-layer="3270" from-port="0" to-layer="3274" to-port="1" />
		<edge from-layer="3271" from-port="0" to-layer="3274" to-port="2" />
		<edge from-layer="3272" from-port="0" to-layer="3274" to-port="3" />
		<edge from-layer="3273" from-port="0" to-layer="3274" to-port="4" />
		<edge from-layer="3274" from-port="5" to-layer="3282" to-port="0" />
		<edge from-layer="3275" from-port="0" to-layer="3276" to-port="0" />
		<edge from-layer="3276" from-port="1" to-layer="3279" to-port="0" />
		<edge from-layer="3277" from-port="0" to-layer="3278" to-port="0" />
		<edge from-layer="3278" from-port="1" to-layer="3279" to-port="1" />
		<edge from-layer="3279" from-port="2" to-layer="3281" to-port="0" />
		<edge from-layer="3280" from-port="0" to-layer="3281" to-port="1" />
		<edge from-layer="3281" from-port="2" to-layer="3282" to-port="1" />
		<edge from-layer="3282" from-port="2" to-layer="3287" to-port="0" />
		<edge from-layer="3283" from-port="0" to-layer="3287" to-port="1" />
		<edge from-layer="3284" from-port="0" to-layer="3287" to-port="2" />
		<edge from-layer="3285" from-port="0" to-layer="3287" to-port="3" />
		<edge from-layer="3286" from-port="0" to-layer="3287" to-port="4" />
		<edge from-layer="3287" from-port="5" to-layer="3295" to-port="0" />
		<edge from-layer="3288" from-port="0" to-layer="3289" to-port="0" />
		<edge from-layer="3289" from-port="1" to-layer="3292" to-port="0" />
		<edge from-layer="3290" from-port="0" to-layer="3291" to-port="0" />
		<edge from-layer="3291" from-port="1" to-layer="3292" to-port="1" />
		<edge from-layer="3292" from-port="2" to-layer="3294" to-port="0" />
		<edge from-layer="3293" from-port="0" to-layer="3294" to-port="1" />
		<edge from-layer="3294" from-port="2" to-layer="3295" to-port="1" />
		<edge from-layer="3295" from-port="2" to-layer="3300" to-port="0" />
		<edge from-layer="3296" from-port="0" to-layer="3300" to-port="1" />
		<edge from-layer="3297" from-port="0" to-layer="3300" to-port="2" />
		<edge from-layer="3298" from-port="0" to-layer="3300" to-port="3" />
		<edge from-layer="3299" from-port="0" to-layer="3300" to-port="4" />
		<edge from-layer="3300" from-port="5" to-layer="3302" to-port="0" />
		<edge from-layer="3301" from-port="0" to-layer="3302" to-port="1" />
		<edge from-layer="3302" from-port="2" to-layer="3307" to-port="0" />
		<edge from-layer="3303" from-port="0" to-layer="3307" to-port="1" />
		<edge from-layer="3304" from-port="0" to-layer="3307" to-port="2" />
		<edge from-layer="3305" from-port="0" to-layer="3307" to-port="3" />
		<edge from-layer="3306" from-port="0" to-layer="3307" to-port="4" />
		<edge from-layer="3307" from-port="5" to-layer="3309" to-port="0" />
		<edge from-layer="3308" from-port="0" to-layer="3309" to-port="1" />
		<edge from-layer="3309" from-port="2" to-layer="3314" to-port="0" />
		<edge from-layer="3310" from-port="0" to-layer="3314" to-port="1" />
		<edge from-layer="3311" from-port="0" to-layer="3314" to-port="2" />
		<edge from-layer="3312" from-port="0" to-layer="3314" to-port="3" />
		<edge from-layer="3313" from-port="0" to-layer="3314" to-port="4" />
		<edge from-layer="3314" from-port="5" to-layer="3316" to-port="0" />
		<edge from-layer="3315" from-port="0" to-layer="3316" to-port="1" />
		<edge from-layer="3316" from-port="2" to-layer="3321" to-port="0" />
		<edge from-layer="3317" from-port="0" to-layer="3321" to-port="1" />
		<edge from-layer="3318" from-port="0" to-layer="3321" to-port="2" />
		<edge from-layer="3319" from-port="0" to-layer="3321" to-port="3" />
		<edge from-layer="3320" from-port="0" to-layer="3321" to-port="4" />
		<edge from-layer="3321" from-port="5" to-layer="3326" to-port="0" />
		<edge from-layer="3322" from-port="0" to-layer="3323" to-port="0" />
		<edge from-layer="3323" from-port="1" to-layer="3325" to-port="0" />
		<edge from-layer="3324" from-port="0" to-layer="3325" to-port="1" />
		<edge from-layer="3325" from-port="2" to-layer="3326" to-port="1" />
		<edge from-layer="3326" from-port="2" to-layer="3333" to-port="0" />
		<edge from-layer="3327" from-port="0" to-layer="3328" to-port="0" />
		<edge from-layer="3328" from-port="1" to-layer="3330" to-port="0" />
		<edge from-layer="3329" from-port="0" to-layer="3330" to-port="1" />
		<edge from-layer="3330" from-port="2" to-layer="3332" to-port="0" />
		<edge from-layer="3331" from-port="0" to-layer="3332" to-port="1" />
		<edge from-layer="3332" from-port="2" to-layer="3333" to-port="1" />
		<edge from-layer="3333" from-port="2" to-layer="3338" to-port="0" />
		<edge from-layer="3334" from-port="0" to-layer="3338" to-port="1" />
		<edge from-layer="3335" from-port="0" to-layer="3338" to-port="2" />
		<edge from-layer="3336" from-port="0" to-layer="3338" to-port="3" />
		<edge from-layer="3337" from-port="0" to-layer="3338" to-port="4" />
		<edge from-layer="3338" from-port="5" to-layer="3340" to-port="0" />
		<edge from-layer="3339" from-port="0" to-layer="3340" to-port="1" />
		<edge from-layer="3340" from-port="2" to-layer="3345" to-port="0" />
		<edge from-layer="3341" from-port="0" to-layer="3345" to-port="1" />
		<edge from-layer="3342" from-port="0" to-layer="3345" to-port="2" />
		<edge from-layer="3343" from-port="0" to-layer="3345" to-port="3" />
		<edge from-layer="3344" from-port="0" to-layer="3345" to-port="4" />
		<edge from-layer="3345" from-port="5" to-layer="3347" to-port="0" />
		<edge from-layer="3346" from-port="0" to-layer="3347" to-port="1" />
		<edge from-layer="3347" from-port="2" to-layer="3352" to-port="0" />
		<edge from-layer="3348" from-port="0" to-layer="3352" to-port="1" />
		<edge from-layer="3349" from-port="0" to-layer="3352" to-port="2" />
		<edge from-layer="3350" from-port="0" to-layer="3352" to-port="3" />
		<edge from-layer="3351" from-port="0" to-layer="3352" to-port="4" />
		<edge from-layer="3352" from-port="5" to-layer="3357" to-port="0" />
		<edge from-layer="3353" from-port="0" to-layer="3354" to-port="0" />
		<edge from-layer="3354" from-port="1" to-layer="3356" to-port="0" />
		<edge from-layer="3355" from-port="0" to-layer="3356" to-port="1" />
		<edge from-layer="3356" from-port="2" to-layer="3357" to-port="1" />
		<edge from-layer="3357" from-port="2" to-layer="3362" to-port="0" />
		<edge from-layer="3358" from-port="0" to-layer="3359" to-port="0" />
		<edge from-layer="3359" from-port="1" to-layer="3361" to-port="0" />
		<edge from-layer="3360" from-port="0" to-layer="3361" to-port="1" />
		<edge from-layer="3361" from-port="2" to-layer="3362" to-port="1" />
		<edge from-layer="3362" from-port="2" to-layer="3367" to-port="0" />
		<edge from-layer="3363" from-port="0" to-layer="3367" to-port="1" />
		<edge from-layer="3364" from-port="0" to-layer="3367" to-port="2" />
		<edge from-layer="3365" from-port="0" to-layer="3367" to-port="3" />
		<edge from-layer="3366" from-port="0" to-layer="3367" to-port="4" />
		<edge from-layer="3367" from-port="5" to-layer="3368" to-port="0" />
	</edges>
	<rt_info>
		<Runtime_version value="2025.4.0-19881-0a49c3257ff" />
		<conversion_parameters>
			<input_model value="DIR/mobilevitv2_1x3x256x256_int8.onnx" />
			<is_python_object value="False" />
		</conversion_parameters>
		<framework>
			<onnx.infer value="onnxruntime.quant" />
		</framework>
	</rt_info>
</net>
